spatial_model_both_side_danger_full_5_but_for_1234/model_best_for_1234.pt (torch_old, 519914 bytes, 48 tensors)

fc1.weight f4 [100, 12]
-0.14258747 0.15738936 -0.058264706 0.041167375 0.22649555 0.026597075 -0.28294593 0.06079956
-0.054086562 -0.27814278 0.23548791 -0.07589233 0.17855315 -0.099302016 -0.14448795 -0.11858068
0.22321573 0.21245183 -0.14104667 0.071814515 0.27122757 -0.038713764 0.2110053 0.25247872
0.17144011 -0.008340172 -0.02574695 -0.013769816 -0.18898012 0.22267666 -0.2530334 -0.012432402
0.15139963 -0.28621256 -0.2691109 -0.16824535 -0.027842034 -0.047663044 0.0042128353 0.16675092
-0.00762057 0.16789068 0.2081334 -0.2886531 0.017671047 -0.10734284 -0.07424794 0.17994641
0.21574746 -0.1091983 0.07133209 -0.055513434 0.053307787 -0.28502554 -0.020157311 -0.2451039
0.14785187 -0.16675708 0.13639688 -0.21511889 -0.10186948 -0.01907108 -0.23271134 0.28621203
0.17647281 -0.037734557 0.02962727 0.20381226 0.16325289 -0.2399851 -0.2779525 0.2173777
0.18229216 0.2568534 -0.03687502 -0.13499928 0.017773317 0.13276336 0.21196575 -0.14039804
-0.09113396 -0.18879677 -0.15428756 -0.25276986 -0.23622905 -0.25769636 0.00465598 -0.053846028
-0.058620635 -0.24438581 0.08307101 0.05078056 0.028429164 0.12141223 -0.22916077 0.17574511
0.14572343 0.0059573785 -0.07451303 -0.25938776 0.1110508 -0.21248803 -0.015188888 0.031784583
0.130803 -0.0042299586 0.27807224 0.122411124 -0.26683617 -0.15225072 -0.0061803116 0.24681985
0.039998624 -0.2741315 -0.19898742 -0.17953412 -0.11862885 -0.11890591 0.09566618 0.09148521
0.21225335 -0.008319554 -0.042363703 0.119511 0.20578164 -0.2336364 0.041129623 -0.05054322
0.0270867 0.107054986 0.051527705 -0.17174168 0.08238453 -0.28148076 0.24424651 0.24287395
0.10352628 0.065554544 -0.13000631 -0.20461394 0.07834936 0.012085726 -0.0708967 -0.21356735
0.23914057 -0.26686522 -0.1889742 -0.24883367 -0.21285453 0.28597468 0.25382134 0.14528258
0.26601106 0.26684168 0.15498467 -0.28261554 -0.24227196 -0.05502603 0.052867357 0.062839665
0.22945863 0.030186178 -0.040849444 0.2785917 0.109058164 0.1305462 -0.03666429 0.00852892
0.24823645 -0.09073718 0.0068814224 0.015881611 -0.036340237 -0.27266183 -0.28108072 0.15376654
0.107290156 0.12794699 -0.16286357 -0.25878277 -0.28631297 0.15058206 -0.060102306 0.11522754
0.23131894 0.048073016 0.11093914 -0.019032493 0.18619001 0.003110548 -0.1694785 -0.2563443
0.13475183 0.049113624 -0.10404459 0.006911367 -0.2566618 -0.17592093 0.20820083 -0.19155644
0.009580097 -0.09057681 0.2759544 -0.1312359 -0.040655497 0.07177588 -0.0154409055 -0.27409744
-0.060445156 -0.20055267 0.27917153 -0.1548914 0.245229 -0.08971081 -0.057337984 0.0066598197
-0.25389645 -0.10140761 -0.038948514 -0.086168036 -0.27320382 -0.21174397 -0.071663074 0.22943698
-0.09224046 -0.09517479 -0.005016925 0.25892705 -0.11405953 -0.15604842 -0.10762163 0.15077892
0.24817067 -0.033819497 0.22233209 0.029761339 0.22119041 0.25989133 0.26851177 0.28337556
-0.08126361 -0.061208826 0.22530943 0.26150674 -0.12908584 0.11219594 0.023033816 0.13892907
0.023292271 0.06763083 -0.024450703 -0.10434746 -0.002083269 -0.24957687 -0.21767904 -0.019567233
00000000: 7302 12be ad2a 213e f9a6 6ebd 1f9f 283d
00000010: 73ee 673e 1ce2 d93c 4ade 90be f608 793d
00000020: df89 5dbd bb68 8ebe be23 713e 706d 9bbd
00000030: a3d6 363e db5e cbbd a6f4 13be 6dda f2bd
00000040: aa92 643e f98c 593e 8a6e 10be 7d13 933d
00000050: 57de 8a3e 5392 1ebd c611 583e e444 813e
00000060: ff8d 2f3e 37a5 08bc 45eb d2bc cb9a 61bc
00000070: 0184 41be 5a05 643e 988d 81be 46b1 4bbc
00000080: 8108 1b3e 748a 92be e7c8 89be 8248 2cbe
00000090: fa14 e4bc 533a 43bd d30b 8a3b c1c0 2a3e
000000a0: f9b5 f9bb 89eb 2b3e ec20 553e 57ca 93be
000000b0: dfc2 903c 90d6 dbbd 4e0f 98bd df43 383e
000000c0: e7ec 5c3e 5ca3 dfbd 8f16 923d 0e62 63bd
000000d0: 4459 5a3d deee 91be f220 a5bc 84fc 7abe
000000e0: 7b66 173e 5ec2 2abe a0ab 0b3e 2048 5cbe
000000f0: f2a0 d0bd f43a 9cbc e24b 6ebe 628a 923e
00000100: 4ab5 343e 8d8f 1abd e3b4 f23c 29b4 503e
00000110: c42b 273e a7be 75be ca4f 8ebe 4398 5e3e
00000120: ccaa 3a3e 4a82 833e 430a 17bd 403d 0abe
00000130: 5999 913c 1ef3 073e 8d0d 593e 81c4 0fbe
00000140: 71a4 babd f153 41be 8ffd 1dbe 0d6b 81be
00000150: 07e6 71be c7f0 83be 3191 983b a78d 5cbd
00000160: 311c 70bd 4640 7abe 2221 aa3d 47ff 4f3d
00000170: 47e4 e83c faa6 f83d 1fa9 6abe 87f6 333e
00000180: 8638 153e 1d36 c33b 4a9a 98bd 79ce 84be
00000190: 9a6e e33d 7696 59be d0da 78bc 8d30 023d
000001a0: 39f1 053e 779b 8abb 7c5f 8e3e afb2 fa3d
000001b0: c09e 88be 9de7 1bbe 3684 cabb 58be 7c3e
000001c0: 99d5 233d f75a 8cbe 5cc3 4bbe cbd7 37be
000001d0: aff3 f2bd f184 f3bd a1ec c33d 995c bb3d
000001e0: f158 593e bd4e 08bc 9085 2dbd 2fc2 f43d
000001f0: 6cb8 523e 613e 6fbe 8977 283d 6806 4fbd
00000200: ede4 dd3c a53f db3d b70e 533d 0ddd 2fbe
00000210: 38b9 a83d 3f1e 90be c21b 7a3e f3b3 783e
00000220: 9605 d43d 7641 863d 6020 05be 5186 51be
00000230: a175 a03d 3503 463c 4a32 91bd 66b1 5abe
00000240: 44e1 743e 8fa2 88be 7482 41be 41ce 7ebe
00000250: 8af6 59be 466b 923e dff4 813e f5c4 143e
00000260: 9a32 883e 799f 883e 4db4 1e3e fcb2 90be
00000270: 2416 78be f962 61bd 718b 583d 15b2 803d
00000280: 34f7 6a3e 0149 f73c bf51 27bd 92a3 8e3e
00000290: e359 df3d e7ad 053e 4b2d 16bd e2bc 0b3c
000002a0: b231 7e3e 6ad4 b9bd 8e7d e13b 271a 823c
000002b0: 80d9 14bd 559a 8bbe d0e9 8fbe fa74 1d3e
000002c0: f1ba db3d 8904 033e b5c5 26be 2d7f 84be
000002d0: 9d97 92be 2f32 1a3e d62d 76bd 6bfc eb3d
000002e0: dfde 6c3e 36e8 443d 0f34 e33d 08ea 9bbc
000002f0: 98a8 3e3e 56da 4b3b c68b 2dbe 8f3f 83be
00000300: 62fc 093e 5e2b 493d 5415 d5bd c078 e23b
00000310: 2d69 83be 9e24 34be 9932 553e 5f27 44be
00000320: d7f5 1c3c 5680 b9bd e549 8d3e b462 06be
00000330: 6186 26bd 3cff 923d dafb 7cbc 8056 8cbe
00000340: 5795 77bd ae5d 4dbe 92ef 8e3e da9b 1ebe
00000350: 501d 7b3e 4dba b7bd 3cdb 6abd 9e3a da3b
00000360: b7fe 81be cbae cfbd 7a88 1fbd de78 b0bd
00000370: 5fe1 8bbe 69d3 58be 17c4 92bd 87f1 6a3e
00000380: 91e8 bcbd 00eb c2bd 0465 a4bb 1692 843e
00000390: 0b98 e9bd 28cb 1fbe bb68 dcbd ca65 1a3e
000003a0: 7420 7e3e 5086 0abd 06ab 633e 0dce f33c
000003b0: bd7f 623e 7a10 853e 607a 893e 9a16 913e
000003c0: 896d a6bd 1bb6 7abd 84b7 663e 36e4 853e
000003d0: 142f 04be fcc6 e53d 6ab1 bc3c 6c43 0e3e
000003e0: 6fcf be3c 0882 8a3d d74c c8bc 1fb4 d5bd
000003f0: 7487 08bb 1491 7fbe 41e7 5ebe 764b a0bc

fc1.bias f4 [100]
-0.22966121 -0.11461572 -0.25084257 -0.032019958 -0.14998801 0.22558531 -0.054884117 -0.26413533
-0.013863333 -0.23558147 0.087138414 0.20545788 -0.19505823 -0.15922967 -0.16665837 0.23974419
-0.25325572 0.16946985 0.17390937 -0.2424854 0.21716072 0.077896915 -0.15418586 -0.19934554
0.24335605 0.11882581 0.16314147 -0.1376397 -0.14873265 0.23301026 0.17834885 0.19404393
-0.20395485 -0.24356861 0.24714683 -0.09190711 0.09829111 -0.04671056 -0.27051017 -0.09987456
0.0045583555 -0.2189412 -0.20073582 -0.20751628 0.22239861 -0.17983884 -0.22924662 -0.22145498
-0.14657667 -0.109161675 -0.09415236 -0.13605691 -0.1631764 0.08738586 -0.13366315 -0.16020305
0.14706053 0.1815325 0.24739228 0.106244154 -0.25154752 0.020918377 0.07836571 0.16567223
-0.18410988 0.15645812 -0.16094193 -0.26819196 0.23097712 -0.21631746 -0.051456135 -0.23725978
-0.08359107 -0.28818643 -0.16537741 0.07583918 -0.18463415 -0.26971495 0.17826849 -0.1987452
-0.029166423 -0.2808429 0.16573608 0.00016243158 0.276673 -0.09693462 -0.086737745 -0.24687533
-0.20635341 0.040744413 0.17054093 -0.03523788 0.23617776 -0.2170766 0.120660186 -0.0102818655
0.1318665 0.1577808 0.00039938636 0.050993927
00000000: 4f2c 6bbe a6bb eabd 706e 80be 5c27 03bd
00000010: 7596 19be d6ff 663e 2bce 60bd bf3c 87be
00000020: 0823 63bc 453c 71be a075 b23d 8d63 523e
00000030: 58bd 47be 1a0d 23be 7ea8 2abe 807f 753e
00000040: bcaa 81be 8189 2d3e 4c15 323e 184e 78be
00000050: 615f 5e3e 6b88 9f3d e6e2 1dbe 3d21 4cbe
00000060: 5432 793e f25a f33d 8f0e 273e 6cf1 0cbe
00000070: 5f4d 18be 3e9a 6e3e 15a1 363e 74b3 463e
00000080: 8ad9 50be 0d6a 79be 0f14 7d3e cb39 bcbd
00000090: d94c c93d 9253 3fbd 4f80 8abe 098b ccbd
000000a0: 425e 953b 1f32 60be b18d 4dbe 267f 54be
000000b0: 76bc 633e ac27 38be a0bf 6abe 18c5 62be
000000c0: 3218 16be 2890 dfbd f4d2 c0bd 8152 0bbe
000000d0: b717 27be 5cf7 b23d fede 08be 450c 24be
000000e0: 0997 163e a8e3 393e 6754 7d3e 8996 d93d
000000f0: d6ca 80be 045d ab3c 347e a03d fba5 293e
00000100: 4d87 3cbe 8f36 203e f6cd 24be 7550 89be
00000110: 4485 6c3e 5382 5dbe abc3 52bd 3af4 72be
00000120: cb31 abbd 2c8d 93be b258 29be 9251 9b3d
00000130: bc10 3dbe 1418 8abe 048c 363e dd83 4bbe
00000140: 6cee eebc a4ca 8fbe b8b6 293e 6552 2a39
00000150: 15a8 8d3e a885 c6bd 8fa3 b1bd e3cc 7cbe
00000160: 4f4e 53be 9de3 263d 48a2 2e3e 9855 10bd
00000170: 95d8 713e 5449 5ebe b01c f73d 4575 28bc
00000180: 0308 073e 4a91 213e bb64 d139 02df 503d

fc2.weight f4 [100, 100]
-0.07028508 -0.044312842 0.023040654 -0.090857 0.090098314 0.06587541 0.04791469 0.027008437
0.096355736 -0.06234344 -0.024646446 0.050281726 0.09890162 -0.063676134 0.0046162438 0.071059905
0.08554094 0.005021058 0.03509822 -0.08967699 0.00078672124 -0.0402858 0.087453015 -0.04261097
-0.073399566 0.047354303 -0.002463743 -0.076624475 -0.008212413 0.034138776 0.047031306 0.094871506
-0.09858563 -0.063486226 0.02611997 -0.053063393 -0.0108641535 -0.058452606 -0.06626723 0.040196415
-0.017378524 -0.049189724 -0.06386849 0.05350531 -0.06265938 -0.04211683 0.005444279 0.09002436
0.077698804 -0.023129402 0.029579964 -0.038438678 -0.03663583 -0.099487774 0.08486255 -0.009321403
0.02309665 -0.016485378 0.017154554 0.043556355 0.056780778 0.070927836 -0.016248897 0.08588313
0.07965123 -0.047310602 -0.011849726 -0.0993663 0.062440537 0.04666067 0.09173156 -0.06821403
-0.045402553 0.050025705 -0.08668218 0.085466675 0.038801048 0.095918246 -0.09075435 -0.00045125186
-0.002189514 0.04087258 -0.017397724 -0.0119127035 0.015350941 0.048556276 0.031152926 0.09538397
-0.015710043 -0.053159088 -0.00076894346 -0.013728969 -0.034963295 -0.08847763 0.013158751 -0.09514835
0.042085554 -0.07987944 0.091327436 -0.063421294 0.015685797 0.04909315 -0.019568466 -0.054323103
-0.056523945 -0.056504358 -0.092499875 -0.055171873 -0.053195715 -0.07421146 0.05486066 0.05001063
0.012090541 0.08722948 0.06384679 -0.028618231 0.058690213 -0.0792133 -0.07513747 0.052205525
-0.064189255 -0.04536289 0.05255223 0.029982008 -0.052652847 -0.07930167 -0.03532009 0.033329062
-0.0828202 -0.03729155 -0.08474469 -0.06782237 -0.08572344 0.09019757 -0.08167304 -0.09258801
0.09121641 -0.087561324 0.07960514 -0.049381174 -0.040319182 0.092023425 -0.008623794 -0.006387435
0.09905139 0.0495641 -0.0212975 -0.03741534 0.06225849 -0.027245782 -0.087179676 0.044895284
0.020457387 0.05564887 -0.06512213 -0.055118836 0.092352204 -0.020844534 -0.063456565 -0.004544936
0.05302047 -0.051648796 -0.0393863 0.06302198 -0.07969071 0.08700124 -0.061416652 -0.062277533
-0.046331584 0.03964419 -0.065201074 0.058775716 -0.06262164 -0.0011188015 0.061017685 0.047481246
-0.096926786 -0.089896455 -0.098419264 0.02629397 0.074981205 0.054290734 -0.007919885 0.08567233
0.082880326 -0.060935643 -0.043984856 -0.015049532 0.0038250685 0.024064064 -0.08096309 -0.06310241
-0.052143406 -0.016245209 0.08428181 -0.05546825 -0.02004449 -0.038259447 -0.069641754 0.04440088
0.097199194 -0.0080925245 -0.08173204 0.0051292847 -0.028079644 -0.07930926 -0.024215039 -0.017754257
0.029073423 -0.043506887 0.0352215 -0.09700253 -0.06310856 -0.057345044 0.10403845 0.098962426
0.06612485 -0.041196786 -0.053754803 -0.0243183 0.029376056 0.08843664 -0.055991717 -0.038277853
-0.0043022186 -0.087169364 0.028619437 0.05704399 -0.031828128 0.094615124 0.06816457 -0.01755239
0.08651846 -0.08337033 -0.06033073 0.05912421 -0.07672895 0.054414965 -0.0371781 0.016813405
0.09778145 0.08803686 -0.03412199 -0.023515001 -0.08831809 -0.040503345 0.007309012 -0.0742516
-0.026839094 0.052429486 -0.07763725 0.06901423 0.08266432 -0.034702316 0.062195856 -0.07195493
00000000: a0f1 8fbd 6281 35bd c1bf bc3c 3c13 babd
00000010: 7785 b83d b0e9 863d 3242 443d cc40 dd3c
00000020: 2856 c53d d65b 7fbd 58e7 c9bc 36f4 4d3d
00000030: ef8c ca3d a268 82bd dc43 973b db87 913d
00000040: 1730 af3d b087 a43b 27c3 0f3d 92a8 b7bd
00000050: f83b 4e3a b902 25bd 911a b33d d788 2ebd
00000060: 8352 96bd 96f6 413d c076 21bb 4bed 9cbd
00000070: 5b8d 06bc 1ad5 0b3d e6a3 403d fe4b c23d
00000080: 43e7 c9bd 1105 82bd 8cf9 d53c 0059 59bd
00000090: 90ff 31bc 006c 6fbd 1db7 87bd ffa4 243d
000000a0: 685d 8ebc 2a7b 49bd 7ccd 82bd 6228 5b3d
000000b0: 9053 80bd b282 2cbd ec65 b23b b15e b83d
000000c0: 8d20 9f3d df79 bdbc ae51 f23c e071 1dbd
000000d0: 740f 16bd 3fc0 cbbd 6bcc ad3d ccb8 18bc
000000e0: 3035 bd3c 580c 87bc b587 8c3c 2668 323d
000000f0: f692 683d 9d42 913d 681c 85bc 7fe3 af3d
00000100: 2f20 a33d c3c8 41bd 5a25 42bc 8f80 cbbd
00000110: a6c1 7f3d 421f 3f3d c2dd bb3d ccb3 8bbd
00000120: 07f8 39bd c1e7 4c3d 6d86 b1bd 2709 af3d
00000130: d9ed 1e3d c970 c43d 6bdd b9bd 0096 ecb9
00000140: f37d 0fbb 026a 273d ac85 8ebc 802d 43bc
00000150: 8382 7b3c f2e2 463d 6c34 ff3c ac58 c33d
00000160: 59b2 80bc 58bd 59bd ec92 49ba 78ef 60bc
00000170: ac35 0fbd c233 b5bd cd97 573c 23dd c2bd
00000180: e761 2c3d d597 a3bd e109 bb3d 06e3 81bd
00000190: 807f 803c e615 493d 0c4e a0bc e781 5ebd
000001a0: a785 67bd 1d71 67bd 9370 bdbd e7fb 61bd
000001b0: c0e3 59bd 2efc 97bd 92b5 603d f2d7 4c3d
000001c0: 6817 463c 5fa5 b23d 1bc2 823d c870 eabc
000001d0: 2665 703d 953a a2bd ade1 99bd 76d5 553d
000001e0: a875 83bd 70ce 39bd 0241 573d d49c f53c
000001f0: 83aa 57bd ea68 a2bd ccab 10bd 0e84 083d
00000200: a39d a9bd 06bf 18bd a08e adbd 74e6 8abd
00000210: c58f afbd 81b9 b83d 3244 a7bd c89e bdbd
00000220: abcf ba3d 5a53 b3bd 0508 a33d ea43 4abd
00000230: ba25 25bd c776 bc3d d04a 0dbc b04d d1bb
00000240: 75db ca3d ba03 4b3d 1878 aebc d440 19bd
00000250: c202 7f3d 8c32 dfbc 428b b2bd 1ee4 373d
00000260: 4096 a73c 12f0 633d c05e 85bd 4ac4 61bd
00000270: 2723 bd3d 28c2 aabc 84f5 81bd b0ed 94bb
00000280: fe2b 593d b08d 53bd 8753 21bd ab11 813d
00000290: e234 a3bd b52d b23d 0790 7bbd ba16 7fbd
000002a0: 30c6 3dbd f261 223d 2488 85bd cebe 703d
000002b0: c63f 80bd c0a4 92ba aeed 793d b27b 423d
000002c0: 8d81 c6bd a21b b8bd 0a90 c9bd 7466 d73c
000002d0: bf8f 993d f65f 5e3d 68c2 01bc f974 af3d
000002e0: 29bd a93d a797 79bd 7729 34bd 5092 76bc
000002f0: 00ae 7a3b 0022 c53c facf a5bd d63b 81bd
00000300: 5394 55bd ac14 85bc f19b ac3d ad32 63bd
00000310: 5834 a4bc f0b5 1cbd 56a0 8ebd b2dd 353d
00000320: 5f10 c73d 8296 04bc 2163 a7bd 8f13 a83b
00000330: 4807 e6bc e56c a2bd 9e5e c6bc 6071 91bc
00000340: 632b ee3c 4734 32bd 6b44 103d 43a9 c6bd
00000350: 103f 81bd a3e2 6abd 1c12 d53d d0ac ca3d
00000360: 776c 873d f6bd 28bd ff2d 5cbd 2c37 c7bc
00000370: 0ea6 f03c 451e b53d 9257 65bd 3dc9 1cbd
00000380: a0f9 8cbb da85 b2bd 4f73 ea3c f5a6 693d
00000390: 365e 02bd 93c5 c13d de99 8b3d 08ca 8fbc
000003a0: 9730 b13d 10be aabd 5b1d 77bd 3a2c 723d
000003b0: 1124 9dbd 3ae2 5e3d 1048 18bd 44bc 893c
000003c0: a441 c83d ab4c b43d 80c3 0bbd 88a2 c0bc
000003d0: 1de0 b4bd d6e6 25bd 7080 ef3b 3911 98bd
000003e0: a9dd dbbc 4dc0 563d 4700 9fbd 5557 8d3d
000003f0: e94b a93d 0424 0ebd 15c1 7e3d 1b5d 93bd

fc2.bias f4 [100]
0.044074476 -0.07483381 -0.027665382 -0.08158143 -0.023711335 0.0058170175 0.0051641627 -0.038269937
-0.06016996 0.016159825 -0.045683037 0.05491454 -0.0883369 0.08431239 -0.097938485 -0.08926808
0.06714044 -0.08576663 -0.085750185 -0.07916007 -0.0049809664 -0.095817916 0.054843016 0.054647464
-0.075793125 0.010168312 0.08654035 -0.027694143 0.022660341 -0.09841613 0.08781857 0.0074050245
0.03846699 0.08635391 -0.035729565 0.026481085 0.049048714 -0.0041572866 0.023273742 -0.023905918
0.08760664 -0.10056053 0.07659547 0.031347133 -0.046932563 0.07022771 0.012597141 0.024325065
-0.019227766 -0.06465918 0.021658946 -0.007931162 -0.073873445 -0.07577974 -0.01298917 -0.096335374
0.07786751 -0.0023644941 0.017945316 -0.06633337 -0.01623043 -0.043838948 0.084350966 -0.028332429
0.07558237 0.06079557 -0.01081137 -0.09454531 0.011756769 0.00070243014 0.0020765655 0.012913605
-0.09851333 0.033576917 -0.059208967 0.033477418 -0.06843895 -0.038161673 -0.089657225 -0.06959953
-0.08069811 -0.07876942 -0.051457155 0.028754946 0.005036859 -0.06910705 0.0012513226 -0.015016345
-0.056170046 0.0032847524 0.048545767 0.04217726 -0.051054083 0.059923 0.09010652 0.06409569
-0.08665945 0.066910684 -0.043004222 -0.099823326
00000000: 7087 343d 7842 99bd 83a2 e2bc 2a14 a7bd
00000010: 463e c2bc ae9c be3b 2338 a93b f0c0 1cbd
00000020: c774 76bd 9c61 843c 231e 3bbd 12ee 603d
00000030: fae9 b4bd f9ab ac3d f993 c8bd 2fd2 b6bd
00000040: ed80 893d 6aa6 afbd cb9d afbd ad1e a2bd
00000050: 6037 a3bb 2f3c c4bd 12a3 603d 05d6 5f3d
00000060: 6d39 9bbd fe98 263c 113c b13d d4de e2bc
00000070: 2ea2 b93c 658e c9bd 39da b33d d9a5 f23b
00000080: 908f 1d3d 52da b03d 2a59 12bd dcee d83c
00000090: 4ee7 483d d939 88bb 93a8 be3c 58d6 c3bc
000000a0: 1c6b b33d aef2 cdbd 16de 9c3d da65 003d
000000b0: 5c3c 40bd 8cd3 8f3d 3d64 4e3c 5c45 c73c
000000c0: 8c83 9dbc 086c 84bd 1a6e b13c b4f1 01bc
000000d0: f64a 97bd 6932 9bbd 87d0 54bc 7b4b c5bd
000000e0: 0079 9f3d a1f5 1abb 0e02 933c cad9 87bd
000000f0: aef5 84bc 7890 33bd 33c0 ac3d 6919 e8bc
00000100: eeca 9a3d c704 793d 2c22 31bc f9a0 c1bd
00000110: 779f 403c 4a23 383a fd16 083b 9693 533c
00000120: 5bc1 c9bd f387 093d 1a85 72bd 9e1f 093d
00000130: b829 8cbd 6a4f 1cbd 359e b7bd 338a 8ebd
00000140: 0d45 a5bd dd51 a1bd bdc4 52bd 7e8f eb3c
00000150: 3c0c a53b ff87 8dbd 6b03 a43a 1e07 76bc
00000160: 9012 66bd 0045 573b edd7 463d 10c2 2c3d
00000170: 161e 51bd d271 753d c489 b83d 9a44 833d
00000180: 827a b1bd 7808 893d 3225 30bd 2c70 ccbd

fc3.weight f4 [5, 100]
0.053218722 -0.09488529 0.029064164 0.09008258 -0.0051607173 -0.08144493 -0.09849896 -0.008183652
0.042154305 0.05731062 -0.062657565 -0.013242021 0.06354007 -0.057403963 0.06605736 0.004916414
-0.08030244 -0.093413085 0.004092078 -0.003633427 0.028601281 -0.016076569 -0.01857666 0.056737978
-0.065479964 -0.04570887 -0.07787337 -0.02842397 0.06312296 -0.04394361 0.088073075 0.05976488
-0.066587284 -0.07861402 0.06931674 -0.0527366 -0.08968444 0.008875453 -0.03236046 -0.04765996
-0.06933495 -0.09573976 -0.031096216 0.05011944 0.09350784 -0.019877188 0.0488759 0.02650097
0.031111293 -0.09062401 0.06159585 0.10140776 -0.10028292 0.03269226 0.069861986 -0.040077165
0.030361863 0.04276714 -0.040524498 -0.007507499 0.08027785 0.07539822 0.014279135 -0.075083435
0.0938194 0.079879284 -0.06557615 0.016670687 0.0055943723 -0.06608132 -0.08510969 0.010503778
0.084093265 -0.07079739 0.055346336 0.04877717 0.030342335 0.022312274 0.008010393 0.049846712
0.007245697 -0.09206642 -0.08462987 0.10771142 0.019918548 0.069140434 0.010637638 0.04921589
0.025964092 0.023413809 -0.037180163 -0.016383495 0.017599044 -0.024879009 0.096684255 -0.08977418
-0.030827614 -0.07806654 0.032984264 -0.04336289 -0.0005163745 -0.0880545 -0.056930978 0.0711577
-0.043932416 -0.06544999 0.0045744902 -0.0005273124 0.0008749108 0.038166028 0.009758666 -0.016505003
0.048353836 0.047549546 0.04924338 0.022011708 0.05291301 0.046606924 0.023815645 0.06735711
0.03620129 0.09394894 0.031261202 0.022836467 0.06608721 -0.10300166 0.08095849 0.10239318
0.10913653 -0.03938047 0.076328255 -0.050241183 -0.038662855 0.035072107 -0.06357841 0.020598548
0.040533945 -0.006815809 0.02424175 0.08150629 0.065408304 -0.038358387 -0.03964883 0.013308834
-0.10571008 0.04613977 0.013603894 -0.013914927 0.08254839 0.037015326 0.05282621 0.018270869
-0.043708708 0.044219878 -0.042295687 0.0082969135 0.0059420895 0.0044883676 0.09457475 -0.047327023
0.05213589 0.080982916 0.015369031 0.054498423 0.0075890347 0.060619216 -0.094185196 -0.09501746
-0.08240449 -0.030466435 0.07498807 -0.024305543 0.09196106 -0.09333641 -0.037051603 0.04620371
-0.08690274 -0.017398316 0.007463988 -0.10048214 -0.057311036 -0.072221786 -0.06977344 0.03753838
-0.05876313 -0.010828265 -0.05362963 0.060100447 0.057922833 0.044466242 -0.07801693 -0.07125018
-0.02035917 0.04844292 -0.058433462 0.055701796 0.07281009 -0.052455965 0.036707435 0.086641185
0.029952839 -0.052669395 -0.03727994 -0.06994993 -0.113195546 -0.078084566 0.039753415 0.0051251296
-0.07106579 0.02044738 0.032368444 -0.07145311 -0.07012464 0.011079104 -0.0009216924 0.09186652
0.09658174 0.09723579 -0.0952235 -0.093429826 -0.05936872 -0.11573789 -0.053022224 0.0943616
0.02101221 -0.009866388 0.006126046 -0.0037960778 0.11763816 -0.022878863 -0.031069487 0.08500334
-0.07410827 0.08717912 -0.051206674 0.015549379 0.087936945 0.05803058 0.12144032 -0.054827403
-0.044716697 -0.028933482 -0.06558564 0.03703259 0.020100588 0.02956298 0.03593774 -0.092710145
0.08812877 -0.05577427 0.088916376 -0.09982939 -0.0032525836 -0.09122917 0.09885134 -0.012037409
00000000: e0fb 593d 3853 c2bd f817 ee3c 377d b83d
00000010: 3c1b a9bb 99cc a6bd d3b9 c9bd b914 06bc
00000020: fea9 2c3d 8abe 6a3d 9c52 80bd 10f5 58bc
00000030: 4c21 823d 6b20 6bbd 1549 873d df19 a13b
00000040: 9b75 a4bd 5c4f bfbd d716 863b ca1e 6ebb
00000050: 3c4d ea3c 02b3 83bc 142e 98bc 1566 683d
00000060: 5c1a 86bd 3939 3bbd 137c 9fbd 63d9 e8bc
00000070: 9c46 813d 37fe 33bd a85f b43d 05cc 743d
00000080: ea5e 88bd 6300 a1bd eff5 8d3d 5502 58bd
00000090: 7aac b7bd 596a 113c 678c 04bd 1737 43bd
000000a0: 7bff 8dbd 3513 c4bd 7ebd febc 0b4a 4d3d
000000b0: 0a81 bf3d 7cd5 a2bc 1932 483d 9018 d93c
000000c0: 1cdd fe3c 1599 b9bd ee4b 7c3d dfae cf3d
000000d0: 2261 cdbd 52e8 053d cd13 8f3d f427 24bd
000000e0: 71b9 f83c 992c 2f3d 04fd 25bd 7701 f6bb
000000f0: b768 a43d 626a 9a3d 08f3 693c 58c5 99bd
00000100: 6324 c03d c097 a33d ca4c 86bd f790 883c
00000110: ff50 b73b a555 87bd fd4d aebd 0a18 2c3c
00000120: 1739 ac3d 39fe 90bd d7b2 623d 92ca 473d
00000130: 7d90 f83c 3bc8 b63c 063e 033c 112c 4c3d
00000140: 506d ed3b 528d bcbd 6d52 adbd ce97 dc3d
00000150: 392c a33c 8099 8d3d 7d49 2e3c 9a96 493d
00000160: a6b2 d43c 51ce bf3c 3a4a 18bd ae36 86bc
00000170: df2b 903c 10cf cbbc 6502 c63d 86db b7bd
00000180: 318a fcbc 5ae1 9fbd 821a 073d 499d 31bd
00000190: 4e5d 07ba eb55 b4bd 7530 69bd 21bb 913d
000001a0: 7af2 33bd a50a 86bd 9be5 953b 563b 0aba
000001b0: 455a 653a fb53 1c3d d0e2 1f3c 8035 87bc
000001c0: ac0e 463d 50c3 423d 6db3 493d e651 b43c
000001d0: 50bb 583d e7e6 3e3d 0719 c33c 86f2 893d
000001e0: ce47 143d 4d68 c03d bf0b 003d 8b13 bb3c
000001f0: bb58 873d 89f2 d2bd 91cd a53d 84b3 d13d
00000200: f982 df3d 6a4d 21bd fd51 9c3d b3c9 4dbd
00000210: f15c 1ebd c5a7 0f3d 6635 82bd 49be a83c
00000220: ec06 263d 2657 dfbb a296 c63c c5ec a63d
00000230: caf4 853d af1d 1dbd d066 22bd 4c0d 5a3c
00000240: 877e d8bd 0efd 3c3d dee2 5e3c 6ffb 63bc
00000250: 210f a93d 629d 173d 4c60 583d caac 953c
00000260: e707 33bd e71f 353d 3e3e 2dbd c7ef 073c
00000270: dcb5 c23b 2813 933b 68b0 c13d fbd9 41bd
00000280: 718c 553d 5fda a53d 63ce 7b3c bd39 5f3d
00000290: 70ad f83b db4b 783d 2be4 c0bd 8498 c2bd
000002a0: afc3 a8bd bf94 f9bc 5893 993d 6b1c c7bc
000002b0: 1556 bc3d 2927 bfbd 6cc3 17bd 1a40 3d3d
000002c0: 10fa b1bd ea86 8ebc 7894 f43b 95c9 cdbd
000002d0: fabe 6abd 04e9 93bd 61e5 8ebd d8c1 193d
000002e0: 9cb1 70bd 0969 31bc beaa 5bbd e32b 763d
000002f0: 7e40 6d3d 3c22 363d 57c7 9fbd 9deb 91bd
00000300: 46c8 a6bc 156c 463d ed57 6fbd 9127 643d
00000310: 751d 953d 11dc 56bd 895a 163d ef70 b13d
00000320: a85f f53c ddbb 57bd dab2 18bd e941 8fbd
00000330: 11d3 e7bd cdea 9fbd 7ad4 223d b4f0 a73b
00000340: f18a 91bd 4481 a73c c694 043d 0256 92bd
00000350: 829d 8fbd 2185 353c bb9d 71ba 8424 bc3d
00000360: a6cc c53d 8f23 c73d 8a04 c3bd 2358 bfbd
00000370: 9d2c 73bd fd07 edbd d52d 59bd a840 c13d
00000380: cc21 ac3c a1a6 21bc 00bd c83b 9ec7 78bb
00000390: 47ec f03d 746c bbbc 7085 febc 3b16 ae3d
000003a0: 14c6 97bd f78a b23d 17be 51bd d3c2 7e3c
000003b0: 4918 b43d 79b1 6d3d b4b5 f83d b392 60bd
000003c0: db28 37bd e905 edbc c451 86bd 7caf 173d
000003d0: fda9 a43c 102e f23c 7433 133d d1de bdbd
000003e0: db7c b43d 9073 64bd ca19 b63d 5a73 ccbd
000003f0: 4c29 55bb 5cd6 babd 9272 ca3d 8d38 45bc

fc3.bias f4 [5]
-0.05329254 0.05032728 -0.060628094 -0.053727146 -0.07625437
00000000: 4749 5abd fa23 4e3d 2a55 78bd ff10 5cbd
00000010: 402b 9cbd

fcns.0.weight f4 [100, 100]
-0.052700546 -0.09065888 0.04958958 -0.061845373 -0.08124729 0.040735655 -0.05883479 0.025612168
0.061274923 0.034612633 -0.08568585 -0.07623458 0.091856636 0.08956165 -0.060790014 0.06685852
0.007081449 0.07476232 -0.07203168 0.039920755 -0.060494006 0.058251433 0.028623037 0.013677776
0.023399487 -0.09071069 -0.014467038 -0.086730205 -0.00385724 0.041970544 -0.043461766 -0.098496966
-0.052886464 -0.01917176 -0.030091539 0.07006546 -0.040648352 -0.066198766 0.051647685 0.030153565
-0.058948386 0.019068837 0.08860298 0.012188673 -0.0085109025 0.069062464 -0.014105476 0.049449526
-0.015589371 -0.032764003 -0.009476103 -0.035079338 -0.0154525265 0.0071702823 0.036429472 -0.041867245
0.038933747 -0.08116952 -0.07020502 0.09090329 -0.06880047 -0.025474347 0.099388726 0.06689117
-0.02865354 -0.084331535 -0.041550457 -0.094538584 -0.057799816 -0.050206818 0.07602877 -0.071594216
-0.0110438615 -0.025074467 0.012486532 0.008695699 -0.005448267 0.09183673 0.03436864 -0.04206803
-0.06531415 -0.04861615 -0.018905655 0.09194874 -0.0642551 -0.010558665 -0.04767996 0.032215573
0.08802647 0.09806482 -0.017829284 0.07754298 -0.09510731 0.09107805 -0.06816981 -0.063944146
-0.032063626 -0.05654272 0.063393556 -0.08324567 -0.07052951 0.053403296 0.094189204 -0.016234688
0.01216135 0.015760427 0.07043614 0.042558454 0.07788132 0.083792925 -0.05622096 -0.10800673
0.06562861 0.07218073 -0.07641629 -0.026559748 -0.06700343 0.050584435 -0.04378176 0.09372944
-0.07201398 -0.04942936 -0.016407428 0.07800872 -0.0177241 -0.07132857 0.0145013565 0.042578466
0.09292977 -0.01716139 -0.0102850115 -0.09919236 0.09816936 -0.071762204 -0.05015379 -0.02849432
-0.053486183 -0.0075184386 -0.022222616 -0.009431472 -0.03415266 -0.059421152 0.019049175 0.07117655
0.08233707 0.09200358 0.03188504 -0.04002956 -0.09075157 0.08889487 -0.055537518 0.08470877
-0.019435797 -0.07538332 0.033871192 0.019373737 0.07367062 -0.08466608 0.03964354 -0.053893294
-0.04551656 0.0825326 0.028878866 -0.018962283 -0.06816233 -0.034753483 0.03863021 -0.019398117
0.081468284 0.03844864 -0.045371063 0.018792445 -0.024044687 0.054942187 -0.04939628 0.039330762
0.09075155 0.039159104 -0.065264165 -0.049254403 -0.022322992 -0.057047606 0.074555434 -0.0919904
-0.0082594175 -0.09825063 -0.05018444 0.0444643 -0.070199504 0.042479083 -0.07491857 0.09661273
0.052068014 0.018046772 0.05079363 -0.012611591 0.023068106 -0.083234325 0.0910606 -0.029689742
-0.08585782 0.0646502 0.03518057 0.06136024 0.09528746 0.08012765 0.0992212 0.043378267
-0.014104727 0.094459705 -0.001657057 0.062624514 -0.015067488 -0.0146628525 0.10026662 0.054691035
0.061536532 0.050344225 0.08146779 0.028090019 -0.041451767 0.008799107 0.04916049 0.028056946
-0.096066706 0.083345935 0.0740656 0.06133173 -0.07748384 0.065745875 0.05845912 0.05117479
-0.029460527 0.0729448 -0.06795499 -0.025974385 0.09059605 -0.06987564 -0.079370916 0.014001933
0.036170635 0.006297297 -0.091611 0.07936767 -0.0044869957 -0.012764461 -0.010667004 -0.05393909
-0.08418718 0.0634669 0.069699965 -0.028291337 0.06351115 0.001798374 -0.039496057 -0.028149981
00000000: 87dc 57bd 5dab b9bd 721e 4b3d 9351 7dbd
00000010: fb64 a6bd 6eda 263d c0fc 70bd 9cd0 d13c
00000020: 6afb 7a3d fac5 0d3d 107c afbd e020 9cbd
00000030: 551f bc3d 196c b73d f3fe 78bd 1fed 883d
00000040: 800b e83b fd1c 993d 5885 93bd f283 233d
00000050: 90c8 77bd 0e99 6e3d dc7a ea3c c018 603c
00000060: 48b0 bf3c 87c6 b9bd 2807 6dbc 9b9f b1bd
00000070: c0c9 7cbb 4ee9 2b3d f704 32bd c7b8 c9bd
00000080: 7a9f 58bd 180e 9dbc 8882 f6bc 7b7e 8f3d
00000090: e37e 26bd 3893 87bd 868c 533d 9c04 f73c
000000a0: dd73 71bd 4036 9c3c 7b75 b53d 00b3 473c
000000b0: 5071 0bbc 9f70 8d3d a81a 67bc 968b 4a3d
000000c0: 906a 7fbc 8c33 06bd a841 1bbc 5aaf 0fbd
000000d0: 982c 7dbc b0f4 ea3b 1237 153d fd7c 2bbd
000000e0: fe78 1f3d 353c a6bd a6c7 8fbd 812b ba3d
000000f0: 43e7 8cbd 94af d0bc 518c cb3d 3dfe 883d
00000100: d4ba eabc 03b6 acbd d030 2abd 729d c1bd
00000110: 80bf 6cbd aaa5 4dbd f9b4 9b3d fd9f 92bd
00000120: 50f1 34bc f868 cdbc 5094 4c3c 6878 0e3c
00000130: 6087 b2bb e514 bc3d 22c6 0c3d 874f 2cbd
00000140: 6dc3 85bd ba21 47bd 08e0 9abc 9f4f bc3d
00000150: 2e98 83bd 40fe 2cbc 104c 43bd 7af4 033d
00000160: 3947 b43d 35d6 c83d b80e 92bc dbce 9e3d
00000170: 9fc7 c2bd 2187 ba3d 9d9c 8bbd 26f5 82bd
00000180: 2655 03bd 5799 67bd 7bd4 813d b57c aabd
00000190: c771 90bd 6abd 5a3d 45e6 c03d 9cfe 84bc
000001a0: 6640 473c 031c 813c d340 903d c651 2e3d
000001b0: 3e80 9f3d a09b ab3d f347 66bd a232 ddbd
000001c0: 4b68 863d 7ed3 933d 2580 9cbd d493 d9bc
000001d0: 1839 89bd a031 4f3d 8154 33bd 38f5 bf3d
000001e0: 117c 93bd 7176 4abd df68 86bc 09c3 9f3d
000001f0: 2232 91bc b714 92bd 1997 6d3c c266 2e3d
00000200: f751 be3d 0b96 8cbc 7782 28bc 5d25 cbbd
00000210: 040d c93d 10f8 92bd 0f6e 4dbd ec6c e9bc
00000220: 5414 5bbd 3c5d f6bb 340c b6bc 7686 1abc
00000230: a9e3 0bbd 9863 73bd 040d 9c3c 03c5 913d
00000240: 56a0 a83d 5f6c bc3d e399 023d 09f6 23bd
00000250: f6db b9bd 830e b63d 4f7b 63bd cb7b ad3d
00000260: d237 9fbc 9262 9abd 85bc 0a3d acb5 9e3c
00000270: 9fe0 963d 6965 adbd 4461 223d 37bf 5cbd
00000280: 936f 3abd da06 a93d 5f93 ec3c ca56 9bbc
00000290: b198 8bbd ab59 0ebd b63a 1e3d cde8 9ebc
000002a0: d8d8 a63d 527c 1d3d 02d7 39bd 9df2 993c
000002b0: 5df9 c4bc 0f0b 613d c153 4abd 4b19 213d
000002c0: f3db b93d 4c65 203d 38a9 85bd fcbe 49bd
000002d0: b5de b6bc c0aa 69bd 85b0 983d 7665 bcbd
000002e0: 8252 07bc a037 c9bd 338e 4dbd 3320 363d
000002f0: c2c4 8fbd 8cfe 2d3d e86e 99bd e5dc c53d
00000300: 4545 553d d3d6 933c fb0c 503d d9a0 4ebc
00000310: 53f9 bc3c c276 aabd fb7d ba3d e737 f3bc
00000320: 3ad6 afbd 5367 843d 8019 103d e054 7b3d
00000330: 1226 c33d f719 a43d 7c34 cb3d 69ad 313d
00000340: 8317 67bc 1774 c13d 9b31 d9ba 4841 803d
00000350: a0dd 76bc 763c 70bc 9658 cd3d b503 603d
00000360: bb0d 7c3d bf35 4e3d 96d8 a63d 0a1d e63c
00000370: 54c9 29bd 212a 103c 835c 493d aed7 e53c
00000380: 9fbe c4bd 46b1 aa3d b5af 973d fb36 7b3d
00000390: d9af 9ebd c6a5 863d d572 6f3d a89c 513d
000003a0: 3457 f1bc 1564 953d fc2b 8bbd 3cc8 d4bc
000003b0: 6c8a b93d f61a 8fbd 388d a2bd 5d68 653c
000003c0: a927 143d 8e59 ce3b 8c9e bbbd 848b a23d
000003d0: a607 93bb 0822 51bc a8c4 2ebc 3cef 5cbd
000003e0: 546a acbd effa 813d dbbe 8e3d 3cc3 e7bc
000003f0: 2212 823d 6bb7 eb3a 9ec6 21bd ca9a e6bc

fcns.0.bias f4 [100]
0.019715667 0.07383244 0.005141829 -0.0871985 0.100348875 -0.07500124 -0.023125459 0.061741643
-0.09931428 -0.085404575 -0.040442675 -0.069019064 0.046335932 0.0363283 -0.046576824 -0.057318933
-0.01976983 0.06517287 0.01450201 0.04982687 -0.09459325 0.007126951 -0.037074603 -0.056156192
0.024529405 0.02265427 -0.07830708 0.0011030902 -0.02827769 -0.072121695 0.06712758 0.002615035
0.01421075 0.050604127 -0.008767704 0.038744576 -0.05840444 -0.030094769 -0.09468516 -0.04292297
0.04897075 -0.036891617 0.007055923 -0.05910075 0.058410894 -0.08347505 0.03344 0.08280217
0.08747373 0.0640165 -0.033229094 0.086798325 0.03296193 -0.09278633 0.014602241 0.033271432
0.082422465 -0.06625538 0.079182126 -0.03216839 -0.06195594 0.04384304 -0.043148357 0.08447037
0.074551694 -0.08216395 -0.029041793 0.036859218 -0.028784426 0.030922242 0.08420995 0.02250738
0.052265383 0.013855621 -0.021665577 0.094360046 0.015840119 -0.06408228 0.024961384 -0.009587668
-0.05818788 0.04506524 -0.015060842 0.06863814 0.08393243 0.0074959304 -0.012282591 -0.052328717
0.096344694 -0.08056929 0.037480816 0.08533382 0.02920217 -0.026223516 0.08743781 0.03746616
0.08722507 0.022287289 0.013172451 -0.054036837
00000000: c082 a13c 7635 973d ca7c a83b 2195 b2bd
00000010: b683 cd3d 409a 99bd 9a71 bdbc cee4 7c3d
00000020: 4965 cbbd 98e8 aebd 38a7 25bd de59 8dbd
00000030: bfca 3d3d fccc 143d 57c7 3ebd 42c7 6abd
00000040: 57f4 a1bc 5b79 853d d799 6d3c 4317 4c3d
00000050: 1bba c1bd 3389 e93b 8adb 17bd 0904 66bd
00000060: e4f1 c83c 7395 b93c 765f a0bd 9195 903a
00000070: 9da6 e7bc 8ab4 93bd 2f7a 893d 0261 2b3b
00000080: 35d4 683c 4646 4f3d 6aa6 0fbc a2b2 1e3d
00000090: 7e39 6fbd 4e89 f6bc 4bea c1bd ffcf 2fbd
000000a0: 8e95 483d aa1b 17bd 5f35 e73b a113 72bd
000000b0: 4340 6f3d f8f4 aabd 62f8 083d 2f94 a93d
000000c0: 6d25 b33d 151b 833d 3b1b 08bd 52c3 b13d
000000d0: 1703 073d c206 bebd 3d3e 6f3c a047 083d
000000e0: 1ccd a83d e7b0 87bd 3d2a a23d 00c3 03bd
000000f0: 83c5 7dbd c294 333d 55bc 30bd cdfe ac3d
00000100: 8fae 983d 9345 a8bd 0ee9 edbc b1f9 163d
00000110: 51cd ebbc a450 fd3c 4476 ac3d 6661 b83c
00000120: 3a14 563d b002 633c 027c b1bc d73f c13d
00000130: 23c3 813c 923d 83bd d17b cc3c 9815 1dbc
00000140: 6a56 6ebd 5496 383d c0c1 76bc 2792 8c3d
00000150: c4e4 ab3d 6ca0 f53b ec3c 49bc a356 56bd
00000160: 5e50 c53d 8301 a5bd 7c85 193d 7fc3 ae3d
00000170: 6439 ef3c b3d2 d6bc 9812 b33d 1e76 193d
00000180: 0fa3 b23d d593 b63c 44d1 573c bb55 5dbd

fcns.1.weight f4 [100, 100]
0.06382973 -0.034555517 -0.056478385 -0.038461976 -0.036206733 0.057866164 -0.05955378 0.10072304
0.014653996 -0.014317398 0.069426015 0.098553024 -0.044521727 0.056014795 -0.09396553 -0.038332317
-0.09983159 -0.09819931 -0.076271996 0.08573562 -0.008709983 0.08823442 0.027184196 -0.012427883
0.052280255 -0.09633059 0.032198966 -0.098395415 0.08614319 -0.08123632 0.05607397 -0.014852372
0.06161069 -0.040109027 0.0319136 -0.02136407 0.06331777 0.05051145 -0.013184245 -0.034781463
-0.058942486 0.03981753 0.003065526 0.021983633 0.049097728 0.004112614 0.0348996 -0.004470938
0.055762 0.06137881 0.033546332 -0.041039325 -0.046409458 0.016460387 0.050759047 -0.061077334
0.061767492 0.017543616 -0.053926777 0.016787207 0.005829908 0.01293423 0.007421935 -0.087843135
-0.09111181 0.083659105 -0.02157869 0.08217685 0.056603357 0.07281978 0.005589565 -0.029069813
0.09349093 -0.0065542907 -0.07754047 -0.04008348 -0.030259607 0.038538296 -0.006252824 0.0005348474
0.005653107 -0.00536759 0.09630891 -0.067636736 -0.08484638 -0.05030215 0.056303147 0.060644332
0.089981966 -0.019650958 0.038056035 -0.08666267 -0.03857534 -0.027669087 0.024938697 0.072661094
-0.010855621 0.066053584 0.07485254 -0.017307837 -0.04907552 0.014673531 0.014287904 0.0018247366
-0.054684974 0.08278067 -0.005057469 -0.015289858 0.07821187 0.019353189 0.06336286 -0.07064165
-0.056104004 -0.080827154 -0.0017791986 -0.073123254 0.02817642 0.0059780106 0.057956196 -0.009315886
0.018050209 -0.0798287 0.060341798 -0.08993878 -0.0941358 0.079275794 0.05883742 0.013878271
0.09273518 0.010036491 -0.053923298 -0.036869228 -0.032393016 -0.024026051 -0.0047170892 -0.082559004
0.014826417 -0.012356006 -0.050779667 0.036946826 -0.09643693 -0.04109751 0.08793289 0.0072956085
-0.045364894 0.03632476 -0.078143135 -0.03355378 -0.08551134 -0.06097597 0.039592482 0.07784469
0.0856292 0.02914039 -0.0014279485 -0.07256292 -0.061670937 0.078615196 0.004161142 0.07006516
0.0836915 -0.053278066 -0.010156594 -0.022380136 -0.058227707 -0.09114875 -0.0347334 -0.08297946
-0.07432171 0.09889347 -0.0074653625 -0.032958254 0.018252194 -0.024306476 -0.07977949 -0.039360918
-0.058511224 0.046639584 -0.08698843 -0.030529775 0.02818524 -0.08243841 0.090009876 0.09782525
0.099293746 -0.08228983 -0.057769693 0.06271679 0.015139699 0.07251028 0.024702415 0.0021964312
0.07705908 0.04771302 0.024243891 -0.059873916 0.03739115 -0.045147683 0.012267806 0.032659225
-0.019547641 0.10677619 -0.0032427367 -0.081054345 -0.089568734 -0.046521284 0.043272365 -0.09410904
-0.06385725 -0.067072704 -0.07304129 0.06631594 0.047214467 -0.10347357 -0.018124104 0.0049648727
0.06944381 0.09801282 -0.033183474 0.10368201 0.06841803 -0.014671458 0.02794204 -0.041137133
0.09816115 0.07702663 -0.040165853 -0.057225585 -0.09986755 0.008191049 -0.06897167 0.1010627
-0.03239191 -0.081026636 -0.07743806 0.086432524 -0.021187238 0.0004484004 0.07954063 -0.034809828
0.053164292 -0.02951543 0.1257363 -0.0055801733 -0.08668597 -0.110379465 -0.050017785 -0.07318708
0.06593688 0.09930522 -0.029681481 -0.03834408 0.02228436 0.02118671 -0.0047107805 0.011305748
00000000: 29b9 823d 168a 0dbd e155 67bd 4e8a 1dbd
00000010: 834d 14bd 1205 6d3d aaee 73bd e247 ce3d
00000020: 5017 703c 8593 6abc 3a2f 8e3d 2bd6 c93d
00000030: 6a5c 36bd c56f 653d 0071 c0bd 5902 1dbd
00000040: 8174 ccbd b81c c9bd 7e34 9cbd 2896 af3d
00000050: 51b4 0ebc 3fb4 b43d 64b1 de3c 529e 4bbc
00000060: d223 563d f948 c5bd 10e3 033d 8983 c9bd
00000070: d76b b03d 3a5f a6bd d2ad 653d 5d57 73bc
00000080: 7e5b 7c3d 5d49 24bd d6b7 023d b403 afbc
00000090: bfac 813d 18e5 4e3d bb02 58bc 0277 0ebd
000000a0: ad6d 71bd b517 233d fee6 483b 0517 b43c
000000b0: b31a 493d 1bc3 863b e2f2 0e3d f280 92bb
000000c0: b266 643d 5968 7b3d e167 093d da18 28bd
000000d0: d817 3ebd efd7 863c b8e8 4f3d 3a2c 7abd
000000e0: e9ff 7c3d a1b7 8f3c 53e2 5cbd 5385 893c
000000f0: d008 bf3b 18ea 533c b433 f33b 1ae7 b3bd
00000100: d498 babd 7755 ab3d cbc5 b0bc 564c a83d
00000110: ecd8 673d 8922 953d ab28 b73b d123 eebc
00000120: 2c78 bf3d 60c5 d6bb 8acd 9ebd 932e 24bd
00000130: ffe2 f7bc 55da 1d3d 7de4 ccbb 0035 0c3a
00000140: b33d b93b 9ce2 afbb 9b3d c53d 2185 8abd
00000150: f0c3 adbd a109 4ebd 219e 663d 3166 783d
00000160: 7748 b83d 0cfb a0bc a5e0 1b3d 337c b1bd
00000170: 2d01 1ebd 48aa e2bc 3d4c cc3c 57cf 943d
00000180: c6db 31bc 1a47 873d 4a4c 993d 2ac9 8dbc
00000190: 6a03 49bd 4069 703c d017 6a3c 002c ef3a
000001a0: 5afd 5fbd e988 a93d 20b9 a5bb 5082 7abc
000001b0: 8b2d a03d 948a 9e3c 63c4 813d 92ac 90bd
000001c0: 50cd 65bd b588 a5bd 0034 e9ba a5c1 95bd
000001d0: 3cd2 e63c 30e3 c33b 7a63 6d3d a8a1 18bc
000001e0: 08de 933c 3b7d a3bd f628 773d d331 b8bd
000001f0: 45ca c0bd 595b a23d 82ff 703d b061 633c
00000200: f1eb bd3d 1870 243c adde 5cbd 3004 17bd
00000210: 8aae 04bd 48d2 c4bc d091 9abb b214 a9bd
00000220: 80ea 723c d870 4abc 57fe 4fbd 8e55 173d
00000230: ba80 c5bd dd55 28bd 2916 b43d 0010 ef3b
00000240: 8ad0 39bd 46c9 143d 8209 a0bd b06f 09bd
00000250: 9220 afbd f0c1 79bd ba2b 223d 096d 9f3d
00000260: 5d5e af3d d4b7 ee3c 002a bbba de9b 94bd
00000270: aa9a 7cbd 0101 a13d 305a 883b 537e 8f3d
00000280: 7366 ab3d 1a3a 5abd d867 26bc 8c56 b7bc
00000290: 2d80 6ebd 32ac babd 9c44 0ebd 23f1 a9bd
000002a0: fb35 98bd a988 ca3d 00a0 f4bb 3cff 06bd
000002b0: a085 953c 601e c7bc 6e63 a3bd ea38 21bd
000002c0: 77a9 6fbd 2609 3f3d fd26 b2bd 9419 fabc
000002d0: bce4 e63c 78d5 a8bd 1957 b83d 9b58 c83d
000002e0: 855a cb3d 9287 a8bd ea9f 6cbd a971 803d
000002f0: 800c 783c 4580 943d b85c ca3c 00f2 0f3b
00000300: 27d1 9d3d ba6e 433d 209b c63c 5a3e 75bd
00000310: 7627 193d c7ec 38bd e8fe 483c aec5 053d
00000320: 6022 a0bc 7aad da3d 1884 54bb d2ff a5bd
00000330: d06f b7bd 1a8d 3ebd 5d3e 313d 3ebc c0bd
00000340: 97c7 82bd 6a5d 89bd ac96 95bd a7d0 873d
00000350: f563 413d f3e9 d3bd 0079 94bc 5fb0 a23b
00000360: 8e38 8e3d f2ba c83d 65eb 07bd 3c57 d43d
00000370: c11e 8c3d 8e60 70bc b4e6 e43c 697f 28bd
00000380: b708 c93d 23c0 9d3d f384 24bd 6065 6abd
00000390: 5c87 ccbd c033 063c 0541 8dbd f6f9 ce3d
000003a0: 61ad 04bd 4bf1 a5bd d897 9ebd 8903 b13d
000003b0: dc90 adbc 4817 eb39 33e6 a23d c094 0ebd
000003c0: cdc2 593d 58ca f1bc 04c1 003e e3d9 b6bb
000003d0: 6a88 b1bd a10e e2bd 73df 4cbd 1ce3 95bd
000003e0: ea09 873d 8960 cb3d 9426 f3bc af0e 1dbd
000003f0: b18d b63c c08f ad3c e45c 9abb be3b 393c

fcns.1.bias f4 [100]
-0.011914221 -0.06750363 0.006113843 -0.024258543 -0.032888845 0.040548988 0.08234268 -0.08428577
-0.01949285 -0.043734755 -0.030537536 -0.0058332086 -0.07984833 -0.07133313 -0.018021453 0.05880293
0.055532783 0.034842685 -0.097754456 0.0302115 -0.0909776 -0.044641726 0.06522925 0.04673495
0.017521156 -0.049723335 0.04098144 0.043701883 0.07137225 -0.088230975 -0.011310191 0.019889364
-0.08719287 0.041404713 0.08724355 0.061624788 0.0951567 0.0032595885 0.013861932 0.019902177
0.06950064 0.058300726 -0.0019135559 0.07299676 0.0051620984 -0.0648262 0.018874718 0.029260928
-0.06743553 0.086314805 0.07292004 -0.0771369 -0.030127961 0.090387076 0.024432093 -0.026556188
-0.059073757 0.040816464 0.084008954 -0.014103898 0.01962192 -0.06407657 -0.07834229 -0.04934522
-0.016585674 0.042401485 0.08379364 -0.09386187 0.01943179 -0.06082978 0.050223783 0.04778463
0.011188346 -0.08134696 0.032340102 -0.020860575 -0.071235254 -0.07905828 0.053490363 -0.0966511
-0.020147823 -0.018881876 -0.070481874 -0.022052338 0.009766832 0.05578233 0.06261575 0.04352059
0.08793363 -0.045841068 0.095720604 0.0035030849 0.050919667 0.0024238464 -0.006725762 -0.052012585
-0.024125347 0.010513447 0.05223279 -0.08810184
00000000: dd33 43bc 583f 8abd a256 c83b dab9 c6bc
00000010: 74b6 06bd b216 263d 47a3 a83d 059e acbd
00000020: 78af 9fbc 3723 33bd db29 fabc 8024 bfbb
00000030: 8587 a3bd 1b17 92bd baa1 93bc 57db 703d
00000040: 5876 633d 34b7 0e3d 7d33 c8bd 1c7e f73c
00000050: 7752 babd 3eda 36bd ea96 853d 266d 3f3d
00000060: 8788 8f3c b2aa 4bbd 28dc 273d bf00 333d
00000070: 9d2b 923d 71b2 b4bd 614e 39bc 05ef a23c
00000080: 2d92 b2bd fd97 293d bfac b23d 466a 7c3d
00000090: 84e1 c23d d29e 553b 281d 633c e409 a33c
000000a0: 5a56 8e3d becc 6e3d 48d0 faba 537f 953d
000000b0: d226 a93b 99c3 84bd 279f 9a3c 9db4 ef3c
000000c0: a41b 8abd d1c5 b03d 1a57 953d f3f9 9dbd
000000d0: eace f6bc dc1c b93d d025 c83c 5d8c d9bc
000000e0: 53f7 71bd 2a2f 273d e30c ac3d 0914 67bc
000000f0: 26be a03c 943a 83bd ec71 a0bd 371e 4abd
00000100: aede 87bc 2ead 2d3d 009c ab3d a73a c0bd
00000110: 6b2f 9f3c a628 79bd 74b7 4d3d d1b9 433d
00000120: 534f 373c 3c99 a6bd 0e77 043d cce3 aabc
00000130: cae3 91bd 4fe9 a1bd b618 5b3d 03f1 c5bd
00000140: 0c0d a5bc 2aae 9abc cd58 90bd 1ba7 b4bc
00000150: 1005 203c 037c 643d b03c 803d a542 323d
00000160: 8c16 b43d d8c3 3bbd 2a09 c43d 0394 653b
00000170: 2491 503d 65d9 1e3b c863 dcbb 260b 55bd
00000180: 85a2 c5bc 9840 2c3c 0df2 553d bd6e b4bd

fcns.2.weight f4 [100, 100]
-0.0009172506 0.042781807 0.070548914 0.054948963 -0.047518563 -0.010805678 -0.09286084 -0.02189209
0.07012219 -0.051163066 0.045844007 -0.03348227 -0.00825838 -0.05336524 0.095398836 -0.051005907
-0.033754624 0.08971928 0.010976627 -0.071115926 0.047245942 -0.029532691 0.084106624 0.07659616
0.031605717 -0.0012848459 0.07207946 -0.092879 0.013185614 -0.044756312 -0.08557221 0.04282058
0.028778369 -0.0431233 0.09693713 0.008056924 -0.0871378 0.019645026 -0.036894575 -0.08984736
0.087292686 -0.04180094 -0.068469636 -0.0980064 -0.09054111 -0.03364633 0.060366053 0.05223331
0.095408805 0.040241934 -0.036249593 -0.09722876 -0.013323463 -0.05396419 -0.017496074 0.05326549
0.020591576 -0.052303124 0.00731369 -0.02392283 -0.020165553 -0.07254489 -0.07106483 0.069097616
0.07583203 -0.043213785 -0.02910052 -0.068395786 0.015664019 -0.04507381 0.037643082 -0.069544815
-0.01538756 0.02101387 0.09165339 -0.08420886 0.02236369 0.011425424 0.098420866 0.087812185
-0.09073563 -0.017323622 0.083810166 -0.089168675 -0.092364155 0.032311626 0.027020954 0.0538777
-0.096001975 0.092250146 -0.02596609 0.063715294 -0.002270909 0.0069245966 -0.07229784 -0.078473024
0.0048128334 0.08352899 0.06795189 0.068762966 0.026614727 0.07644763 0.10763055 0.008239838
0.05283641 0.09904539 -0.07012031 -0.07913725 -0.068920195 -0.030472912 -0.013938995 -0.065538526
0.020869067 0.0074842107 0.014692289 0.039662387 0.06262178 0.023353199 -0.04923159 -0.051846385
0.072815605 -0.018422915 0.04784665 -0.018642962 -0.04379534 0.06126902 -0.014945948 -0.054517146
-0.026870726 0.07592758 0.057185218 0.013516093 -0.0068006716 0.02382205 -0.0121187335 0.05101783
0.008348751 -0.049209088 -0.03940444 0.079406776 0.042799793 0.012501857 -0.011661149 0.006694807
0.07998915 -0.011001389 -0.049022738 -0.040443227 -0.026331745 -0.0043130373 0.0005900818 0.05859018
0.071060225 -0.09014245 -0.042046934 -0.062050853 -0.055971436 -0.07062562 0.04146654 -0.047390968
-0.040699232 0.10135489 0.08763324 0.08319438 0.070976175 -0.0005194172 0.09360868 0.016404936
-0.0928283 -0.03642878 0.03188811 -0.0397345 0.038730018 -0.031907756 0.019758973 0.03811384
0.036586624 0.07608829 0.041317962 0.038456246 0.051595278 -0.019373931 0.008267582 -0.09278339
-0.06827614 -0.07019427 0.04362717 0.09041696 0.07471402 -0.07751299 0.11902645 -0.051985946
-0.030829286 -0.0006250479 0.07351991 0.0836258 0.09925142 -0.040827274 -0.03147681 0.056447994
-0.00037529974 0.009009346 0.07764538 -0.030876817 0.06713944 -0.05212694 -0.05886228 -0.091492176
0.018322028 -0.046037734 0.008214377 0.031908847 0.08184043 0.030898571 0.019489508 0.05270938
0.07019956 -0.053085357 -0.010030356 0.009650305 0.0011664251 -0.03812975 -0.097781196 0.082053624
0.06277188 -0.091985464 -0.052741002 -0.014596429 0.0046857027 -0.02017514 -0.06153724 -0.0042984807
-0.096425734 -0.056814365 -0.08175835 -0.026608244 0.037025645 0.07056002 -0.059478402 -0.097595654
-0.0981365 0.08414183 -0.09057261 -0.090379134 0.07567853 -0.12807232 -0.043891873 -0.036450762
-0.08008577 -0.045794804 0.09091249 -0.04121809 0.051650394 -0.054646544 -0.045370135 0.01824158
00000000: a573 70ba fa3b 2f3d f37b 903d 2a12 613d
00000010: d3a2 42bd 4c0a 31bc d32d bebd 0a57 b3bc
00000020: 399c 8f3d 5d90 51bd edc6 3b3d b424 09bd
00000030: 284e 07bc 8395 5abd 7760 c33d 92eb 50bd
00000040: 4a42 0abd bebe b73d 4fd7 333c 3aa5 91bd
00000050: f684 413d 8bee f1bc 1840 ac3d 73de 9c3d
00000060: ff74 013d 4668 a8ba 659e 933d 5837 bebd
00000070: 7908 583c 6552 37bd 7c40 afbd a264 2f3d
00000080: 9dc0 eb3c 0fa2 30bd f986 c63d 3001 043c
00000090: 4e75 b2bd 9bee a03c c41e 17bd e501 b8bd
000000a0: 82c6 b23d 7637 2bbd cf39 8cbd 94b7 c8bd
000000b0: 9e6d b9bd bcd0 09bd 6542 773d 98f2 553d
000000c0: b165 c33d bad4 243d 747a 14bd df1f c7bd
000000d0: a74a 5abc 8e09 5dbd ed53 8fbc ea2c 5a3d
000000e0: aaaf a83c cd3b 56bd aea7 ef3b d0f9 c3bc
000000f0: 3b32 a5bc 6a92 94bd 708a 91bd 0d83 8d3d
00000100: d34d 9b3d f000 31bd 3764 eebc 1713 8cbd
00000110: d451 803c 519f 38bd a22f 1a3d 836d 8ebd
00000120: 1b1c 7cbc 4825 ac3c c6b4 bb3d b275 acbd
00000130: 0f34 b73c b431 3b3c e190 c93d e0d6 b33d
00000140: 9ad3 b9bd 45ea 8dbc aaa4 ab3d 119e b6bd
00000150: 6b29 bdbd 3259 043d 0c5b dd3c ddae 5c3d
00000160: af9c c4bd a5ed bc3d d6b6 d4bc 2a7d 823d
00000170: 88d3 14bb bae7 e23b e410 94bd 77b6 a0bd
00000180: f9b4 9d3b 3f11 ab3d 5c2a 8b3d 99d3 8c3d
00000190: 2107 da3c 9390 9c3d 686d dc3d 6300 073c
000001a0: fe6a 583d 4fd8 ca3d 3d9b 8fbd b612 a2bd
000001b0: 0826 8dbd 54a2 f9bc 6260 64bc 1039 86bd
000001c0: 9bf5 aa3c 1c3e f53b edb7 703c 0775 223d
000001d0: d93f 803d 354f bf3c 10a7 49bd e05c 54bd
000001e0: 5920 953d a7eb 96bc d9fa 433d 20b9 98bc
000001f0: be62 33bd 39f5 7a3d d9df 74bc 5f4d 5fbd
00000200: ff1f dcbc eb7f 9b3d 0c3b 6a3d 9a72 5d3c
00000210: 2bd8 debb 7626 c33c a78d 46bc 12f8 503d
00000220: 33c9 083c 788f 49bd 8d66 21bd 05a0 a23d
00000230: d64e 2f3d 97d4 4c3c 670e 3fbc 1d60 db3b
00000240: 5ad1 a33d 2b3f 34bc 11cc 48bd cca7 25bd
00000250: acb5 d7bc 6154 8dbb b8af 1a3a 42fc 6f3d
00000260: 0688 913d 9b9c b8bd 6839 2cbd 0929 7ebd
00000270: 4e42 65bd 2aa4 90bd d2d8 293d 081d 42bd
00000280: 3db4 26bd 2793 cf3d 0e79 b33d d161 aa3d
00000290: f55b 913d 8029 08ba e8b5 bf3d a563 863c
000002a0: c41c bebd 5836 15bd 1b9d 023d a5c0 22bd
000002b0: 5ea3 1e3d b5b1 02bd 92dd a13c 421d 1c3d
000002c0: dbdb 153d 2dd4 9b3d 063d 293d 4c84 1d3d
000002d0: 9255 533d 14b6 9ebc c174 073c 3805 bebd
000002e0: 5cd4 8bbd 03c2 8fbd 67b2 323d 872c b93d
000002f0: aa03 993d 21bf 9ebd 24c4 f33d 37ef 54bd
00000300: b38d fcbc 41da 23ba 9b91 963d 0144 ab3d
00000310: 5444 cb3d 803a 27bd d4ed 00bd 0336 673d
00000320: e1c3 c4b9 f09b 133c 8a04 9f3d 61f1 fcbc
00000330: 6780 893d 0f83 55bd 9319 71bd 4060 bbbd
00000340: 1418 963c 1092 3cbd 9895 063c dab2 023d
00000350: f59b a73d 001f fd3c 76a8 9f3c cae5 573d
00000360: c9c4 8f3d 0870 59bd 5d56 24bc 501c 1e3c
00000370: bbe2 983a f12d 1cbd 8241 c8bd bb0b a83d
00000380: 8b8e 803d e062 bcbd f306 58bd dc25 6fbc
00000390: 868a 993b 5646 a5bc 790e 7cbd 45da 8cbb
000003a0: db7a c5bd 2eb6 68bd ec70 a7bd 88f9 d9bc
000003b0: 34a8 173d c681 903d a09f 73bd 3be0 c7bd
000003c0: cafb c8bd 8d52 ac3d 227e b9bd b218 b9bd
000003d0: 58fd 9a3d 6425 03be f7c7 33bd 654d 15bd
000003e0: 0204 a4bd 5593 3bbd 5430 ba3d 4dd4 28bd
000003f0: 5d8f 533d 0ed5 5fbd 09d6 39bd 5e6f 953c
