spatial_model_both_side_danger_full_5_pos/model_best.pt (torch_old, 156115 bytes, 88 tensors)

exp_avg f4 [5, 20]
-1.1938181e-06 -0.00016930938 0.00016368831 0.00017767506 0.00025106236 0.00012483638 0.0002700994 0.0002877455
0.00024105876 -1.5970872e-05 3.5280085e-05 -0.00015476867 6.697964e-05 2.0636846e-05 3.7463626e-05 0.00018772141
0.00029916276 7.578024e-05 0.0001030918 -7.1562186e-05 7.011197e-05 0.0001578857 0.00021253913 -0.00013084055
0.0003402566 5.8308207e-05 0.0002094686 0.0001635811 0.00017024843 8.2145554e-05 5.20741e-06 0.00019133661
0.000118636686 -3.0143668e-05 8.047288e-05 5.3583033e-05 0.00024129551 0.00017265412 1.8856907e-05 0.000120279175
-0.00060783804 -0.0008250602 -0.001541505 -0.00057790586 -0.0007804064 -0.0013972918 -0.002173428 -0.0015868729
-0.0018497263 -0.0010203521 -0.0010615946 -0.0009959105 -0.0016958577 -0.00029226515 -0.0006677242 -0.0009045556
-0.002339312 -0.0017268063 -0.00079694577 -0.002446451 7.022917e-05 -0.00018645798 0.00023956633 -9.355256e-05
-0.00023205142 0.00021041954 0.00014994417 7.0301954e-05 5.1681523e-05 -0.00014040849 0.00035391992 -0.00016092518
0.00024703218 -1.755276e-05 -9.913952e-05 8.603943e-05 0.000116687916 0.00020140046 0.00015336787 0.00059677084
0.00038453192 0.0008163088 0.0008696509 0.00049249537 0.00022562889 0.0009412589 0.0012235602 0.0008655076
0.0010911119 0.00081108516 0.000629906 0.00089226564 0.0010415564 0.00029780198 0.00044480784 0.0006465738
0.0013677223 0.001147578 0.0005108214 0.0012805637
00000000: 473b a0b5 a488 31b9 bfa3 2b39 494e 3a39
00000010: 05a1 8339 83e6 0239 219c 8d39 8cdc 9639
00000020: b8c4 7c39 30f9 85b7 b4f9 1338 6649 22b9
00000030: 6c77 8c38 4a1d ad37 4322 1d38 15d7 4439
00000040: f2d8 9c39 35ec 9e38 fd32 d838 a813 96b8
00000050: 1409 9338 1f8e 2539 0add 5e39 3e32 09b9
00000060: 7864 b239 f68f 7438 cda4 5b39 f886 2b39
00000070: b784 3239 8f45 ac38 50bb ae36 88a1 4839
00000080: 96cc f838 09dd fcb7 8cc3 a838 58be 6038
00000090: 4504 7d39 7d0a 3539 e62e 9e37 643e fc38
000000a0: 5257 1fba da48 58ba 530c caba 9b7e 17ba
000000b0: 3094 4cba 5525 b7ba 1270 0ebb 9efe cfba
000000c0: 8472 f2ba 56bd 85ba 3425 8bba 3689 82ba
000000d0: 8b47 deba 2a3b 99b9 360a 2fba b31f 6dba
000000e0: 254f 19bb 0156 e2ba 20ea 50ba a354 20bb
000000f0: 0048 9338 ef83 43b9 1934 7b39 a631 c4b8
00000100: d452 73b9 11a4 5c39 553a 1d39 136f 9338
00000110: 9dc4 5838 9e3a 13b9 548e b939 06be 28b9
00000120: 1984 8139 443e 93b7 20e9 cfb8 1170 b438
00000130: 59b6 f438 062f 5339 60d1 2039 9d70 1c3a
00000140: 009b c939 8efd 553a 49f9 633a ce1a 013a
00000150: cb96 6c39 d1be 763a de5f a03a 3be3 623a
00000160: a403 8f3a 019f 543a 4720 253a efe6 693a
00000170: d584 883a 4e22 9c39 1935 e939 d57e 293a
00000180: 2545 b33a 546a 963a a5e8 053a 96d8 a73a

exp_avg_sq f4 [5, 20]
3.4380236e-07 1.6053956e-06 1.7951184e-06 5.5105643e-06 2.022274e-06 3.2978228e-06 5.6695326e-06 3.3975582e-06
4.137865e-06 2.3187329e-06 7.9992185e-07 1.4170538e-06 2.5854129e-06 3.204555e-07 1.0516557e-06 2.8354018e-06
6.608349e-06 2.9820858e-06 1.4159339e-06 5.8629175e-06 5.4268696e-07 7.434638e-07 3.8339017e-06 4.0984078e-06
2.0235432e-06 4.7171816e-06 4.278072e-06 3.6306296e-06 3.990138e-06 5.918591e-07 3.7315877e-07 7.9914025e-07
2.4045316e-06 6.2124974e-07 2.3390956e-07 3.3895394e-06 5.6431386e-06 3.7450789e-06 2.6294924e-06 2.0401317e-06
7.0142806e-07 1.1039895e-06 6.5574873e-06 2.4064807e-06 3.3908502e-06 4.683922e-06 8.267563e-06 5.284603e-06
6.740933e-06 2.0689538e-06 2.2269805e-06 1.9892334e-06 4.8146508e-06 5.5514283e-07 7.87452e-07 3.077002e-06
1.0088044e-05 6.5613094e-06 2.0580908e-06 9.363179e-06 8.786864e-07 3.5127193e-06 3.3334554e-06 1.3255298e-06
5.3032574e-07 3.480485e-06 9.400772e-06 4.140666e-06 6.8714053e-06 2.2647434e-06 3.5479845e-06 3.6100562e-06
6.5311374e-06 1.472991e-07 8.466685e-07 1.2285318e-06 1.0417796e-05 5.506759e-06 1.1192144e-06 2.553961e-05
1.2867271e-06 5.7666402e-06 5.643709e-06 2.0942114e-06 1.2710988e-06 5.320814e-06 1.134401e-05 5.2413598e-06
9.186633e-06 3.6719878e-06 3.27765e-06 6.543606e-06 8.285629e-06 6.5586386e-07 1.4264801e-06 1.74619e-06
1.3234608e-05 8.798022e-06 1.9371819e-06 2.2036327e-05
00000000: d693 b834 f978 d735 ccef f035 63e7 b836
00000010: 67b6 0736 2a50 5d36 ea3c be36 9b01 6436
00000020: fdd7 8a36 879b 1b36 36ba 5635 9931 be35
00000030: 0e81 2d36 120b ac34 9d26 8d35 d547 3e36
00000040: 49bd dd36 d81f 4836 1e0b be35 14ba c436
00000050: 2aad 1135 7192 4735 f7a4 8036 0e85 8936
00000060: 35cc 0736 4848 9e36 5c8c 8f36 bea5 7336
00000070: 06e3 8536 3fe0 1e35 8d56 c834 8084 5635
00000080: 8a5d 2136 f5c3 2635 9228 7b34 d877 6336
00000090: 315a bd36 f753 7b36 5676 3036 32e9 0836
000000a0: c549 3c35 ca2c 9435 6308 dc36 067f 2136
000000b0: 5d8e 6336 952a 9d36 eab4 0a37 6552 b136
000000c0: 2c30 e236 5bd8 0a36 3c73 1536 c57e 0536
000000d0: 898d a136 2005 1535 4a61 5335 7e7e 4e36
000000e0: d23f 2937 3829 dc36 bb1d 0a36 8c16 1d37
000000f0: dfde 6b35 0fbc 6b36 54b4 5f36 dbe8 b135
00000100: b55b 0e35 4792 6936 02b8 1d37 0df0 8a36
00000110: ec90 e636 fffb 1736 e919 6e36 4b44 7236
00000120: 0b26 db36 4529 1e34 9e46 6335 08e4 a435
00000130: 18c8 2e37 b3c6 b836 ea37 9635 e53d d637
00000140: 9bb3 ac35 107f c136 175f bd36 478a 0c36
00000150: 9f9a aa35 7289 b236 2752 3e37 f0de af36
00000160: 4a20 1a37 456c 7636 99f5 5b36 2691 db36
00000170: 8102 0b37 9f0e 3035 7c75 bf35 a25e ea35
00000180: 350a 5e37 379b 1337 8800 0236 a7da b837

exp_avg f4 [20, 20]
-0.000388967 0.0002834016 -0.004150559 0.00097155274 0.00068073056 -0.00074699323 0.00043022452 -0.00024477922
-0.0013166367 -0.0012973021 -0.0011197855 -0.0038160984 0.0015859281 -0.00010854791 2.247252e-05 -0.00016074385
0.00069846737 -0.00012994459 0.0011106601 0.0032978805 -0.00065104687 0.0004198552 0.0033548286 2.3206852e-05
0.00022099169 0.00050727057 0.00069032185 -0.00054996833 0.0031702467 6.889629e-05 0.0014720748 0.0026805468
-0.00011236424 -0.00086595997 -0.0013546109 0.0026902282 4.7139834e-05 -0.0006059452 -0.00037775197 -0.0006302711
0.0011410404 0.0008859497 -0.00381084 0.0010053406 -1.8744842e-05 -0.00020619771 0.00031935057 0.00074755057
-0.0022538889 -0.00032519604 -0.0015612121 -0.00270278 0.0002617271 0.0007744325 0.001168935 -0.0039395527
4.5733934e-05 0.000837992 0.000879119 0.0008524803 0.000471022 0.0004122348 0.0009932749 0.00021312495
-0.00019588051 -6.33467e-05 0.00026098426 0.00031499335 4.6628127e-05 0.0004761848 8.411194e-05 0.0014075843
-0.00041175788 0.00012890762 0.00016696677 -0.00040084572 -0.0001616159 0.00017837477 0.00017816563 -0.00086477614
-0.00089240575 -0.0017341536 0.0039821686 -0.002265207 -0.00032568054 -0.00022380432 -0.0013388052 -0.0005812933
0.0011735931 0.0006679584 0.0010624109 0.0040232292 -0.00065079477 -0.00026818868 -0.00058933697 0.0036903874
-0.00040996968 -0.0004850182 -0.001439172 -0.0015927318 4.7490856e-05 -0.00084306917 -0.0022401009 -0.00091214606
-1.1039317e-05 -0.00023044477 -0.00081693404 -1.0715183e-05 -0.001769657 -6.0645096e-05 -0.00042492084 -0.0017284071
5.6883473e-06 0.00025361334 0.00077330664 -0.0006088438 0.00022157692 6.829985e-05 -7.76203e-05 0.0012839489
0.00056471507 0.0011142002 0.0004152941 0.0009185679 -0.00018349946 0.00037512535 0.0009921897 0.0006643605
-0.0003719379 0.00022454443 -3.649966e-05 0.00048509703 -0.00086371106 7.153817e-05 -4.80268e-06 -0.00088805624
-0.00018589494 0.0003980345 0.0006462314 -0.0015159647 -0.000112261376 -0.0012026359 -0.00020982043 -0.0015488496
0.00014455219 -6.4315995e-05 -0.0011824926 -0.00027361044 8.274588e-06 -0.00012506564 -1.1156791e-05 -0.00030094024
7.776315e-05 3.3648382e-06 7.736824e-05 0.00042272412 -9.395512e-06 -0.00028930025 -0.00028267514 0.00053309224
-0.0002921058 -0.00028731092 -2.1645477e-05 -0.00021936855 -9.128291e-06 -0.0001076591 -0.00014244842 -0.00011651797
-3.3185257e-05 6.357607e-05 -5.4915927e-05 -4.7659458e-05 4.1482464e-05 -8.701657e-06 5.509519e-05 1.5625945e-05
2.5249186e-05 -3.3897824e-05 -0.0002789227 0.00012497218 -0.0015431745 -0.0010542454 0.0024196242 -0.0014951059
0.0004620055 0.00093071646 -0.00046476355 -0.0011300526 0.0022118224 -0.00029041662 0.0013228348 0.0011249587
0.00022555621 -0.001193579 -0.0018391801 0.0038970993 8.2663566e-05 -0.0010849184 -0.0009601358 0.00024019841
-0.00048638345 0.00022478972 0.00019560849 7.6044555e-05 9.7689146e-05 0.00016998664 0.00060248043 -0.00026197618
0.00038726942 -7.68625e-05 0.00022190383 -7.2887546e-05 0.00032412724 -0.00032421367 -0.00044548378 0.00067644333
9.9906356e-05 -0.00014264353 -0.00026544387 0.0002586232 0.0025701625 0.0005688547 -0.002796736 -0.000789196
-6.5270266e-05 -0.00034635258 -0.001071086 0.0009331009 -0.00065536046 -0.0008487156 -0.0010168711 -0.0033617457
-0.001641865 0.00095890934 0.0015822559 -0.0023619633 -0.00059096783 0.000753287 9.422776e-06 -0.00240479
-0.005605707 -0.010372404 0.0057255398 -0.006066563 -0.0011472658 0.00010278958 -0.007816492 -0.0020141837
0.0016414507 0.0026377128 0.001593706 0.00682943 -0.0012367303 0.00025441404 0.0015944088 0.0037537753
00000000: 44ee cbb9 8595 9439 6a01 88bb cdaf 7e3a
00000010: 0e73 323a ded1 43ba c28f e139 b655 80b9
00000020: ff92 acba 3c0a aaba c4c5 92ba 8217 7abb
00000030: ebde cf3a 37a4 e3b8 5f83 bc37 598d 28b9
00000040: 5a19 373a bc41 08b9 9293 913a 4121 583b
00000050: 04ab 2aba 0320 dc39 afdc 5b3b 56ac c237
00000060: 01ba 6739 5afa 043a b7f6 343a c02b 10ba
00000070: eac3 4f3b 6a7c 9038 a2f2 c03a 1dac 2f3b
00000080: 18a5 ebb8 9701 63ba 338d b1ba 8a4e 303b
00000090: 03b8 4538 4bd8 1eba 030d c6b9 c738 25ba
000000a0: f68e 953a 143f 683a 49bf 79bb a2c5 833a
000000b0: 3e3e 9db7 c736 58b9 826e a739 45f7 433a
000000c0: fbb5 13bb 137f aab9 96a1 ccba 2021 31bb
000000d0: 6b38 8939 4903 4b3a f336 993a 5d17 81bb
000000e0: 70d2 3f38 b1ac 5b3a ad74 663a fc78 5f3a
000000f0: 81f3 f639 3821 d839 c630 823a 4b7a 5f39
00000100: 4665 4db9 00d9 84b8 b7d4 8839 b125 a539
00000110: 9292 4338 71a8 f939 4165 b038 b17e b83a
00000120: 35e1 d7b9 602b 0739 cd13 2f39 9a28 d2b9
00000130: 7077 29b9 1d0a 3b39 f9d1 3a39 25b2 62ba
00000140: 56f0 69ba 8a4c e3ba da7c 823b de73 14bb
00000150: 1ac0 aab9 04ad 6ab9 d97a afba ef61 18ba
00000160: 40d3 993a ee19 2f3a 9840 8b3a 4bd5 833b
00000170: 199a 2aba ad9b 8cb9 bc7d 1aba 6dda 713b
00000180: 33f1 d6b9 0a4a feb9 99a2 bcba 36c3 d0ba
00000190: eb30 4738 6a01 5dba a8ce 12bb 161d 6fba
000001a0: 8135 39b7 8ca3 71b9 8427 56ba 5cc5 33b7
000001b0: d6f3 e7ba 2d5d 7eb8 e9c7 deb9 b88b e2ba
000001c0: 88de be36 68f7 8439 bbb7 4a3a d19a 1fba
000001d0: 1a57 6839 343c 8f38 15c8 a2b8 2d4a a83a
000001e0: 6309 143a 5b0a 923a d5bb d939 0ccc 703a
000001f0: c369 40b9 79ac c439 5d0c 823a 7a28 2e3a
00000200: a900 c3b9 b073 6b39 3617 19b8 9f54 fe39
00000210: ab6a 62ba c306 9638 b526 a1b6 72cc 68ba
00000220: cbec 42b9 49af d039 db67 293a 56b3 c6ba
00000230: de6d ebb8 c4a1 9dba 3e03 5cb9 c502 cbba
00000240: ef92 1739 63e1 86b8 defd 9aba 5f73 8fb9
00000250: 16d3 0a37 0d24 03b9 0d2e 3bb7 84c7 9db9
00000260: c614 a338 7bcf 6136 c240 a238 12a1 dd39
00000270: 6ba1 1db7 39ad 97b9 0434 94b9 37bf 0b3a
00000280: c725 99b9 38a2 96b9 4f93 b5b7 4c06 66b9
00000290: b625 19b7 0ac7 e1b8 355e 15b9 1c5b f4b8
000002a0: 6630 0bb8 2554 8538 8755 66b8 f4e5 47b8
000002b0: 75fd 2d38 55fd 11b7 0316 6738 7614 8337
000002c0: 37ce d337 832d 0eb8 5f3c 92b9 f70a 0339
000002d0: 5844 caba 9b2e 8aba 8f92 1e3b 6ef7 c3ba
000002e0: 5439 f239 53fb 733a 82ab f3b9 461e 94ba
000002f0: 39f4 103b 0f43 98b9 f862 ad3a 5a73 933a
00000300: 4983 6c39 de71 9cba a510 f1ba 7a66 7f3b
00000310: aa5b ad38 d233 8eba 9fb1 7bba c5dd 7b39
00000320: 4801 ffb9 88b5 6b39 411c 4d39 1c7a 9f38
00000330: 76de cc38 713e 3239 c7ef 1d3a d959 89b9
00000340: 6c0a cb39 3e31 a1b8 dbae 6839 34db 98b8
00000350: 9fef a939 39fb a9b9 d28f e9b9 5853 313a
00000360: d184 d138 9592 15b9 462b 8bb9 d197 8739
00000370: 2c70 283b 311f 153a 7249 37bb 0ce2 4eba
00000380: b5e1 88b8 a896 b5b9 af63 8cba 579b 743a
00000390: 7fcc 2bba 577c 5eba 8848 85ba bc50 5cbb
000003a0: d933 d7ba 515f 7b3a b363 cf3a 2bcb 1abb
000003b0: 2eeb 1aba 3c78 453a 8416 1e37 ae99 1dbb
000003c0: 14b0 b7bb 04f1 29bc 4f9d bb3b 05ca c6bb
000003d0: da5f 96ba bc90 d738 be10 00bc 6500 04bb
000003e0: f225 d73a 7add 2c3b e6e3 d03a 69c9 df3b
000003f0: c819 a2ba e062 8539 7bfb d03a e601 763b

exp_avg_sq f4 [20, 20]
1.9639865e-06 3.0514819e-05 3.960328e-05 9.315063e-05 1.1747045e-06 1.9486984e-05 5.152743e-05 6.3015005e-07
7.716759e-06 5.721974e-06 5.212818e-06 5.7807232e-05 3.812079e-05 3.2134747e-07 7.803261e-07 1.8492676e-05
3.4073662e-06 1.1615793e-06 2.4722562e-05 8.243876e-05 0.00010205578 0.00015601343 0.00026363737 0.000290747
3.667813e-06 0.00012026972 8.881803e-05 4.5163266e-05 0.00016712506 5.4561006e-06 6.876816e-05 7.884373e-05
4.6560424e-05 3.4332817e-05 7.357035e-05 0.0002974245 4.5115785e-06 3.522557e-05 0.00015466762 0.00012123317
0.00010936609 9.880514e-05 0.00063522917 0.00021849286 5.20841e-06 0.00021869154 5.517104e-05 4.609424e-05
0.0002578361 2.6261152e-05 0.00014675468 0.00024949122 6.648474e-05 6.1266175e-05 0.0001384057 0.00051535544
7.3113465e-06 4.301405e-05 0.00015417728 0.00026314706 3.929088e-06 9.113928e-05 5.226385e-05 0.00029668625
2.6646946e-06 3.1741794e-05 0.00015218063 2.219524e-06 8.414929e-06 2.0178371e-05 7.581074e-06 0.00011416617
8.505738e-05 1.4067444e-06 3.506769e-06 4.899044e-05 5.8775986e-06 4.3768896e-06 5.4910714e-05 0.00012821425
7.4219915e-06 3.5417834e-05 0.00014858233 6.34908e-05 1.6386416e-06 1.5330976e-05 3.7095928e-05 3.3181643e-06
2.7442622e-05 1.14053955e-05 1.4501149e-05 0.00013545266 7.1955624e-06 2.3532166e-06 9.645445e-06 0.00010518312
9.615311e-07 2.2939603e-06 1.8726163e-05 2.0073281e-05 2.5717068e-06 8.863585e-06 8.1357655e-05 1.4897151e-05
7.474325e-07 2.108633e-05 1.2512858e-05 8.9426675e-07 3.0508883e-05 5.390899e-06 1.1518779e-05 4.8011727e-05
3.792637e-06 2.6724506e-06 1.0337738e-05 1.9433179e-05 9.940647e-07 8.6153756e-07 3.914897e-06 3.302782e-05
2.230445e-05 2.4504972e-05 2.017394e-05 1.3272764e-05 1.7772264e-07 3.8938815e-06 1.4327181e-05 1.2272875e-05
1.8058523e-05 1.9241827e-06 2.186906e-06 1.6732529e-05 3.214285e-05 2.2124623e-06 5.508463e-06 1.9914876e-05
1.0019111e-06 2.8035931e-06 1.4147721e-05 5.565337e-05 1.6115517e-05 6.7115616e-05 1.2556141e-05 9.498031e-05
4.250725e-07 1.922611e-06 4.3886437e-05 8.458366e-06 9.428205e-06 6.969054e-07 1.9091794e-06 9.79778e-06
3.6435574e-06 8.0328806e-07 9.055886e-07 2.7774104e-05 2.7595567e-07 5.342914e-06 1.7911585e-05 1.9895662e-05
3.2766764e-06 1.103364e-05 3.225894e-06 1.6569418e-05 1.456119e-07 1.147049e-06 8.614979e-06 1.4281408e-06
1.0564868e-06 5.1141933e-07 4.2296892e-07 3.1465047e-06 1.7566344e-06 3.56032e-07 6.3095257e-07 4.6603022e-06
1.7683571e-07 7.363482e-07 6.3324915e-06 4.1203634e-06 6.145651e-05 0.00011207215 4.943541e-05 0.00020001875
4.773793e-06 5.565331e-05 6.574284e-05 2.694347e-05 6.336911e-05 9.090646e-06 2.050629e-05 4.41342e-05
2.0457528e-05 1.7741511e-05 3.4509783e-05 0.00013837621 1.8698954e-06 2.093118e-05 8.506023e-05 2.8394998e-05
1.2670741e-05 6.9803277e-06 6.456436e-06 2.7437543e-06 2.1649831e-07 4.1958065e-06 3.8838184e-06 3.682291e-06
6.460374e-06 7.5589264e-07 1.1170802e-06 5.75551e-06 8.331435e-06 2.4361193e-06 7.999932e-06 1.0600925e-05
5.248641e-07 1.1684823e-06 5.244931e-06 1.4877449e-05 0.00011171055 0.0008463061 0.0003457696 0.0020193767
8.407124e-06 6.8614434e-05 0.00090838823 3.260851e-05 4.7070615e-05 2.8981569e-05 4.6160072e-05 0.00032961392
0.00032798198 2.7141145e-05 0.00010596798 0.00025573562 3.2053962e-05 2.5298554e-05 0.00035712388 0.00047066502
0.001115174 0.005760739 0.004666636 0.0077450415 6.592144e-05 0.00024528513 0.004548849 0.0005286498
0.0006710886 0.00043506696 0.00051760115 0.004516064 0.0004596845 6.996306e-05 0.00017700066 0.0039999736
00000000: 08cd 0336 13fa ff37 b31b 2638 dd59 c338
00000010: 8aaa 9d35 fb77 a337 281f 5838 9527 2935
00000020: 3a77 0137 62ff bf36 c4e9 ae36 0b76 7238
00000030: e3e3 1f38 a985 ac34 9a77 5135 b820 9b37
00000040: 1baa 6436 90e7 9b35 4c63 cf37 f9e2 ac38
00000050: c806 d638 8997 2339 cf38 8a39 676f 9839
00000060: 8c24 7636 5039 fc38 d143 ba38 b06d 3d38
00000070: 4b3e 2f39 8c13 b736 a037 9038 e858 a538
00000080: e049 4338 9500 1038 c849 9a38 a4ef 9b39
00000090: 2a62 9736 2bbf 1338 462e 2239 903e fe38
000000a0: 795b e538 9b35 cf38 8285 263a 3b1b 6539
000000b0: e7c3 ae36 9050 6539 7467 6738 5055 4138
000000c0: 2d2e 8739 654b dc37 29e2 1939 25ce 8239
000000d0: b96d 8b38 077c 8038 ff20 1139 eb18 073a
000000e0: fd53 f536 fc69 3438 a6aa 2139 00f7 8939
000000f0: 9cd6 8336 0722 bf38 e235 5b38 8e8c 9b39
00000100: 1bd3 3236 7e22 0538 ad92 1f39 22f3 1436
00000110: d82d 0d37 b944 a937 ee60 fe36 7f6c ef38
00000120: d560 b238 5fcf bc35 d555 6b36 167b 4d38
00000130: 3038 c536 32dd 9236 ee4f 6638 4071 0639
00000140: 6c0a f936 9c8d 1438 c4cc 1b39 5d26 8538
00000150: 4cef db35 059b 8037 7397 1b38 a1ad 5e36
00000160: 9534 e637 cd59 3f37 f649 7337 4c08 0e39
00000170: 6971 f136 f4eb 1d36 dfd2 2137 c295 dc38
00000180: f50d 8135 f0f1 1936 2116 9d37 0b63 a837
00000190: 9695 2c36 cfb4 1437 8f9e aa38 c7ee 7937
000001a0: 2ca3 4835 8de2 b037 51ee 5137 8b0d 7035
000001b0: 54ed ff37 78e3 b436 c740 4137 3360 4938
000001c0: 0285 7e36 5a58 3336 3f70 2d37 6f04 a337
000001d0: ce6b 8535 6944 6735 b65c 8336 5a87 0a38
000001e0: 711a bb37 0790 cd37 353b a937 16ae 5e37
000001f0: 07d4 3e34 30a8 8236 c65e 7037 99e7 4d37
00000200: 627c 9737 3521 0136 c2c2 1236 d55c 8c37
00000210: 1fd1 0638 d079 1436 56d5 b836 df0e a737
00000220: 6779 8635 5d25 3c36 005c 6d37 5a6d 6938
00000230: cf2f 8737 6cc0 8c38 37a8 5237 2a30 c738
00000240: 8535 e434 3506 0136 b412 3838 68e8 0d37
00000250: d52d 1e37 f912 3b35 741f 0036 2561 2437
00000260: d783 7436 89a1 5735 9317 7335 6ffc e837
00000270: 0f27 9434 4847 b336 d640 9637 9ce5 a637
00000280: dfe4 5b36 1f1d 3937 707c 5836 8efe 8a37
00000290: 7f59 1c34 4ef4 9935 0e89 1037 8bae bf35
000002a0: 9ccc 8d35 7848 0935 6814 e334 8a28 5336
000002b0: 80c5 eb35 aa24 bf34 bb5e 2935 b15f 9c36
000002c0: 3be0 3d34 77a9 4535 b07b d436 a741 8a36
000002d0: 36e2 8038 4708 eb38 de58 4f38 20bc 5139
000002e0: 922e a036 496d 6938 6bdf 8938 a904 e237
000002f0: 08e5 8438 0784 1837 ec04 ac37 bd1c 3938
00000300: 359c ab37 9bd3 9437 99be 1038 1519 1139
00000310: 1ef9 fa35 5e95 af37 5d62 b238 cb31 ee37
00000320: 6b94 5437 8f38 ea36 5da4 d836 5721 3836
00000330: 9a76 6834 b4c9 8c36 bf51 8236 471d 7736
00000340: 31c6 d836 8ce8 4a35 95ee 9535 741f c136
00000350: 3ec7 0b37 367c 2336 7237 0637 a0da 3137
00000360: 63e4 0c35 bfd4 9c35 9dfd af36 289a 7937
00000370: 2546 ea38 a4da 5d3a 6948 b539 8557 043b
00000380: 530c 0d37 18e5 8f38 e720 6e3a 1fc5 0838
00000390: b06d 4538 721d f337 009c 4138 08d0 ac39
000003a0: fff4 ab39 2aad e337 203b de38 4114 8639
000003b0: ae71 0638 3b38 d437 5b3c bb39 97c3 f639
000003c0: 082b 923a 95c4 bc3b 95ea 983b 1eca fd3b
000003d0: 4e3f 8a38 9d99 8039 830e 953b 1695 0a3a
000003e0: feeb 2f3a b319 e439 a0af 073a 7efb 933b
000003f0: cf01 f139 22b9 9238 4199 3939 3612 833b

exp_avg f4 [20, 20]
-0.00092364027 -2.8591998e-05 0.00018462927 0.0002166259 0.0015527513 -0.000792414 0.0019973489 0.0028897072
-0.0003288052 -0.0010171804 -0.0011369212 -0.00091129885 -0.0014258954 0.00012245114 0.0007708106 -0.0020817097
-0.00019204438 0.00030944112 -0.00086678873 -0.0014739087 -0.0016113475 0.0107348235 0.00065545936 0.0003958085
0.0015165545 0.0006629541 -0.0003146748 -0.0010037783 -0.00028288338 -0.0014709176 -0.0030658366 -0.0011146222
0.00036747236 0.0018103933 0.0067529883 -0.006422952 0.005425069 0.0012844091 -0.0034005004 0.00209022
-0.00011507721 0.0012277457 0.0012792058 0.0011032693 -0.00011823292 -0.0007061194 0.0006695771 0.0013371598
4.5981975e-05 -0.0017240326 -0.00044253952 4.323076e-05 -0.00037337592 0.0020686227 0.00053217856 -0.0019215924
0.0010513655 0.0001295955 -0.0010042274 0.0005595347 0.0034883637 -0.0017977208 -0.00063671404 -0.0004597876
-0.0035957138 -0.001585798 -0.0025347087 -0.0041405736 0.001286064 -0.0020445052 0.003944114 0.004229818
-0.0026336194 -0.0016953809 -0.0041839066 0.0015389695 0.00070601515 -0.0003113985 0.00026001583 -0.0026806442
0.0010477483 0.00096649036 -0.0011704118 -0.0008979581 -0.00019304304 -0.00021934137 -0.0008018096 -0.00089512096
0.0005420818 0.00019594807 0.00093253714 0.0011807916 -0.00082724076 -0.0028871228 0.00026997738 0.00079056405
0.0009831222 0.00024246458 0.0003727913 -0.0019829029 -0.009576846 -0.011396173 0.0060812505 0.004599707
0.0032348947 0.0014352642 0.006188871 0.007876868 -0.004665161 0.0012354617 -0.008504383 -0.012032214
0.0060025277 0.016153866 -0.0022313192 -0.004266736 -0.011321984 -0.002070444 -0.0010415805 0.013086326
0.002894799 0.0012520477 -0.0046558497 -0.0032489642 0.0003871262 -0.00267823 -0.0033851566 -0.0016649051
0.0015449846 -0.0012930741 0.0026057863 0.0028880197 -0.005323056 -0.011455179 -6.764916e-05 0.0021444245
0.0018840791 0.00088675227 0.0016353466 -0.00830156 0.0013975429 0.0021226343 -0.00039936608 -0.00029320875
-4.692617e-05 0.0002747267 -0.00052447675 -0.0005213191 0.00065510726 -0.00013825441 0.0012296002 0.00171437
0.0004157901 -0.00079101406 0.0010550504 0.00027327504 0.0015376098 0.00020596509 0.00018980779 0.00024186821
-0.00088228786 0.00017687019 -0.0003455325 -2.7578264e-05 0.0017382167 -0.00032432523 0.0030309143 0.0037371065
-0.00047895007 -8.555503e-05 -0.00081501127 -0.0009338446 -0.0012678772 -0.001120973 0.00079031585 -0.00076186936
-0.00030891833 0.00047558092 -0.00051712594 -0.0025587766 0.0017258142 0.0008570766 -0.0017936549 -0.001250041
-0.00080684706 0.0016369033 -0.00173202 -0.001692161 0.00074194313 0.002906515 0.0019332109 0.0017120757
0.002052847 -0.0046345806 0.0004502299 0.0035056241 0.0007756777 5.2273088e-05 0.0016964589 -0.0004712754
-1.1441482e-05 6.666891e-05 -0.00031873368 -0.00016916117 0.00014064545 0.00074258936 0.0010121079 -8.633814e-05
-2.7140045e-06 0.001322348 8.884598e-06 -3.030924e-05 0.0006276394 -0.00080584985 0.0002542773 0.00029022698
1.5112717e-05 8.012217e-05 0.0001390986 -0.00068097457 -0.005831101 -0.0020033875 0.0057858895 0.0046585
0.0029992976 -0.004635892 0.006737219 0.008523603 -0.002811374 -0.008372837 -0.006142436 -0.00622845
-0.00501653 0.012972259 -0.00017512655 -0.009134086 -0.0026178886 1.7943132e-05 -0.0040999837 0.001971613
-0.001093471 -0.0008618476 2.8169683e-05 3.399739e-05 0.0014180193 -6.82397e-05 0.0019114331 0.0029200315
-0.0006825563 -0.00019134856 -0.0007236374 -0.0012556126 -0.00016642093 4.232297e-05 0.0002851678 -0.00026078935
00000000: 7320 72ba d9d8 efb7 0b99 4139 1226 6339
00000010: b085 cb3a 01ba 4fba f4e5 023b 3e61 3d3b
00000020: 7d63 acb9 e952 85ba bf04 95ba 3be4 6eba
00000030: 1ce5 baba 3a66 0039 3910 4a3a 4b6d 08bb
00000040: 855f 49b9 7c3c a239 3539 63ba 2b30 c1ba
00000050: da33 d3ba 1de1 2f3c 22d3 2b3a 8584 cf39
00000060: 20c7 c63a 19ca 2d3a f0fa a4b9 3691 83ba
00000070: f74f 94b9 cecb c0ba 34ec 48bb 8418 92ba
00000080: 4ea9 c039 b84a ed3a 2c48 dd3b a077 d2bb
00000090: c7c4 b13b 9e59 a83a eeda 5ebb 13fc 083b
000000a0: 9b55 f1b8 4fec a03a 06ab a73a 939b 903a
000000b0: d1f3 f7b8 df1a 39ba 8f86 2f3a a343 af3a
000000c0: c5dc 4038 eff8 e1ba a604 e8b9 ad52 3538
000000d0: abc1 c3b9 bb91 073b e681 0b3a f1dd fbba
000000e0: f9cd 893a 07e4 0739 48a0 83ba bdad 123a
000000f0: 089d 643b 80a1 ebba 28e9 26ba a60f f1b9
00000100: 11a6 6bbb 8dda cfba 5b1d 26bb a6ad 87bb
00000110: 2691 a83a 1bfd 05bb a03d 813b 499a 8a3b
00000120: cd98 2cbb 8b37 deba 2719 89bb 3fb7 c93a
00000130: e013 393a 3343 a3b9 bc52 8839 bfad 2fbb
00000140: 9954 893a 125c 7d3a 8168 99ba f364 6bba
00000150: 996b 4ab9 00ff 65b9 8830 52ba 8da6 6aba
00000160: 7e1a 0e3a 6977 4d39 8275 743a cbc4 9a3a
00000170: 30db 58ba e235 3dbb c08b 8d39 db3d 4f3a
00000180: 1bdc 803a 173e 7e39 3473 c339 97f3 01bb
00000190: 34e8 1cbc 04b7 3abc 3a45 c73b 24b9 963b
000001a0: 8700 543b 7a1f bc3a 03cc ca3b fb0d 013c
000001b0: 35de 98bb 37ef a13a f855 0bbc c322 45bc
000001c0: dab0 c43b 1d55 843c 533b 12bb facf 8bbb
000001d0: d87f 39bc 49b0 07bb a485 88ba 0868 563c
000001e0: abb6 3d3b c01b a43a 1990 98bb 93ec 54bb
000001f0: 33f7 ca39 3e85 2fbb 81d9 5dbb f238 daba
00000200: 1581 ca3a 5e7c a9ba d7c5 2a3b ee44 3d3b
00000210: 086d aebb 81ae 3bbc dede 8db8 7989 0c3b
00000220: 34f3 f63a f074 683a 2059 d63a 4403 08bc
00000230: c22d b73a e51b 0b3b 0262 d1b9 d0b9 99b9
00000240: 97d2 44b8 3209 9039 0a7d 09ba 22a9 08ba
00000250: 81bb 2b3a 63f8 10b9 892a a13a b6b4 e03a
00000260: 67fe d939 0e5c 4fba 9e49 8a3a 5b46 8f39
00000270: a089 c93a 55f8 5739 2407 4739 019e 7d39
00000280: 5649 67ba 3b76 3939 9628 b5b9 df57 e7b7
00000290: e0d4 e33a 320a aab9 4ea2 463b 3eea 743b
000002a0: 971b fbb9 026c b3b8 7ba6 55ba 40cd 74ba
000002b0: e62e a6ba 9ded 92ba 332d 4f3a 30b8 47ba
000002c0: 51f6 a1b9 6457 f939 bc8f 07ba 26b1 27bb
000002d0: b734 e23a 70ad 603a 1219 ebba 6ad8 a3ba
000002e0: 9782 53ba 5c8d d63a f304 e3ba 80cb ddba
000002f0: f67e 423a 3b7b 3e3b cb63 fd3a ba67 e03a
00000300: 0f89 063b aedd 97bb d60c ec39 9dbe 653b
00000310: d956 4b3a cd3f 5b38 b75b de3a 8315 f7b9
00000320: caf4 3fb7 99d0 8b38 b61b a7b9 db60 31b9
00000330: 3a7a 1339 54aa 423a b5a8 843a 7010 b5b8
00000340: 3e22 36b6 a352 ad3a 0f0f 1537 9940 feb7
00000350: 2b88 243a ab3f 53ba 8650 8539 9b29 9839
00000360: a08c 7d37 4307 a838 ffda 1139 6e83 32ba
00000370: d212 bfbb 444b 03bb 8f97 bd3b 55a6 983b
00000380: dd8f 443b aee8 97bb e4c3 dc3b 95a6 0b3c
00000390: 073f 38bb 392e 09bc 7d46 c9bb 0718 ccbb
000003a0: b461 a4bb 9989 543c 2da2 37b9 22a7 15bc
000003b0: e290 2bbb 9584 9637 2859 86bb 2d36 013b
000003c0: cc52 8fba 9ded 61ba ef4d ec37 6b98 0e38
000003d0: d5dc b93a e91b 8fb8 0d89 fa3a 005e 3f3b
000003e0: 94ed 32ba bda4 48b9 7cb2 3dba 5e93 a4ba
000003f0: 4781 2eb9 f183 3138 9382 9539 8eba 88b9

exp_avg_sq f4 [20, 20]
6.901924e-05 0.00047141104 5.4988914e-06 3.8779967e-06 3.521165e-05 3.4601765e-06 8.131605e-05 0.00014538139
2.4752077e-05 1.2310408e-05 2.8493621e-05 0.00012383766 1.2989425e-05 3.461302e-05 0.000117489566 4.641944e-05
0.00027280784 8.8022225e-06 9.752338e-06 1.6585354e-05 0.00014588308 0.007767245 0.00014817846 7.792493e-05
0.00061850745 8.317639e-05 0.0004186843 0.0010054217 0.00010188096 0.0011492192 0.00010775893 0.00036648067
0.00047922076 0.00097601453 0.0025702189 0.002253525 0.0027923146 0.00017475405 0.000715366 0.00045880137
2.660043e-05 1.42342315e-05 1.41357805e-05 8.478531e-06 5.1221476e-05 6.716257e-05 0.00014626926 0.00023472332
5.096056e-06 0.00011165789 3.3875483e-05 2.7205098e-05 0.00021286927 4.597146e-05 3.052289e-06 0.00015368534
1.1210189e-05 1.1158648e-06 3.1781092e-05 0.00011479169 7.061588e-05 0.00082000816 0.00014965377 8.2685656e-05
0.00018914824 0.0002617716 0.00017968907 0.00034161162 3.1810137e-05 0.0010720864 8.9453126e-05 0.00017139043
0.00079647085 0.0006576133 0.0003258876 0.0017317381 0.0005199292 2.1394755e-05 0.000566516 0.00027035607
1.0970691e-05 2.5298219e-05 1.21662915e-05 6.3748053e-06 1.466988e-06 4.769676e-07 1.8837653e-05 1.5096128e-05
3.2607677e-06 2.0634034e-06 8.063963e-06 1.5028149e-05 3.9926063e-06 7.5302334e-05 7.2693188e-06 5.2670807e-06
1.8199811e-05 1.0899354e-06 1.003371e-06 2.4283276e-05 0.0016205679 0.0030925032 0.0011117565 0.00060735265
0.0005145757 0.00022481162 0.002917674 0.003103122 0.0004266346 0.0002764307 0.0011850521 0.0024867903
0.0011874989 0.006919106 0.0002255699 0.00027176412 0.002777138 0.00011409883 5.3494336e-05 0.0030876312
2.9608713e-05 7.043385e-05 7.634557e-05 3.6136847e-05 1.6688662e-05 3.871589e-05 4.7816193e-05 5.3621465e-05
1.0311788e-05 3.087575e-05 2.707253e-05 3.7598813e-05 0.00015250298 0.00048054638 3.8664795e-05 5.277357e-05
3.378001e-05 5.4803236e-06 1.3358699e-05 0.00031568515 3.3009073e-05 0.00027036734 4.6895684e-06 2.5548436e-06
3.6324107e-06 2.0446578e-05 2.0581087e-05 2.8195278e-05 1.4536091e-05 7.903302e-05 1.16067e-05 5.984914e-05
6.9842994e-05 2.1836991e-05 6.735568e-05 9.1118614e-05 0.00015316623 7.1347836e-06 3.229569e-05 3.834051e-05
0.00028136853 0.00094193453 0.00017691654 9.239813e-05 0.00025357655 6.956044e-05 0.00033685024 0.0006520727
8.2735576e-05 6.782746e-05 0.00017204935 0.00044362756 0.00034574023 0.0012155676 0.00022610986 3.9618004e-05
0.0006509143 4.5057666e-05 1.1955127e-05 0.000754834 2.5752233e-05 1.8684475e-05 2.7763468e-05 1.5871798e-05
1.3670114e-05 1.9905012e-05 9.9939825e-05 0.000104649785 5.5966625e-06 4.5818702e-05 2.7864691e-05 2.828933e-05
3.4289133e-05 0.00012839581 3.4473765e-06 8.173677e-05 1.507507e-05 1.6284265e-07 1.7226053e-05 8.477442e-06
9.200495e-06 1.8202958e-05 4.1239045e-06 2.5914346e-06 1.9411575e-05 2.285909e-05 4.190317e-05 0.00011062399
2.3928903e-06 3.4579898e-05 7.4001096e-06 1.237009e-05 5.3594358e-05 1.2045857e-05 4.9574505e-06 1.1770171e-05
1.3905941e-05 5.98652e-07 1.5558919e-06 4.3429474e-05 0.00047298844 0.00021813059 0.00047521334 0.0002487345
0.00037156037 0.00040155326 0.0017754679 0.0021596856 0.00010196135 0.0011345225 0.0005492203 0.00047627304
0.00093141466 0.002127707 6.129696e-05 0.002051586 0.00016646918 1.8754905e-06 0.00044872658 0.00025883998
3.0457386e-05 3.0249224e-05 5.1031034e-06 2.618129e-06 5.4906886e-05 2.5966986e-06 7.009034e-05 0.00018861447
8.766008e-06 2.177755e-06 1.9150228e-05 4.7640064e-05 1.114491e-05 3.460654e-05 4.861972e-06 5.681797e-06
00000000: 6cbe 9038 b827 f739 1e83 b836 bd1f 8236
00000010: 39b0 1338 6135 6836 3988 aa38 8571 1839
00000020: aea2 cf37 cd88 4e37 9605 ef37 6bda 0139
00000030: 28ed 5937 722d 1138 bb64 f638 7fb2 4238
00000040: a607 8f39 42ad 1337 f99d 2337 c720 8b37
00000050: 31f8 1839 6084 fe3b 5a60 1b39 a16b a338
00000060: 5523 223a fc6e ae38 db82 db39 5bc8 833a
00000070: eda8 d538 66a1 963a a3fc e138 3424 c039
00000080: ec3f fb39 3adb 7f3a 1e71 283b e0af 133b
00000090: 44ff 363b 2f3e 3739 6687 3b3a 478b f039
000000a0: fd23 df37 8fcf 6e37 b728 6d37 033f 0e37
000000b0: a4d6 5638 a1d9 8c38 db5f 1939 1020 7639
000000c0: cafe aa36 e029 ea38 8615 0e38 8136 e437
000000d0: a935 5f39 7bd1 4038 edd5 4c36 9826 2139
000000e0: 6513 3c37 d3c4 9535 b04c 0538 52bc f038
000000f0: 9d17 9438 d1f5 563a 61ec 1c39 8667 ad38
00000100: 1856 4639 643e 8939 eb6a 3c39 561a b339
00000110: e06b 0538 4085 8c3a c898 bb38 45b7 3339
00000120: 41ca 503a ae63 2c3a e5db aa39 7dfb e23a
00000130: dc4b 083a e378 b337 3f82 143a 94be 8d39
00000140: c20e 3837 8337 d437 d31d 4c37 29e7 d536
00000150: 53e5 c435 f708 0035 8d05 9e37 6045 7d37
00000160: 90d3 5a36 0079 0a36 754a 0737 6921 7c37
00000170: 3af8 8536 a2eb 9d38 f9ea f336 e1bb b036
00000180: ccab 9837 e549 9235 91ab 8635 f0b3 cb37
00000190: 3c69 d43a 98ab 4a3b 5cb8 913a bf36 1f3a
000001a0: 97e4 063a 69bb 6b39 7236 3f3b c05d 4b3b
000001b0: edad df39 e7ed 9039 c053 9b3a 6bf9 223b
000001c0: daa5 9b3a abb9 e23b f586 6c39 907b 8e39
000001d0: a500 363b 5848 ef38 1b5f 6038 db59 4a3b
000001e0: 3a60 f837 e3b5 9338 b71b a038 a591 1738
000001f0: a1fe 8b37 df62 2238 3f8e 4838 9ce7 6038
00000200: cb00 2d37 9680 0138 d119 e337 6bb3 1d38
00000210: 35e9 1f39 d8f1 fb39 022c 2238 3059 5d38
00000220: 02af 0d38 9fe3 b736 2d1f 6037 8b82 a539
00000230: 3973 0a38 17c0 8d39 165b 9d36 e173 2b36
00000240: 57c4 7336 b184 ab37 8ca5 ac37 e684 ec37
00000250: 09e0 7337 88be a538 66ba 4237 8606 7b38
00000260: ac78 9238 952e b737 4e41 8d38 ef16 bf38
00000270: 3f9b 2039 5367 ef36 3c75 0738 cfcf 2038
00000280: a584 9339 28ec 763a ac82 3939 dec5 c138
00000290: 78f2 8439 fae0 9138 469b b039 dcef 2a3a
000002a0: 5382 ad38 973e 8e38 2568 3439 af96 e839
000002b0: 7844 b539 ae53 9f3a e717 6d39 822b 2638
000002c0: 1fa2 2a3a 4dfc 3c38 e192 4837 0de0 453a
000002d0: 8006 d837 9bbc 9c37 98e5 e837 6d24 8537
000002e0: b158 6537 b0f9 a637 c996 d138 6d77 db38
000002f0: f7ca bb36 752d 4038 f8be e937 e04e ed37
00000300: add1 0f38 fda1 0639 7a59 6736 186a ab38
00000310: efea 7c37 d9d9 2e34 ab80 9037 563a 0e37
00000320: d35b 1a37 8eb2 9837 1260 8a36 82e8 2d36
00000330: 0ad6 a237 86c1 bf37 30c1 2f38 cdfe e738
00000340: 8b95 2036 e209 1138 754e f836 2289 4f37
00000350: 81ca 6038 9018 4a37 2d58 a636 8078 4537
00000360: 904d 6937 0db3 2035 0ad4 d035 0b28 3638
00000370: 6ffb f739 fcb9 6439 0e26 f939 9468 8239
00000380: fdcd c239 9187 d239 d1b6 e83a 8389 0d3b
00000390: 15d4 d538 42b4 943a 8df9 0f3a 49b4 f939
000003a0: 2e2a 743a 0071 0b3b 8e8c 8038 e773 063b
000003b0: 3b8e 2e39 5db9 fb35 1043 eb39 eab4 8739
000003c0: bd7e ff37 b7bf fd37 533b ab36 1db3 2f36
000003d0: d24b 6638 f142 2e36 77fd 9238 d0c6 4539
000003e0: b811 1337 8c25 1236 cda4 a037 21d1 4738
000003f0: 06fb 3a37 7d26 1138 0524 a336 44a6 be36

exp_avg f4 [20, 20]
0.0019956944 0.0021101998 0.0005773042 0.0023140789 0.0019183941 0.0017335161 -0.0026412255 -0.00042547594
-0.00011474836 0.0022757296 -0.0028350865 -0.0021861037 -0.00057304685 0.00015114127 0.0009360387 -0.0033352808
-5.233014e-05 -0.0006727828 -0.00079976214 0.0015741417 0.006382355 0.0025647709 0.0005795925 0.006494116
0.0047305087 0.00475634 -0.005656713 -0.0014433367 -0.0014835714 0.0043326695 -0.00491703 -0.00029243165
-0.0031112183 -0.00035759842 0.0010216372 -0.008102506 -0.002776586 0.00038642122 -0.0008071298 0.0026065656
-7.34857e-05 -9.851908e-05 -3.0922023e-05 -0.00012003822 -1.9954361e-05 -1.9852356e-05 -0.000121046236 -3.246065e-05
1.380095e-05 -5.136897e-05 -0.000102284495 0.00018258556 3.1932086e-05 -1.5721847e-05 -0.00016875341 -0.00018105042
-0.00016041944 7.928742e-05 9.7938944e-05 -2.9040824e-05 0.0006792461 -0.0008892547 0.00031757174 0.00054089923
0.0010868387 0.00084954815 -0.00018892712 -2.1953021e-05 -0.000120830184 -0.00015607802 -0.0002442537 -0.00040365112
-0.0010291963 -0.0002746746 -0.0004724021 -0.00046811608 0.00014305013 -0.00014299256 -0.0003781207 -7.4912605e-05
-5.3834105e-05 0.0011737247 -0.00023006297 4.4440334e-05 -0.000886105 -0.00045121292 9.8920755e-05 4.861031e-05
1.9610583e-05 0.00041956 0.00011649521 0.00021057433 0.0008931879 0.0002690882 0.0008325204 0.00033527633
3.891502e-05 6.124056e-05 -4.1969295e-05 0.00020366884 -0.00015655933 -0.00023415037 -0.00017517852 -6.81944e-05
-0.00030036448 -0.00024850605 0.00015155223 2.980541e-05 5.530606e-05 -0.00014458093 0.00014751854 0.00023900231
0.00036026552 -3.383404e-05 7.791436e-05 0.00016207491 0.00011622173 -3.692095e-05 0.00020258786 -9.5837415e-05
0.00012947254 -0.00019761288 0.00020427862 0.00015292411 0.00046303816 0.00025240844 -0.00021248507 -5.5515906e-05
-1.2581121e-05 1.0203936e-05 -0.00025870977 -0.00024845442 -0.00041496768 -2.2158683e-05 -0.00014878751 -0.00032939189
-5.9099293e-05 -0.00012017055 -0.00010159537 1.7927852e-05 0.0005633425 -0.00045001757 0.00024653424 0.00076181494
0.0012297267 0.0008050277 -0.00012780991 -8.6779204e-05 -0.00021479052 0.00022689979 -0.0001606334 -0.00025680356
-0.0010060213 -0.0001933786 -0.00027745476 -0.00038519173 -0.00037170103 -0.00014195575 -0.00029524273 0.0001306458
-0.00065836724 -0.000967205 -0.0005252457 -0.0010839702 -0.0025003336 -0.0009766114 0.0012145529 0.00026699627
0.0003027024 -0.0006953738 0.0012974432 0.0015451009 0.0016371708 5.7622492e-05 -3.0392143e-06 0.0013548547
0.00043626328 0.00048919563 0.0009589915 -0.0006184187 0.00026432367 -0.00021939477 0.00011254173 0.00019667612
0.00045418914 0.00020409135 -0.0007707201 -0.00017140683 7.08312e-05 -9.806367e-05 -0.0007285172 -0.0005130111
-0.00033850365 -5.7020174e-05 -8.535065e-05 -0.0007181575 7.453782e-05 -0.00025975564 -0.0003452468 -1.6006572e-05
0.00012765225 0.0011909123 -2.2373923e-05 0.00043092057 -0.0002950953 -0.00017060473 -0.0007325645 -0.00012744192
9.547919e-06 0.0006320423 -0.00065055786 0.00022720682 0.00045169488 0.00024903737 0.0008048375 -0.00049134187
-0.0004670917 -5.087644e-05 -6.20794e-05 0.0003639834 -0.0070330566 -0.007937761 -0.0016211665 -0.0082900375
-0.0047753253 -0.0051428815 0.0078008594 0.0013456629 0.0005924009 -0.007704537 0.008464977 0.006804329
0.004119412 -0.00079773105 -0.0041254167 0.009940493 0.001500191 0.001974706 0.0032525663 -0.0048783687
0.0011510673 0.0030118462 -0.000228116 0.0016982167 -0.0001366023 6.5261636e-05 -0.00014206472 -6.16512e-05
-0.00034581506 0.0017606573 -0.00014373667 4.5225257e-05 0.0011713573 0.00051076367 0.0022615674 0.00041122793
00000000: 32ca 023b 474b 0a3b 3b56 173a cda7 173b
00000010: a072 fb3a 2637 e33a 6918 2dbb 6a12 dfb9
00000020: 0fa5 f0b8 6824 153b dccc 39bb bc44 0fbb
00000030: 8638 16ba ad7b 1e39 7e60 753a ba94 5abb
00000040: 0f7d 5bb8 b05d 30ba 21a7 51ba 6e53 ce3a
00000050: 1323 d13b b715 283b cbef 173a 98cc d43b
00000060: 6202 9b3b 12db 9b3b f35b b9bb 582e bdba
00000070: 6574 c2ba 11f9 8d3b 0a1f a1bb 8351 99b9
00000080: 95e5 4bbb 0c7c bbb9 75e8 853a 60c0 04bc
00000090: 62f7 35bb 9498 ca39 9095 53ba ead2 2a3b
000000a0: 561c 9ab8 079c ceb8 45b2 01b8 07bd fbb8
000000b0: aa63 a7b7 9c88 a6b7 34da fdb8 5c26 08b8
000000c0: a18a 6737 0375 57b8 9281 d6b8 7074 3f39
000000d0: d1ee 0538 69e2 83b7 66f3 30b9 5ad8 3db9
000000e0: 4436 28b9 1c47 a638 9264 cd38 b29c f3b7
000000f0: 6f0f 323a df1c 69ba c27f a639 22cb 0d3a
00000100: 4174 8e3a 36b4 5e3a bd1a 46b9 c127 b8b7
00000110: 3666 fdb8 e0a8 23b9 2d0f 80b9 23a1 d3b9
00000120: 19e6 86ba 3302 90b9 bdac f7b9 7a6d f5b9
00000130: baff 1539 46f0 15b9 803e c6b9 661a 9db8
00000140: eecb 61b8 aad7 993a 0f3d 71b9 7265 3a38
00000150: 8049 68ba c690 ecb9 ad73 cf38 ece2 4b38
00000160: 6881 a437 64f8 db39 e44e f438 9ecd 5c39
00000170: d324 6a3a 6814 8d39 803d 5a3a 07c8 af39
00000180: af38 2338 466e 8038 3008 30b8 f08f 5539
00000190: 132a 24b9 4386 75b9 20b0 37b9 9703 8fb8
000001a0: 3d7a 9db9 eb49 82b9 fee9 1e39 a106 fa37
000001b0: 6ef8 6738 a69a 17b9 35af 1a39 b29c 7a39
000001c0: 05e2 bc39 06e9 0db8 f465 a338 a7f2 2939
000001d0: 11bc f338 91db 1ab8 c46d 5439 52fc c8b8
000001e0: 05c3 0739 4e36 4fb9 a033 5639 415a 2039
000001f0: eec3 f239 b055 8439 87ce 5eb9 c0d9 68b8
00000200: 8113 53b7 9231 2b37 70a3 87b9 fd42 82b9
00000210: 0590 d9b9 69e1 b9b7 d803 1cb9 3bb2 acb9
00000220: 62e1 77b8 1304 fcb8 990f d5b8 c563 9637
00000230: 46ad 133a 56f0 ebb9 4441 8139 89b4 473a
00000240: c82e a13a 7f08 533a b604 06b9 3bfd b5b8
00000250: 6439 61b9 f3eb 6d39 b36f 28b9 97a3 86b9
00000260: 79dc 83ba acc5 4ab9 5977 91b9 8ff3 c9b9
00000270: dee0 c2b9 f5d9 14b9 cfca 9ab9 f7fd 0839
00000280: 4796 2cba 078c 7dba a4b0 09ba 0114 8eba
00000290: a3dc 23bb a401 80ba a231 9f3a a2fb 8b39
000002a0: 07b4 9e39 bf49 36ba f80e aa3a fc84 ca3a
000002b0: 5696 d63a aeaf 7138 4ef5 4bb6 6195 b13a
000002c0: 44ba e439 5d3d 003a d564 7b3a 601d 22ba
000002d0: ec94 8a39 560d 66b9 6204 ec38 d83a 4e39
000002e0: 3c20 ee39 5b01 5639 260a 4aba acbb 33b9
000002f0: 368b 9438 88a7 cdb8 f6f9 3eba 987b 06ba
00000300: 3179 b1b9 f228 6fb8 48fe b2b8 bc42 3cba
00000310: 3051 9c38 d02f 88b9 3e02 b5b9 da45 86b7
00000320: 64da 0539 6318 9c3a a2af bbb7 2eed e139
00000330: 05b7 9ab9 5ce4 32b9 9209 40ba eea1 05b9
00000340: 0030 2037 a4af 253a 338a 2aba 5e3e 6e39
00000350: 76d1 ec39 3b91 8239 bbfb 523a 65cd 00ba
00000360: fde3 f4b9 2964 55b8 a030 82b8 06d5 be39
00000370: 8e75 e6bb 620d 02bc 527d d4ba f0d2 07bc
00000380: 557a 9cbb 9e85 a8bb 5a9e ff3b f460 b03a
00000390: 5a4b 1b3a 5776 fcbb b0b0 0a3c d9f6 de3b
000003a0: 22fc 863b d31e 51ba 812e 87bb 73dd 223c
000003b0: 0fa2 c43a 126a 013b 0229 553b b9da 9fbb
000003c0: 69df 963a 6562 453b 6c32 6fb9 b296 de3a
000003d0: e73c 0fb9 13dd 8838 35f7 14b9 bc4a 81b8
000003e0: 834e b5b9 dbc5 e63a 05b8 16b9 40b0 3d38
000003f0: 3b88 993a c5e4 053a ce36 143b 149a d739

exp_avg_sq f4 [20, 20]
5.1461753e-05 0.00010639123 2.0320538e-05 6.3882464e-05 7.531929e-05 3.922016e-05 8.220139e-05 2.4148665e-06
3.6965082e-06 5.4554905e-05 0.000102178594 3.9420196e-05 2.7821576e-05 2.2582806e-06 3.346306e-05 0.00013867395
7.0100396e-06 4.1942913e-06 2.0311712e-05 2.5906906e-05 0.000846735 0.000787861 0.00021511887 0.0009957422
0.0023303288 0.0008672079 0.0012116423 5.4997938e-05 1.7202365e-05 0.00058688683 0.0013679282 0.0017525974
0.00058059307 1.8309422e-05 0.00024914637 0.0019040256 0.00016549615 9.130729e-05 0.00037463923 0.000347295
7.493101e-07 8.2393154e-07 4.5401148e-08 4.7123314e-07 1.0284498e-07 7.0412945e-08 1.2509048e-06 1.9441521e-07
2.0806365e-08 3.647113e-07 1.1524426e-06 1.8827918e-06 7.788869e-07 3.8371347e-08 6.2231953e-07 1.3642709e-06
8.3612593e-07 7.8482195e-08 4.1950457e-07 1.562912e-07 1.5031284e-06 7.867463e-06 1.4552005e-06 1.4041952e-06
1.2037682e-05 3.2833348e-06 6.3514335e-07 2.1927653e-08 1.408323e-07 9.918077e-07 6.987546e-07 7.813161e-07
1.0001792e-05 5.4874334e-07 2.251414e-06 1.2986848e-06 9.842507e-07 6.294179e-08 8.351997e-07 3.1195214e-07
2.937412e-06 5.7751868e-06 1.8631623e-06 3.3248457e-06 5.947412e-06 2.419149e-06 1.579303e-06 9.5821925e-08
6.431733e-07 2.203421e-06 1.6813924e-06 2.742153e-06 5.9394656e-06 2.1927684e-07 2.9833227e-06 2.8636036e-06
1.3792572e-06 1.9972539e-07 3.1769578e-06 8.4962227e-07 1.7482389e-06 1.4436944e-06 1.6836613e-06 1.0601495e-06
4.3519044e-06 1.6568207e-06 1.1010313e-05 5.295927e-07 7.341833e-07 5.609605e-07 1.2091166e-05 3.8814783e-06
5.756755e-06 5.6425616e-08 1.2794385e-06 1.7252076e-05 1.6440924e-06 2.1371615e-07 2.5582956e-06 1.9162798e-07
2.0346802e-06 2.7772294e-06 1.2327203e-06 1.8838285e-06 5.5205323e-06 2.0557493e-06 2.1244862e-06 3.273975e-08
1.5958892e-07 1.4043504e-06 2.730703e-06 5.7531743e-06 1.7792265e-06 8.334074e-08 7.5640315e-07 3.6207496e-06
5.5819396e-07 2.4040713e-07 1.1873651e-06 8.052759e-07 1.759725e-06 2.061295e-06 1.1632825e-06 2.8058985e-06
7.9101865e-06 2.1590224e-06 2.4241982e-07 3.0347135e-08 3.3323502e-07 7.9798406e-07 2.6221815e-07 6.1803195e-07
3.6059707e-06 1.3137243e-07 9.771544e-07 5.463731e-07 1.0628133e-06 9.554313e-08 9.660339e-07 3.0308144e-07
7.838606e-05 2.9212224e-05 1.2800721e-05 7.2363626e-05 0.00032122113 8.9930625e-05 0.00014287951 5.168302e-06
5.008581e-06 2.812372e-05 0.00016353445 9.717071e-05 9.18252e-05 7.0187565e-07 2.7261435e-06 0.00022079781
4.037432e-06 7.394689e-06 4.1409083e-05 2.4645733e-05 3.3674653e-05 1.5457417e-05 5.909513e-06 3.2735767e-05
5.1868898e-05 2.3355731e-05 8.77251e-05 3.3907058e-06 2.5376773e-06 1.0238085e-05 0.00011159323 4.151787e-05
4.990222e-05 6.7241166e-07 1.2494514e-05 0.00013610449 5.520174e-06 3.461609e-06 1.616137e-05 8.171388e-06
8.742694e-06 3.556605e-05 2.1348178e-06 9.438057e-06 4.759981e-06 4.3750942e-06 5.0623177e-05 1.2086302e-06
4.794779e-07 1.5178737e-05 5.2643543e-05 8.172514e-06 8.0165655e-06 1.1082217e-06 8.343746e-06 7.036691e-05
3.309396e-06 4.810827e-07 9.0200217e-07 7.3758392e-06 0.0003267564 0.00032400436 0.00016503166 0.00040383736
0.0009027867 0.00035528405 0.00054188416 1.6790515e-05 5.1757816e-06 0.0002500605 0.0006705262 0.0004051118
0.00010067058 6.9781145e-06 9.426023e-05 0.00089503743 3.0249232e-05 3.1768974e-05 9.469602e-05 0.00013964414
1.4459653e-05 3.761895e-05 5.84811e-06 1.7403192e-05 8.452817e-06 7.909189e-06 6.1689193e-06 5.496979e-07
2.3535572e-06 1.5310374e-05 6.3446905e-06 1.3712707e-05 1.9064308e-05 1.2474392e-06 1.92713e-05 1.0766532e-05
00000000: a3d8 5738 5b1e df38 0676 aa37 a3f8 8538
00000010: bcf4 9d38 5380 2438 8963 ac38 170f 2236
00000020: 8711 7836 e2d1 6438 b748 d638 1d57 2538
00000030: 6162 e937 f78c 1736 b05a 0c38 0169 1139
00000040: c837 eb36 b0bc 8c36 1263 aa37 a852 d937
00000050: 6df7 5d3a 7588 4e3a 8891 6139 9083 823a
00000060: 6eb8 183b 5655 633a f8cf 9e3a 96ad 6638
00000070: cc4d 9037 4fd9 193a 0e4c b33a 69b7 e53a
00000080: f132 183a 2f97 9937 dc9f 8239 7f90 f93a
00000090: 0989 2d39 3a7c bf38 3a6b c439 2515 b639
000000a0: 3324 4935 252c 5d35 17ff 4233 cafd fc34
000000b0: a0db dc33 ed35 9733 c3e4 a735 72c0 5034
000000c0: aeb9 b232 8acd c334 a0ad 9a35 3cb4 fc35
000000d0: b314 5135 becd 2433 790d 2735 fe1b b735
000000e0: 2372 6035 0b8a a833 4538 e134 ffd0 2734
000000f0: 19bf c935 7ffe 0337 4f50 c335 c877 bc35
00000100: 73f5 4937 4357 5c36 b87e 2a35 6b5b bc32
00000110: b037 1734 411e 8535 0d92 3b35 a2bb 5135
00000120: 5fcd 2737 5b4d 1335 ff16 1736 784e ae35
00000130: 991a 8435 9d2a 8733 7d32 6035 607a a734
00000140: 5b20 4536 7ac8 c136 c511 fa35 6a20 5f36
00000150: e18f c736 aa58 2236 70f8 d335 a9c6 cd33
00000160: 88a6 2c35 7cde 1336 34ac e135 d405 3836
00000170: 9f4b c736 5c72 6b34 1835 4836 562c 4036
00000180: eb1e b935 1974 5634 b833 5536 9911 6435
00000190: 08a5 ea35 f6c4 c135 29fa e135 764a 8e35
000001a0: 9306 9236 ed5f de35 efb8 3837 5529 0e35
000001b0: b114 4535 e994 1635 2adb 4a37 a53d 8236
000001c0: 262a c136 9f58 7233 2cb9 ab35 8db8 9037
000001d0: 96aa dc35 d979 6534 2faf 2b36 4cc2 4d34
000001e0: 8a8b 0836 7060 3a36 f273 a535 dbd7 fc35
000001f0: 033d b936 81f5 0936 6592 0e36 bc9d 0c33
00000200: 785b 2b34 1d7d bc35 1f41 3736 640b c136
00000210: c2cd ee35 0ef9 b233 a10b 4b35 01fc 7236
00000220: ccd6 1535 4e11 8134 8e5d 9f35 232a 5835
00000230: b12f ec35 c754 0a36 1522 9c35 f84c 3c36
00000240: feb5 0437 b9e3 1036 ed25 8234 0757 0233
00000250: 79e7 b234 0c35 5635 fdc6 8c34 d5e6 2535
00000260: 1bfe 7136 610f 0d34 c526 8335 79aa 1235
00000270: fda5 8e35 642d cd33 aca8 8135 32b7 a234
00000280: 3263 a438 c60c f537 aec2 5637 edc1 9738
00000290: 9269 a839 2399 bc38 edd1 1539 606b ad36
000002a0: 620f a836 3beb eb37 727a 2b39 21c8 cb38
000002b0: 4792 c038 8768 3c35 caf2 3636 f685 6739
000002c0: 4779 8736 e51f f836 aaae 2d38 4fbe ce37
000002d0: e23d 0d38 8daa 8137 554a c636 c34d 0938
000002e0: ce8d 5938 0dec c337 0ef9 b738 e28b 6336
000002f0: f74c 2a36 3ec4 2b37 2907 ea38 7923 2e38
00000300: 1a4e 5138 c77f 3435 879f 5137 45b7 0e39
00000310: ef39 b936 fd4d 6836 4792 8737 d817 0937
00000320: 96ad 1237 c12c 1538 e443 0f36 2558 1e37
00000330: edb7 9f36 c6cd 9236 3954 5438 3838 a235
00000340: 78b5 0035 2ea8 7e37 93cd 5c38 ae1c 0937
00000350: e37e 0637 35be 9435 1efc 0b37 f291 9338
00000360: fe16 5e36 c023 0135 1e21 7235 fa7d f736
00000370: 8050 ab39 21df a939 590c 2d39 22ba d339
00000380: fda8 6c3a 6b45 ba39 3b0d 0e3a 5bd9 8c37
00000390: a0ab ad36 8d1a 8339 40c6 2f3a 2f65 d439
000003a0: 1b1f d338 8c25 ea36 93ad c538 f2a0 6a3a
000003b0: bbbf fd37 ad3f 0538 8a97 c638 706d 1239
000003c0: bd97 7237 0ac9 1d38 e23a c436 12fd 9137
000003d0: 93d0 0d37 b5b1 0437 9dfe ce36 f48e 1335
000003e0: cef1 1d36 c76e 8037 7ae4 d436 a10f 6637
000003f0: 4aec 9f37 af6d a735 cda8 a137 e7a1 3437

exp_avg f4 [20]
0.00010742484 1.4121776e-05 -5.3783504e-05 -1.8898703e-05 7.2728835e-05 2.18262e-05 -4.882214e-05 -2.8533328e-05
7.386504e-05 9.124991e-06 -1.2135288e-05 0.00013327882 3.4161938e-05 -1.6082156e-05 0.00012969442 -3.022185e-05
-7.730957e-05 3.7183435e-07 6.072555e-05 -1.6844828e-05
00000000: 4649 e138 91ec 6c37 9995 61b8 a888 9eb7
00000010: ff85 9838 6817 b737 60c6 4cb8 db5a efb7
00000020: fee7 9a38 8a17 1937 aa98 4bb7 c3c0 0b39
00000030: 1a49 0f38 2be8 86b7 95fe 0739 ee84 fdb7
00000040: 4221 a2b8 86a0 c734 90b3 7e38 fe4d 8db7

exp_avg_sq f4 [20]
1.4950659e-07 1.760243e-07 9.575728e-08 1.3719999e-07 1.7707778e-07 2.1076504e-07 5.3083346e-07 3.4026485e-08
1.8039638e-07 2.1829543e-07 2.426273e-06 2.7109155e-07 2.0659554e-08 1.9632981e-08 2.1973241e-07 5.383311e-08
9.103081e-08 3.6678145e-09 1.7200044e-07 1.7765215e-07
00000000: 0f88 2034 3101 3d34 1fa3 cd33 3f51 1334
00000010: c522 3e34 a74e 6234 997e 0e35 8424 1233
00000020: fbb2 4134 9764 6a34 0ed3 2236 8a8a 9134
00000030: d776 b132 62a5 a832 96ef 6b34 2136 6733
00000040: b87c c333 e00c 7c31 1faf 3834 a7c0 3e34

exp_avg f4 [20]
0.005147253 -0.0032696465 -0.0045505497 -0.0032334554 0.0023416532 0.0010759521 -0.0022274195 0.0026259208
0.00085156085 -0.00031177353 -0.0009513852 -0.0016341091 -0.0037990499 0.005441165 0.002822461 0.0028355464
-0.0010664129 -0.00063677505 -0.0015922033 -0.003432423
00000000: 4aaa a83b 9147 56bb c71c 95bb 61e8 53bb
00000010: 6c76 193b f606 8d3a e6f9 11bb a417 2c3b
00000020: 483b 5f3a 8975 a3b9 6166 79ba 9a2f d6ba
00000030: 7bf9 78bb cd4b b23b 0af9 383b 93d4 393b
00000040: e1c6 8bba 40ed 26ba 7ab1 d0ba 81f2 60bb

exp_avg_sq f4 [20]
0.0005445528 0.00019776872 0.00017969088 8.2693776e-05 0.00012469215 0.00035051748 0.0003659301 0.00025052368
0.0009732029 0.00010393196 2.5549127e-05 6.6751425e-05 0.000116472205 0.00025574447 0.00017229444 0.00030944037
0.00032099042 0.0026355824 0.00010302634 0.00037226224
00000000: 52c0 0e3a 2360 4f39 676b 3c39 e26b ad38
00000010: cbbf 0239 a9c5 b739 4eda bf39 b858 8339
00000020: 8b1e 7f3a 0cf6 d938 5552 d637 e6fc 8b38
00000030: 8a42 f438 7115 8639 f0a9 3439 623c a239
00000040: 9b4a a839 bcb9 2c3b d80f d838 312c c339

exp_avg f4 [20]
-0.001603705 0.00049034384 0.00015557517 0.0021914032 0.00085559435 -0.0018413943 0.0032162883 -0.0033523429
0.00033208655 0.00014739826 0.0027212913 -0.0015392803 0.0003400673 -0.0038932154 0.0014706654 -0.0023441394
-0.0023565686 -0.0016434191 -0.0014968216 0.00010518589
00000000: 6933 d2ba 6b8a 003a e421 2339 a59d 0f3b
00000010: f749 603a f15a f1ba 5dc8 523b fbb2 5bbb
00000020: e71b ae39 eb8e 1a39 b157 323b adc1 c9ba
00000030: 0f4b b239 5125 7fbb 58c3 c03a 22a0 19bb
00000040: a970 1abb ff67 d7ba 0031 c4ba 3f97 dc38

exp_avg_sq f4 [20]
1.4666995e-05 2.0622687e-05 8.101182e-05 8.395393e-05 9.322915e-05 5.817944e-05 0.00010778256 0.0001789208
1.293561e-05 3.5989746e-05 0.00011191671 8.399451e-05 6.987618e-05 0.00015590069 7.578322e-05 7.180033e-05
3.268935e-05 7.622638e-05 8.1499464e-05 6.8250316e-05
00000000: 4412 7637 e2fe ac37 e4e4 a938 6c10 b038
00000010: 0584 c338 b305 7438 5209 e238 b09c 3b39
00000020: 0606 5937 b2f3 1638 d3b4 ea38 3626 b038
00000030: 7d8a 9238 4679 2339 ceed 9e38 8293 9638
00000040: ec1b 0938 badb 9f38 b1ea aa38 9c21 8f38

exp_avg f4 [20]
-0.00018228315 -0.002884391 -1.2496682e-05 -0.0013389797 0.00028965485 0.003619301 0.0010656188 0.005440211
-0.0012174408 -0.0050336253 -0.0061142277 0.0026187843 -0.0032311175 0.0040768874 -0.0016646488 0.0010623343
0.004356582 -0.000549427 0.0019260398 0.00041098677
00000000: 4323 3fb9 0d08 3dbb d7a8 51b7 b480 afba
00000010: d1dc 9739 cb31 6d3b 3cac 8b3a cc43 b23b
00000020: 8992 9fba 1cf1 a4bb dc59 c8bb e99f 2b3b
00000030: 28c1 53bb 6997 853b 5830 daba 063e 8b3a
00000040: a9c1 8e3b 6c07 10ba 2c73 fc3a b679 d739

exp_avg_sq f4 [20]
3.3531727e-05 0.00071393413 0.00011926013 0.00022261679 0.00017953986 0.0008386991 7.451232e-05 0.00032206913
0.00012261365 0.00011628773 0.00058554555 0.0003530139 0.00022297385 0.00016050717 0.00041800053 7.306281e-05
0.00021805044 9.2111106e-05 7.687576e-05 3.5403315e-05
00000000: 6ba4 0c38 4f27 3b3a 4b1b fa38 3d6e 6939
00000010: dd42 3c39 25dc 5b3a 7f43 9c38 63db a839
00000020: da91 0039 80df f338 4c7f 193a b914 b939
00000030: 16ce 6939 d14d 2839 1527 db39 4c39 9938
00000040: 78a4 6439 c62b c138 5c38 a138 057e 1438
