spatial_model_both_side_finetunes/model_best.pt (torch_old, 47612 bytes, 62 tensors)

fc1.weight f4 [20, 12]
0	0x3dd7229e	0.105046496
1	0xbea8b9ee	-0.32954353
2	0x3d2f4c51	0.04279739
3	0xbda4151c	-0.08011839
4	0x3e600823	0.21878104
5	0xbdebb116	-0.11508386
6	0x3e1be94e	0.15225717
7	0x3eb15909	0.3463824
8	0xbee700c5	-0.45117775
9	0x3dbe2a4f	0.092854135
10	0xbea453e2	-0.32095248
11	0xbe768115	-0.24072678
12	0xbe13bb8c	-0.14427012
13	0xbe8e6d42	-0.27817732
14	0xbce22478	-0.02760528
15	0xbeba2d7a	-0.3636282
16	0xbdb21c63	-0.086968206
17	0xbb826820	-0.003979698
18	0xbea02417	-0.31277534
19	0x3e73ae65	0.23796995
20	0x3ea8c0da	0.32959634
21	0xbeb562d8	-0.35426974
22	0x3e90554a	0.2819007
23	0x3eba0d49	0.3633826
24	0xbc75a270	-0.014992341
25	0xbe8592ab	-0.2608846
26	0x3d995f06	0.074888274
27	0xbde38364	-0.11109045
28	0x3ea626e0	0.32451534
29	0x3e94a260	0.29030132
30	0xbe647a6a	-0.22312322
31	0xbe63c789	-0.22244085
32	0x3e2fbe52	0.17162445
33	0xbe28bf32	-0.16479185
34	0xbe8884d0	-0.26663828
35	0x3eeac324	0.45852005
36	0x3e327cd0	0.17430425
37	0x3e70fad7	0.23533188
38	0x3d8e04cb	0.06934508
39	0x3df4c7ee	0.11952196
40	0x3d38e04d	0.045135785
41	0xbc87689c	-0.016529374
42	0x3e9a0969	0.30085304
43	0xbdd10b17	-0.10207193
44	0xbe965d87	-0.2936823
45	0xbed309ac	-0.41218317
46	0xbe8ccec9	-0.27501515
47	0x3e482c6f	0.195482
48	0xbda40ee2	-0.08010651
49	0xbe3011a8	-0.17194235
50	0x3e28d412	0.16487148
51	0x3ec961c2	0.39332396
52	0xbe3a7772	-0.18209627
53	0x3e84a209	0.25904873
54	0xbe0fd5e2	-0.14046434
55	0x3ec42bb4	0.38314593
56	0x3f141e24	0.5785849
57	0xbe35eba6	-0.17765674
58	0xbec919f7	-0.39277622
59	0xbeec3864	-0.46136773
60	0xbe7ccb1c	-0.24686855
61	0xbedc3fb5	-0.43017355
62	0x3e9c3ad9	0.30513647
63	0x3d299d2b	0.041409653
64	0xbe2e1ec5	-0.17003925
65	0xbf0d3043	-0.55151767
66	0x3d3db050	0.046310723
67	0x3e7dd981	0.24790002
68	0x3d5bb77e	0.05364179
69	0x3ef706f9	0.48247507
70	0x3cc1e6ca	0.02366962
71	0x3f107623	0.5643026
72	0x3e17fd34	0.14842683
73	0x3de79a4a	0.11308725
74	0xbe1e8ddf	-0.15483807
75	0xbe100177	-0.14063059
76	0xbe82117c	-0.25403965
77	0x3e6af308	0.22944272
78	0xbe74fb49	-0.23923983
79	0x3e3dbd78	0.18529308
80	0x3e50e4cd	0.2039978
81	0xbededb85	-0.43526855
82	0x3e07c84d	0.13260002
83	0xbee5ebae	-0.44906372
84	0xbdf9f549	-0.122049876
85	0xbdc96139	-0.09832997
86	0x3ba96385	0.0051693344
87	0xbea8c2e5	-0.32961193
88	0xbe0a8240	-0.13526249
89	0x3ee75434	0.4518143
90	0xbcce18ff	-0.025158403
91	0x3f0592fb	0.521774
92	0x3d951a45	0.07280401
93	0xbe39e7e4	-0.18154866
94	0x3c1ea6aa	0.0096832905
95	0xbf5fb254	-0.8738148
96	0x3d94953b	0.07255026
97	0x3db60348	0.088873446
98	0x3e076527	0.1322218
99	0x3d550bfd	0.052013386
100	0x3c951c14	0.018201865
101	0x3c54226b	0.012947659
102	0xbe613233	-0.21991806
103	0x3e98541b	0.29751667
104	0xbe47674b	-0.19472997
105	0xbe98fd57	-0.29880783
106	0x3e90ac29	0.28256348
107	0x3e0bfc0e	0.1367037
108	0x3e256aa2	0.16153958
109	0xbe12fd41	-0.14354421
110	0xbd5a0e5d	-0.053236354
111	0xbed44cf6	-0.41464967
112	0x3ba17f41	0.0049285
113	0xbb228ae7	-0.002480203
114	0x3e7a079d	0.24416967
115	0xbe10218c	-0.14075297
116	0x3e813480	0.25235367
117	0x3e1545fb	0.14577477
118	0xbf18ca89	-0.59684044
119	0x3dacd121	0.08438326
120	0x3e0780ba	0.13232699
121	0x3efb7a12	0.4911657
122	0x3e0cf152	0.13763931
123	0xbecfaa5d	-0.40559664
124	0x3d588ebc	0.052870497
125	0xbd80b763	-0.06284978
126	0x3dca58ac	0.09880194
127	0x3eb5a8f0	0.35480452
128	0xbe1fcaaa	-0.15604654
129	0x3eb98845	0.36236778
130	0x3e8e2218	0.27760386
131	0xbef86fad	-0.48522702
132	0x3ce253c3	0.027627831
133	0xbef565c1	-0.47929195
134	0xbdadd920	-0.08488679
135	0xbdc086f2	-0.09400739
136	0xbea9f829	-0.33197144
137	0xbe34b673	-0.17647724
138	0x3d2f0df4	0.042737916
139	0x3eba88f2	0.36432606
140	0xbdccb0b6	-0.099946424
141	0x3e6ac29f	0.22925805
142	0x3ee1d1bb	0.44105324
143	0x3e16e6d2	0.14736488
144	0xbe2bb5c0	-0.16768551
145	0x3e0cb3be	0.13740441
146	0x3e604b4a	0.2190372
147	0x3eab35ce	0.33439487
148	0xbdf30165	-0.118655
149	0xbf4c1cf7	-0.79731697
150	0x3e71b61b	0.23604624
151	0xbeedc446	-0.46438807
152	0xbe95aeb7	-0.2923486
153	0x3f12966d	0.5726078
154	0xbd13bf00	-0.036070824
155	0x3edf49c2	0.4361096
156	0xbc5338f4	-0.012891997
157	0xbc64de8a	-0.013969073
158	0x3d94b427	0.07260924
159	0x3e693a88	0.22776234
160	0x3e9433b6	0.28945702
161	0x3d6ff0a9	0.05857912
162	0x3e6ddb1c	0.23228115
163	0xbb8de8be	-0.0043307235
164	0xbe7d8194	-0.24756461
165	0x3e93f88b	0.2890056
166	0xbe875dee	-0.2643885
167	0xbc40c72d	-0.011766237
168	0xbd2f8532	-0.042851634
169	0xbd577bd0	-0.05260831
170	0xbdaf8afe	-0.085714325
171	0x3c896499	0.016771602
172	0xbec182be	-0.3779506
173	0xbf0d231b	-0.5513169
174	0x3e54693b	0.20743267
175	0x3e96fcd5	0.2948977
176	0xbe1fa00b	-0.15588395
177	0xbe8c231c	-0.27370536
178	0x3e9ecc08	0.31015038
179	0x3ec1eea0	0.3787737
180	0xbe863798	-0.2621429
181	0x3d3f3eeb	0.046690863
182	0x3e948177	0.29005024
183	0x3eac2961	0.3362532
184	0x3df60f76	0.12014668
185	0xbe45e4b0	-0.19325519
186	0x3d8801f6	0.06640999
187	0xbc51f44d	-0.0128145935
188	0xbdc8bcd6	-0.098016426
189	0x3d85b691	0.065289624
190	0xbe0ac4f4	-0.13551694
191	0xbf27e957	-0.65590423
192	0xbe366f38	-0.17815864
193	0xbeabc6b1	-0.33550027
194	0x3e1f97fc	0.15585321
195	0xbf11a1cf	-0.56887525
196	0x3e4abcd5	0.19798596
197	0x3e6ba1b9	0.23010911
198	0xbd727cfb	-0.059201222
199	0x3eb6548f	0.35611388
200	0xbe85ad2e	-0.26108688
201	0xbde2bc06	-0.11071019
202	0xbc1f60a7	-0.009727634
203	0x3eed86b5	0.46391836
204	0x3e29ce04	0.16582495
205	0x3e86ebd7	0.26351807
206	0xbdbc4892	-0.09193529
207	0x3efd06da	0.4941929
208	0x3de37ac8	0.11107403
209	0xbebacfda	-0.36486703
210	0x3d60821b	0.05481158
211	0x3c1a5509	0.009419688
212	0xbc275f77	-0.010215632
213	0xbeb29a2f	-0.34883258
214	0xbe57232f	-0.21009515
215	0xbe5abf88	-0.21362126
216	0x3cf5b386	0.02999283
217	0xbd7c853d	-0.061650503
218	0xbd4cbace	-0.04998284
219	0xbe419c84	-0.18907362
220	0xbe4930fc	-0.19647592
221	0x3d904764	0.07044867
222	0xbd0d7f6c	-0.034545347
223	0xbf01f3d0	-0.50762653
224	0xbe33b007	-0.17547618
225	0xbc855f2c	-0.016280733
226	0x3ea1584b	0.31512675
227	0x3f287862	0.6580869
228	0x3c9bb3bf	0.019006608
229	0xbd56da12	-0.05245406
230	0x3e35b691	0.17745425
231	0xbe9b6df9	-0.3035734
232	0x3e262536	0.16225132
233	0xbc9598e7	-0.018261386
234	0xbe4c0713	-0.19924574
235	0xbe8e8609	-0.27836636
236	0xbe112fb7	-0.14178358
237	0x3d15d550	0.036580384
238	0x3ebe45a0	0.37162495
239	0x3eebbd8d	0.46043053

fc1.bias f4 [20]
0	0xbd8b8c04	-0.06813815
1	0x3d9f120a	0.077671126
2	0xbdaf8e83	-0.08572104
3	0xbc53c137	-0.012924484
4	0xbe7bf4d9	-0.2460512
5	0x3aa49664	0.0012557027
6	0x3e1ac990	0.15115952
7	0x3db2fe67	0.0873993
8	0x3e756ea1	0.23967983
9	0x3d0c195f	0.034203883
10	0xbe8a5010	-0.27014208
11	0xbe6c54c0	-0.23079205
12	0x3e408c0e	0.18803427
13	0xbdcbf861	-0.09959484
14	0x3e5198fc	0.20468515
15	0x3d769fbe	0.060210936
16	0xbd7eab8d	-0.062175322
17	0xbd41ffe9	-0.047363196
18	0xbe60454f	-0.21901439
19	0xbe818b81	-0.25301746

fc2.weight f4 [20, 20]
0	0xbeccaccd	-0.39975587
1	0x3efaa344	0.48952687
2	0x3e9fa115	0.31177583
3	0xbd243c4c	-0.040096566
4	0xbd771807	-0.06032565
5	0x3eb095a0	0.34489155
6	0xbd8d8753	-0.06910577
7	0xbe4e9bad	-0.20176573
8	0xbed21bcd	-0.41036835
9	0x3de197d5	0.11015288
10	0xbf1563e3	-0.5835554
11	0x3cc60a95	0.024174968
12	0xbc14d933	-0.009084987
13	0x3efcbd7c	0.49363315
14	0xbe3b1995	-0.18271478
15	0x3e00df8f	0.12585281
16	0x3e5942bb	0.21216862
17	0xbe13faeb	-0.14451186
18	0xbe67ba75	-0.22629721
19	0x3eaf1cbf	0.3420162
20	0x3db390c7	0.087678485
21	0xbdf514fa	-0.119668916
22	0x3ced55b1	0.028971525
23	0xbb8ceb9c	-0.0043005478
24	0x3eae9d90	0.34104586
25	0x3e0866dc	0.13320488
26	0x3f28c2dc	0.6592233
27	0x3e7fdf7c	0.24987596
28	0x3f4c54d2	0.79816926
29	0xbe9ee2c8	-0.31032395
30	0x3f1418e4	0.5785048
31	0x3ebbdbe3	0.36691198
32	0xbd1a6dbe	-0.037702315
33	0xbe0f4a86	-0.13993272
34	0x3e7ab436	0.24482808
35	0x3cf0d072	0.02939627
36	0x3d9288af	0.071549766
37	0xbe867894	-0.2626387
38	0xbe5bf5a2	-0.2148042
39	0x3e14b86c	0.14523476
40	0xbf03574b	-0.51305073
41	0xbe89b688	-0.26897073
42	0xbe78fcfd	-0.24315257
43	0xbe46af79	-0.19402875
44	0x3e54ac21	0.20768787
45	0xbec0a182	-0.3762322
46	0x3e909b87	0.28243658
47	0xbe29fbbc	-0.16599935
48	0x3f05919e	0.5217532
49	0x3d94deaf	0.07269036
50	0xbcae70f1	-0.021294089
51	0x3e1241c0	0.14282894
52	0xbe052927	-0.1300398
53	0xbec628c6	-0.38702983
54	0xbef5a6f4	-0.47978938
55	0xbe2be2d7	-0.16785751
56	0xbda2f854	-0.07957521
57	0xbeeb788e	-0.45990413
58	0x3ec24ffc	0.37951648
59	0xbeb76feb	-0.35827574
60	0xbd91613e	-0.070986256
61	0xbe481b7b	-0.19541733
62	0xbebadb88	-0.36495614
63	0xbe01b6c5	-0.12667377
64	0xbdb47ee9	-0.08813269
65	0xbf219cd6	-0.6312994
66	0xbf10e979	-0.5660625
67	0xbf139164	-0.57643723
68	0x3ea870d3	0.32898578
69	0xbd9148ca	-0.070939615
70	0xbf9291b0	-1.145071
71	0xbeda45fa	-0.42631513
72	0x3e4e3c42	0.20140174
73	0x3dbdc2ed	0.09265695
74	0xbf327a7b	-0.6971814
75	0xbe3d632f	-0.18494867
76	0xbe0acef1	-0.13555504
77	0xbebefbc0	-0.37301445
78	0xbc897b4c	-0.016782425
79	0x3d25f5ab	0.04051749
80	0xbe08a37d	-0.13343616
81	0xbe9db479	-0.30801752
82	0xbd51dfa9	-0.05123869
83	0xbe83cbef	-0.25741526
84	0xbeda5495	-0.42642656
85	0xbe7118aa	-0.23544565
86	0xbe86b956	-0.26313275
87	0xbf2e1ec9	-0.68015724
88	0xbe381f8c	-0.17980784
89	0xbe2963e4	-0.16542011
90	0xbf1b75ad	-0.60726434
91	0xbebafec2	-0.3652249
92	0x3e23b33c	0.15986341
93	0xbe9279cc	-0.2860855
94	0xbee1cfeb	-0.4410394
95	0xbf1ab91c	-0.60438704
96	0xbe00786b	-0.12545936
97	0x3e16ef3e	0.14739701
98	0x3e6ebaa0	0.2331338
99	0xbeeaf910	-0.45893145
100	0x3d54af1b	0.051924806
101	0x3ead3678	0.3383062
102	0x3e82fb24	0.2558223
103	0x3d7504c6	0.059819005
104	0x3cce477a	0.025180567
105	0x3f17c9b1	0.5929213
106	0xbdb9ce9a	-0.09072609
107	0x3e648476	0.22316155
108	0xbe5435fc	-0.20723718
109	0x3e005dd3	0.12535791
110	0x3edf03eb	0.43557677
111	0xbe6fb5e2	-0.23409227
112	0x3de796c4	0.11308053
113	0x3f0bee6f	0.54660696
114	0x3ec63a06	0.38716143
115	0x3eb498bd	0.3527278
116	0x3ec8fd07	0.39255545
117	0xbed78b74	-0.42098582
118	0x3f46f6ea	0.7772051
119	0x3edb3701	0.42815402
120	0x3ea6c470	0.32571745
121	0x3ead8e9c	0.33897865
122	0x3eb1dcb6	0.34738702
123	0x3f0c5ee6	0.54832304
124	0xbb4bec4b	-0.0031116183
125	0x3e4c3017	0.1994022
126	0x3e36466a	0.17800298
127	0x3e945e62	0.28978258
128	0x3e08f662	0.13375238
129	0x3e8c2e28	0.27378964
130	0x3e87148f	0.26382872
131	0x3f4f7c9c	0.81049514
132	0xbdb2820c	-0.08716211
133	0xbcca6d42	-0.024710301
134	0x3e92925b	0.28627285
135	0x3ebd8a19	0.37019423
136	0x3e79aba2	0.24381879
137	0xbe0caa5d	-0.13736863
138	0xbe7c0129	-0.24609818
139	0x3e16e6a7	0.14736424
140	0xbee1691a	-0.440255
141	0xbea38c13	-0.31942806
142	0xbe88df63	-0.2673293
143	0x3ea0de99	0.3141983
144	0xbf642b69	-0.8912874
145	0xbf81c23c	-1.0137401
146	0xbead9f1f	-0.33910462
147	0xbfc05a55	-1.5027567
148	0xbeb9d42e	-0.36294693
149	0xbf81de4a	-1.0145962
150	0xbea752fd	-0.32680503
151	0xbec45f76	-0.3835408
152	0xbdddfa86	-0.10838799
153	0xbd94f377	-0.07273
154	0xbe3ee8ff	-0.18643568
155	0xbe24d6a0	-0.16097498
156	0x3cacf8ab	0.021114668
157	0x3ef011c7	0.46888563
158	0x3d889851	0.06669677
159	0x3b543334	0.0032379152
160	0xbe933a7d	-0.2875556
161	0xbeb1e168	-0.34742284
162	0xbe52793c	-0.2055406
163	0x3dfa3ea0	0.12218976
164	0x3d547d00	0.05187702
165	0xbdb2f055	-0.08737246
166	0x3eac89bd	0.33698836
167	0x3c94d289	0.018166797
168	0x3ec152c8	0.3775847
169	0xbe30f53e	-0.17281052
170	0xbed592a7	-0.4171345
171	0x3de00782	0.10938932
172	0x3e2471b4	0.16059
173	0xbeb6c87e	-0.35699838
174	0xbee0fe28	-0.43943906
175	0xbf077c07	-0.52923626
176	0x3c2b23d3	0.010445553
177	0xbedea427	-0.43484613
178	0x3ed4abb0	0.41537237
179	0xbe2948a5	-0.16531618
180	0xbeeed4bc	-0.46646678
181	0x3d9bfa08	0.07616049
182	0xbf160972	-0.5860816
183	0xbe311ee7	-0.17296945
184	0xbeb4ce4e	-0.35313648
185	0xbecfaa06	-0.40559405
186	0xbf0e81c2	-0.55666745
187	0xbf0e2469	-0.5552431
188	0x3ebf191d	0.37323847
189	0x3ebe134d	0.371241
190	0xbe6f50db	-0.23370688
191	0x3e9175bf	0.28410146
192	0x3caed9e5	0.021344135
193	0xbeb0bc2e	-0.3451857
194	0xbe70521d	-0.23468824
195	0xbef52f78	-0.47887778
196	0xbeaa9191	-0.33314183
197	0xbec5ab0a	-0.38607055
198	0x3eb05e0c	0.34446752
199	0xbd3bf460	-0.04588735
200	0x3e6de55e	0.23232028
201	0x3eb5d750	0.35515833
202	0x3da2eda4	0.079554826
203	0x3f305e43	0.6889383
204	0xbdc49db8	-0.09600395
205	0x3f100297	0.5625395
206	0xbd90dc97	-0.07073324
207	0x3e048672	0.12941912
208	0x3dedaac9	0.1160484
209	0x3f085dfd	0.53268415
210	0x3e9e5c0a	0.30929595
211	0x3f57b550	0.84261036
212	0xbe31258e	-0.17299482
213	0x3ef04b22	0.46932322
214	0x3eac6bbd	0.33675948
215	0x3e36dd8c	0.17857951
216	0x3e9b578d	0.30340233
217	0xbd1a5557	-0.037679043
218	0xbed4c16e	-0.41553825
219	0x3ee9e6fd	0.45684043
220	0x3eb8ae65	0.36070552
221	0x3f344694	0.70420194
222	0x3e47a7a4	0.19497544
223	0x3ee7c2bd	0.4526576
224	0xbe4d9016	-0.20074496
225	0x3f2da83b	0.67834824
226	0xbe9d00d9	-0.3066471
227	0xbcce4b40	-0.025182366
228	0xbe004b72	-0.1252878
229	0x3ed5fc3d	0.41794005
230	0x3ecbeae3	0.39827642
231	0x3e87d1e0	0.2652731
232	0xbe2c65c3	-0.16835694
233	0x3f17666a	0.59140646
234	0x3ead1dbe	0.33811754
235	0x3e746bb6	0.23869213
236	0x3ed2a6a6	0.41142768
237	0xbedf9794	-0.43670332
238	0x3ef796a2	0.4835711
239	0x3f017bab	0.5057933
240	0xbdd549f5	-0.10414497
241	0x3e6b73ba	0.22993365
242	0x3e3f0134	0.18652803
243	0xbdba7728	-0.091047585
244	0x3e821198	0.25404048
245	0x3ea980ff	0.3310623
246	0xbd256aa0	-0.04038489
247	0x3ebf5b34	0.3737427
248	0xbce25f36	-0.02763329
249	0x3e0a7d2b	0.1352431
250	0x3e94217a	0.2893179
251	0xbecb3e08	-0.39695764
252	0x3e168984	0.14700896
253	0x3ea3be69	0.3198121
254	0x3dfc6638	0.12324184
255	0x3ec401ac	0.38282526

fc2.bias f4 [20]
0	0xbf59e515	-0.85115176
1	0x3e073e3f	0.13207339
2	0x3e73c99e	0.2380738
3	0x3dbd60fd	0.09247015
4	0x3e0afc83	0.13572888
5	0x3e4a54d9	0.1975893
6	0xbd9411ff	-0.07229995
7	0x3e321458	0.17390573
8	0x3dfdd3e0	0.123939276
9	0x3e98be21	0.29832557
10	0xbe1dbc5b	-0.15403883
11	0x3c9f247c	0.019426577
12	0xbeab32c1	-0.3343716
13	0x3dc0669d	0.09394572
14	0xbbf90078	-0.007598933
15	0x3dd6e31c	0.104925364
16	0x3e5952c1	0.21222974
17	0x3e87bff7	0.26513645
18	0xbd76fc67	-0.060299303
19	0x3e1c7eac	0.15282696

fc3.weight f4 [5, 20]
0	0x3e17fc06	0.14842233
1	0x3c0a5961	0.008444161
2	0xbed82249	-0.42213657
3	0xbebe2ecf	-0.37145087
4	0xbe4e2702	-0.20132068
5	0x3ddfb48f	0.10923111
6	0xbda332e4	-0.07968691
7	0xbe24d3fa	-0.16096488
8	0xbee0aa1b	-0.4387978
9	0xbeafd7a7	-0.34344217
10	0x3caebcf1	0.021330329
11	0x3e5eab39	0.21745004
12	0x3da5e08a	0.08099468
13	0x3d93c294	0.07214847
14	0x3dc929cf	0.098224275
15	0xbd8df808	-0.06932074
16	0xbe2cf4ed	-0.16890307
17	0x3b977949	0.0046226126
18	0xbe6c6d83	-0.2308865
19	0xbf151ebb	-0.58250016
20	0x3deb6285	0.114934005
21	0xbe290411	-0.16505457
22	0x3e1261c5	0.14295109
23	0x3e84eba4	0.2596103
24	0x3d72b764	0.059256926
25	0x3e9851f1	0.29750016
26	0xbe8950dc	-0.26819503
27	0x3e37e3aa	0.1795794
28	0x3e4a1cee	0.19737598
29	0x3ddc44ec	0.10755333
30	0xbeeb3780	-0.4594078
31	0x3e65f12e	0.22455284
32	0xbd8a2c27	-0.06746703
33	0xbea3c4bf	-0.31986043
34	0x3eb65658	0.3561275
35	0xbf16c487	-0.58893627
36	0x3e188e18	0.14897954
37	0xbedb8635	-0.4287583
38	0xbe68ca66	-0.22733459
39	0x3e257513	0.16157942
40	0x3e31b647	0.1735469
41	0xbf02fb4c	-0.511647
42	0xbf0c1c62	-0.5473081
43	0x3e2df1d0	0.16986775
44	0x3de42951	0.11140693
45	0xbcfc259a	-0.030779649
46	0xbd2b5dd1	-0.041837517
47	0x3f19999c	0.60000014
48	0xbecac3af	-0.3960242
49	0xbe7748c5	-0.24148853
50	0x3d89c860	0.067276716
51	0xbda3dc87	-0.08001047
52	0x3bb2b28f	0.0054534147
53	0x3edd99c3	0.43281373
54	0xbe704798	-0.23464811
55	0x3e4bdbbc	0.19908041
56	0xbef84173	-0.48487434
57	0x3e559800	0.20858765
58	0xbe066abd	-0.13126655
59	0x3e548c75	0.20756705
60	0x3e47afd4	0.19500667
61	0x3ea6da7f	0.32588574
62	0x3e2c4c6b	0.16826026
63	0xbdf3f69c	-0.119122714
64	0xbf03cdd2	-0.5148593
65	0xbea2da58	-0.31807208
66	0x3e6771dd	0.22602029
67	0xbf1eba4c	-0.62003016
68	0x3e50a9c5	0.20377262
69	0x3e8465e7	0.25858995
70	0x3e8fb9eb	0.28071532
71	0x3da5aca0	0.08089566
72	0xbe9e1e15	-0.30882326
73	0xbef504ce	-0.47855228
74	0xbe9f1428	-0.31070065
75	0xbf014fa2	-0.50512135
76	0xbf1bcd8f	-0.6086053
77	0xbefe0d21	-0.49619392
78	0x3bcb2f41	0.0062007015
79	0x3e87a0ff	0.26490018
80	0x3dd63b37	0.10460513
81	0x3eca5146	0.39515132
82	0x3e1e98d9	0.15487994
83	0xbe2c676c	-0.16836327
84	0xbedf45f5	-0.4360806
85	0xbe52781c	-0.2055363
86	0xbc88cafa	-0.01669835
87	0xbf285c26	-0.6576561
88	0x3df29f63	0.11846807
89	0xbe036d52	-0.12834671
90	0xbddfbc9d	-0.10924647
91	0xbeb38c79	-0.3506811
92	0x3ce1ccdf	0.02756351
93	0x3e5ff70a	0.21871582
94	0xbe5227ca	-0.20522991
95	0x3e4aee6c	0.19817513
96	0xbdcabd30	-0.09899366
97	0x3c77072a	0.015077392
98	0xbe61e694	-0.22060615
99	0x3ec00d0b	0.3750995

fc3.bias f4 [5]
0	0xbdb6bdd3	-0.08922925
1	0xbce780eb	-0.028259715
2	0x3d1f38a2	0.03887237
3	0x3e2e588f	0.1702597
4	0x3d0368df	0.032082435

fcns.0.weight f4 [20, 20]
0	0x3e9a4fe2	0.3013907
1	0x3e0e7dbb	0.1391515
2	0x3f039c74	0.51410604
3	0xbb18a6e1	-0.0023292827
4	0xbc8562ee	-0.016282525
5	0x3e7b5045	0.24542339
6	0xbdd758fc	-0.10515019
7	0xbb2eae78	-0.0026654284
8	0x3e4619ef	0.1934583
9	0xbcbd75e1	-0.023127498
10	0xbf2659ad	-0.64980584
11	0x3e3f36e3	0.18673281
12	0xbdf35fa5	-0.11883477
13	0xbd40b8d5	-0.04705127
14	0xbdc6af64	-0.09701422
15	0x3e37eb35	0.17960818
16	0x3efbec5a	0.4920376
17	0xbeb6cf02	-0.3570481
18	0x3ddf7d86	0.109126136
19	0x3e3d3187	0.18475924
20	0xbe31a204	-0.1734696
21	0x3db183ec	0.0866774
22	0x3c67ea77	0.014155022
23	0x3e45030d	0.19239445
24	0xbe92ed92	-0.28696877
25	0xbe854e0e	-0.26036114
26	0xbe05d6bd	-0.13070197
27	0xbebefa54	-0.3730036
28	0x3dc1d793	0.09464946
29	0xbe983be1	-0.29733184
30	0x3caf889b	0.021427443
31	0xbcb9ff28	-0.022704676
32	0xbe0847ba	-0.13308612
33	0xbdf2826f	-0.118412845
34	0x3e2a2020	0.16613817
35	0xbe90a688	-0.28252053
36	0x3ddeb532	0.10874404
37	0x3e1f36b1	0.15548207
38	0x3e41b756	0.18917593
39	0x3e94794e	0.28998798
40	0xbe8fdf78	-0.2810018
41	0xbd97deb2	-0.07415523
42	0x3e462044	0.19348246
43	0xbd68d475	-0.05684324
44	0x3f03d1d5	0.51492053
45	0xbcaaf6f6	-0.020869713
46	0x3dec04db	0.115243636
47	0xbe6c6f30	-0.2308929
48	0xbdb1517a	-0.086581185
49	0x3ed78d12	0.42099816
50	0xbdfb9230	-0.122837424
51	0xbe3bbb97	-0.18333279
52	0xbd9dbd7a	-0.077021554
53	0xbc860a25	-0.01636226
54	0x3c1560fe	0.009117363
55	0xbe88bfb1	-0.2670875
56	0xbe452bfe	-0.19255063
57	0x3c2fd047	0.0107308095
58	0xbd0db0af	-0.034592327
59	0xbe452b1b	-0.19254725
60	0x3dea2c52	0.11434235
61	0x3e1b5139	0.15167703
62	0x3d5c03ac	0.05371444
63	0x3e0220dd	0.12707849
64	0xbf1cb3bd	-0.6121176
65	0xbd4023fb	-0.046909314
66	0xbe562493	-0.2091239
67	0xbc343dba	-0.011001045
68	0x3daacbd9	0.08339662
69	0xbd3f6aab	-0.046732586
70	0x3d8219c5	0.063525714
71	0x3cefaf50	0.0292584
72	0xbe2eea90	-0.17081666
73	0x3dbdd4a3	0.09269073
74	0x3e21cf43	0.1580172
75	0xbde181fc	-0.11011121
76	0x3ed1862c	0.40922678
77	0xbdc3c5fa	-0.095592454
78	0x3dbca0b7	0.092103414
79	0x3e2fe51d	0.17177244
80	0x3f1745e6	0.5909103
81	0xbeab192b	-0.3341764
82	0x3dc1a52b	0.094553314
83	0x3ea117d9	0.31463507
84	0x3d5f2653	0.05447991
85	0x3e7c883c	0.24661344
86	0x3d7ace3d	0.06123184
87	0x3cbb2e4b	0.022849223
88	0x3e2122c2	0.15735915
89	0x3edf38cf	0.4359803
90	0x3d876353	0.066107415
91	0xbdc9c62d	-0.09852252
92	0x3df60145	0.12011961
93	0xbc81fda4	-0.015868016
94	0xbe4af86c	-0.19821328
95	0xbd147719	-0.036246393
96	0x3e309638	0.17244804
97	0x3ddfb59b	0.1092331
98	0x3e07672f	0.13222955
99	0x3e67cab1	0.22635914
100	0xbe380983	-0.17972378
101	0xbd9cacc2	-0.076501384
102	0xbebbcc73	-0.3667942
103	0x3e8ba499	0.27274016
104	0x3ea02b37	0.3128297
105	0x3ddcb5f0	0.10776889
106	0x3ed18cfb	0.40927872
107	0x3eb7cd97	0.3589904
108	0x3e366615	0.17812379
109	0xbe5e7c09	-0.21727003
110	0xbdbf5a79	-0.09343428
111	0x3e0a2d8e	0.1349394
112	0x3c9cdb61	0.019147577
113	0xbd707337	-0.058703627
114	0x3ea5a2fc	0.3235091
115	0xbe2499c6	-0.16074285
116	0xbe4f09b5	-0.20218547
117	0x3e6f042c	0.23341435
118	0xbe92ee2b	-0.28697333
119	0xbed8362a	-0.42228824
120	0xbf0eba7d	-0.5575331
121	0x3e681982	0.2266598
122	0xbd9c7191	-0.076388486
123	0xbf454725	-0.7706168
124	0xbe8d9148	-0.27649903
125	0x3e26ab76	0.16276345
126	0xbde14e3d	-0.11001251
127	0x3d6aabb7	0.057292666
128	0xbdcded0c	-0.10054979
129	0xbe985169	-0.2974961
130	0xbdf7416b	-0.12073024
131	0x3e86a5e9	0.26298454
132	0xbe5b1d92	-0.21397999
133	0x3c859a5f	0.016308961
134	0x3e4ce674	0.20009786
135	0xbe898dc3	-0.26865968
136	0xbe18baef	-0.1491506
137	0xbe79e00e	-0.24401876
138	0xbc1623dc	-0.009163823
139	0x3dc6c9b3	0.0970644
140	0xbde52e8d	-0.111905195
141	0x3dfdba73	0.12389078
142	0xbd506ef8	-0.050887078
143	0xbca6a2a7	-0.02034123
144	0xbeb45a68	-0.35225224
145	0x3e34f367	0.17670976
146	0xbd757f9d	-0.059936155
147	0xbe487c29	-0.19578613
148	0xbdb263c7	-0.08710437
149	0x3e0e60dd	0.13904138
150	0xbe3e2a7a	-0.18570891
151	0x3dd3c098	0.10339469
152	0x3ea2a807	0.3176882
153	0xbe13449f	-0.14381646
154	0x3ed732c8	0.4203093
155	0x3da76707	0.08173948
156	0xbe6ee998	-0.23331296
157	0xbcc8d5d3	-0.024516022
158	0x3e6229c1	0.2208624
159	0x3e16fbcc	0.1474449
160	0x3e6ad286	0.22931871
161	0x3d24564e	0.04012137
162	0xbe37e8e4	-0.17959934
163	0xbdd9458e	-0.1060897
164	0xbe3496f3	-0.17635708
165	0xbe8bd743	-0.2731267
166	0x3ec42203	0.383072
167	0x3f288c03	0.6583864
168	0x3c9092a2	0.017648045
169	0x3db73ed1	0.08947528
170	0x3b949dbd	0.0045354054
171	0x3e03faba	0.12888613
172	0xbe9268b9	-0.28595522
173	0xbcc76d98	-0.02434425
174	0x3eb292ae	0.34877533
175	0xbe277169	-0.16351856
176	0x3ed7060c	0.419968
177	0xbce65920	-0.02811867
178	0x3d5de849	0.054176603
179	0xbdfc5981	-0.12321759
180	0xbe353ae3	-0.17698245
181	0xbdce9d9a	-0.10088654
182	0x3e05210d	0.13000889
183	0x3e5003f8	0.20314014
184	0x3d67df84	0.056609645
185	0xbd1f3e75	-0.038877923
186	0xbe3f1645	-0.18660839
187	0x3db96587	0.09052568
188	0x3e070052	0.13183716
189	0x3dd4a9ad	0.103839256
190	0x3d898747	0.06715255
191	0xbe4f003d	-0.20214935
192	0x3dc47980	0.09593487
193	0x3d89d422	0.06729914
194	0x3e0d1376	0.13776955
195	0xbcdcc830	-0.026950926
196	0x3d181c23	0.03713621
197	0xbe69ef38	-0.22845161
198	0x3ccfa007	0.025344862
199	0x3e8ee862	0.2791167
200	0x3ee1e921	0.44123176
201	0xbdc0ea95	-0.09419743
202	0xbb5ff73d	-0.0034174465
203	0x3da7b445	0.081886806
204	0xbe87f5cf	-0.26554725
205	0xbd7d4c0b	-0.0618401
206	0xbeb163cc	-0.3464645
207	0xbe342f8e	-0.17596266
208	0x3de0ee7f	0.109829895
209	0xbd7c74c3	-0.06163479
210	0xbd4a4602	-0.04938317
211	0x3b83fbea	0.004027833
212	0x3ebf233c	0.3733157
213	0x3e859211	0.26088002
214	0x3e2b2c77	0.1671618
215	0x3e362835	0.17788775
216	0xbd189924	-0.03725542
217	0x3e015e12	0.12633541
218	0x3e55eeb9	0.20891847
219	0xbb882f64	-0.00415604
220	0x3eb2918a	0.34876662
221	0xbc7bc7c6	-0.015367454
222	0x3d807eb3	0.06274166
223	0xbdc19a7b	-0.09453293
224	0xbe3b27d4	-0.18276912
225	0xbe88efdd	-0.267455
226	0xbeb5ff34	-0.35546267
227	0x3eb2c102	0.34912878
228	0xbddae0ab	-0.10687383
229	0x3d3a67f1	0.045509282
230	0x3dd1e980	0.10249615
231	0xbe2bc9ec	-0.16776246
232	0xbe2ee528	-0.17079604
233	0x3eec1479	0.4610937
234	0xbdbba2b4	-0.091618925
235	0x3e07b33c	0.13251966
236	0x3ddee329	0.10883171
237	0xbcc2aa34	-0.0237628
238	0xbe8082b5	-0.25099722
239	0xbe6579e1	-0.22409774
240	0x3d8e4f67	0.069487385
241	0x3e9a600b	0.301514
242	0xbd812545	-0.06305937
243	0xbec87221	-0.39149573
244	0x3caba877	0.020954354
245	0x3ed5a0c4	0.41724217
246	0xbdf4acbe	-0.119470105
247	0x3c65c0d2	0.014023023
248	0xbe0c7dbb	-0.13719837
249	0x3e18d550	0.14925122
250	0x3e3e41b9	0.18579759
251	0x3edf8e13	0.43663082
252	0x3e34c8e1	0.17654754
253	0xbdd67e4b	-0.10473307
254	0x3e4c9ded	0.19982119
255	0x3cbe1e78	0.023207888

fcns.0.bias f4 [20]
0	0x3e0799c2	0.13242248
1	0xbd77bcdf	-0.060482856
2	0xbcbc3da6	-0.022978615
3	0xbe4e6622	-0.20156148
4	0x3d1d747e	0.038441174
5	0x3e140707	0.14455806
6	0xbe1fe686	-0.15615281
7	0xbe49c6bf	-0.19704722
8	0x3e62477f	0.22097586
9	0xbe11e3cd	-0.14247055
10	0xbd8f654f	-0.07001745
11	0x3e600004	0.21875006
12	0x3dacdc2b	0.08440431
13	0xbd2b4602	-0.04181481
14	0x3b8006c3	0.003907056
15	0xbe6686ae	-0.22512314
16	0x3e42dd67	0.19029771
17	0xbd562003	-0.052276623
18	0xbc914dc4	-0.017737277
19	0xbe0d5249	-0.1380092

fcns.1.weight f4 [20, 20]
0	0x3dd4526e	0.10367285
1	0x3d074933	0.033028793
2	0xbe09cdec	-0.13457459
3	0xbc74b22b	-0.014935057
4	0x3c41da52	0.011831837
5	0xbe8c2a49	-0.2737601
6	0x3e31fceb	0.17381637
7	0x3e48d065	0.19610746
8	0x3eeeeba4	0.46664155
9	0x3e132a0f	0.14371513
10	0xbe5e8b29	-0.21732773
11	0xbde391ce	-0.111117944
12	0x3e9fa981	0.3118401
13	0xbe11bb16	-0.14231524
14	0xbdfb7732	-0.12278594
15	0xbcb66f33	-0.02226982
16	0xbc8d94f3	-0.017282939
17	0x3eb9a7b3	0.36260757
18	0xbec43d2f	-0.3832793
19	0xbe0f7331	-0.14008786
20	0x3c74342c	0.014905017
21	0xbdfe66d2	-0.12421955
22	0xbe4f1a75	-0.20224936
23	0x3da4cdd2	0.080470696
24	0x3e5d4607	0.21608745
25	0xbdf91a05	-0.12163166
26	0xbe602506	-0.21889123
27	0xbd4da5a2	-0.050206788
28	0xbdc4a43e	-0.09601639
29	0xbe23c31a	-0.15992394
30	0x3e35ee6e	0.17766735
31	0xbee80eb5	-0.4532372
32	0xbea04c39	-0.31308153
33	0x3db64ad3	0.0890099
34	0x3ebf32d1	0.37343457
35	0xbecedcd0	-0.40402842
36	0xbc90dd0b	-0.017683527
37	0x3c54f611	0.01299812
38	0xbe0392e8	-0.12849009
39	0xbe956a01	-0.29182437
40	0x3d4ecaaa	0.050486244
41	0x3bca86ab	0.0061806045
42	0x3e941fbb	0.28930458
43	0xbed4ddd7	-0.415755
44	0x3e81a298	0.25319362
45	0xbdfe8628	-0.12427932
46	0x3da3fb9b	0.08006974
47	0xbe3c4d5e	-0.18388888
48	0xbd802152	-0.06256355
49	0xbd9f140c	-0.077674955
50	0xbf1bb6c0	-0.6082573
51	0xbe9af393	-0.30263957
52	0x3e0052f8	0.1253165
53	0x3dd64855	0.10463015
54	0x3e336945	0.17520626
55	0x3de8e987	0.11372667
56	0xbdd3803d	-0.10327194
57	0xbd225a02	-0.03963662
58	0x3df1b544	0.11802152
59	0xbe9e7fe0	-0.30956936
60	0x3e476cf9	0.19475164
61	0x3dfd7fbd	0.1237788
62	0xbe347ef9	-0.17626561
63	0x3d8989e8	0.06715757
64	0x3cff3057	0.03115098
65	0xbf1ca756	-0.61192834
66	0xbdda7209	-0.10666282
67	0x3e4007a5	0.18752916
68	0x3dd1d092	0.1024486
69	0x3e62c96b	0.22147147
70	0x3e90296e	0.28156608
71	0x3dd31b77	0.10307973
72	0xbe60d270	-0.21955276
73	0xbe937e5b	-0.2880734
74	0x3f07c2e1	0.53031737
75	0xbe814eeb	-0.25255522
76	0xbe54ad74	-0.20769292
77	0x3e221545	0.15828426
78	0x3dc86599	0.09785003
79	0x3c6aac49	0.014323303
80	0xbce64456	-0.028108757
81	0xbe5d6df9	-0.21623982
82	0x3d20d705	0.03926756
83	0xbe66b567	-0.22530137
84	0xbc396994	-0.011316676
85	0xbe40b132	-0.18817595
86	0xbd7fd51c	-0.062459096
87	0xbea78fb7	-0.32726833
88	0x3e3e58c8	0.18588555
89	0xbdcc2b95	-0.0996925
90	0xbe777fac	-0.24169797
91	0x3d0f5e81	0.035002235
92	0xbf0c1c5c	-0.5473077
93	0xbe99ffd8	-0.30078006
94	0x3ec76dbf	0.38950917
95	0xbe4e7444	-0.2016154
96	0x3dc79feb	0.09747299
97	0x3e2e90e0	0.17047453
98	0xbeb030e0	-0.3441229
99	0xbe75237c	-0.23939317
100	0x3ddb7672	0.10715951
101	0xbe246d10	-0.16057229
102	0x3d2fb21e	0.042894475
103	0x3d81b76c	0.06333813
104	0x3e3425d5	0.17592557
105	0xbdc7ba6a	-0.097523525
106	0xbf0979c5	-0.5370143
107	0x3d0859ee	0.03328889
108	0x3c67ecdd	0.014155594
109	0xbc09a93a	-0.008402163
110	0x3eb5d090	0.35510683
111	0xbec9c8c3	-0.39410982
112	0x3f1788be	0.59193027
113	0x3dde0b9c	0.10842058
114	0xbdc8667e	-0.09785174
115	0x3ec437f6	0.38323945
116	0xbe75c2a4	-0.24000031
117	0x3d7b2387	0.06131318
118	0xbe23ab0d	-0.1598322
119	0x3e408787	0.188017
120	0xbeb6203c	-0.35571468
121	0x3e8af4ac	0.27139795
122	0xbdf1fd4a	-0.11815889
123	0xbe5bc6c5	-0.21462543
124	0x3d913bef	0.070915096
125	0x3ec11228	0.37709165
126	0xbd9b5826	-0.07585172
127	0x3c986e25	0.018607209
128	0xbda95a72	-0.08269204
129	0xbcecc01c	-0.028900199
130	0xbe84004b	-0.25781474
131	0x3e7309fa	0.23734275
132	0x3e64c8a8	0.2234217
133	0x3e730b41	0.23734762
134	0xbe2be228	-0.1678549
135	0x3e332c7d	0.1749744
136	0x3e991ffe	0.2990722
137	0xbd73ac9d	-0.05949079
138	0xbc70391d	-0.014662054
139	0x3e522892	0.20523289
140	0x3dab6c71	0.08370293
141	0x3dc42f08	0.09579283
142	0x3e06da17	0.13169132
143	0x3dcd6228	0.100284874
144	0x3ee58a4d	0.44832078
145	0xbda2e2a0	-0.079533815
146	0x3e9e3acd	0.30904236
147	0x3e24deb6	0.16100582
148	0x3e76a21a	0.24085274
149	0x3d2bbc86	0.041927837
150	0xbd85d84e	-0.065353975
151	0xbe1a544a	-0.15071216
152	0x3dda9478	0.106728494
153	0xbe5517ec	-0.20809907
154	0xbea0136b	-0.31264815
155	0xbf0a762e	-0.5408658
156	0xbe9e5ac1	-0.30928615
157	0xbd2e4fd4	-0.0425566
158	0xbe031a78	-0.12803066
159	0xbd2b8546	-0.041875146
160	0x3d31cebe	0.043410055
161	0x3e8bb941	0.27289775
162	0x3ca393a0	0.019967854
163	0x3dfefd92	0.124507084
164	0x3e2a701e	0.16644332
165	0x3e3b652a	0.1830031
166	0xbecb5e47	-0.39720365
167	0x3eae700f	0.3406987
168	0x3d84b8ec	0.064805835
169	0x3dbef794	0.093245655
170	0x3e1f9965	0.15585859
171	0x3ecbeace	0.3982758
172	0x3e6ea6aa	0.23305765
173	0xbe86f798	-0.26360774
174	0x3eddfe78	0.43358207
175	0x3e49bf9a	0.19701996
176	0xbe3a48b0	-0.1819179
177	0x3c419160	0.011814445
178	0xbb8c562e	-0.0042827344
179	0xbcd3abad	-0.025838697
180	0xbe619860	-0.22030783
181	0x3d665321	0.05623162
182	0xbe549ff1	-0.20764138
183	0xbde45aa0	-0.11150098
184	0x3de8f9b3	0.11375751
185	0xbe007e4a	-0.12548175
186	0xbf92223b	-1.1416696
187	0x3cad070c	0.021121524
188	0x3c583489	0.013196119
189	0x3e55507f	0.20831488
190	0x3dc0f4ae	0.09421669
191	0xbef1d5a0	-0.47233295
192	0xbe62050d	-0.22072239
193	0xbd88297d	-0.06648538
194	0xbe4c6eaa	-0.1996409
195	0x3cb9ef70	0.02269718
196	0x3e0db823	0.13839774
197	0x3e9e5a8b	0.30928454
198	0xbd70f15c	-0.05882393
199	0xbe64ed0d	-0.22356053
200	0x3e243892	0.16037205
201	0xbf29056d	-0.66023904
202	0x3d444ae2	0.047922976
203	0xbcb772a9	-0.022393541
204	0x3d02877b	0.031867485
205	0xbc959f20	-0.018264353
206	0xbca90142	-0.020630483
207	0xbf152913	-0.582658
208	0xbeb69d48	-0.3566687
209	0xbcf4b70a	-0.029872436
210	0x3e99f47d	0.30069342
211	0x3e2075d5	0.1566995
212	0xbe368f63	-0.17828135
213	0x3d8d3e68	0.06896669
214	0x3ea58067	0.32324526
215	0xbeee8b68	-0.46590734
216	0x3c43ffbe	0.011962829
217	0xbe52622a	-0.20545259
218	0xba012592	-0.0004926558
219	0x3dad34a1	0.08457304
220	0xbd1ae933	-0.037820052
221	0xbe1cacff	-0.15300368
222	0xbd47073d	-0.048590887
223	0x3e27886c	0.16360635
224	0x3dc3613e	0.09540032
225	0x3ddc00bf	0.1074233
226	0xbf3cd91c	-0.7376878
227	0x3e7b54c2	0.24544051
228	0xbdaa1596	-0.083048984
229	0xbe50a27a	-0.2037448
230	0x3c5ccd71	0.013476715
231	0x3e0148f2	0.12625483
232	0x3e785c73	0.24254017
233	0x3e451ac1	0.19248487
234	0x3e447b87	0.19187747
235	0x3d69cdd8	0.057081074
236	0x3c033e01	0.008010388
237	0x3cb00414	0.02148632
238	0xbeb7a88c	-0.3587078
239	0xbe11c30a	-0.14234558
240	0xbe68ad6b	-0.22722404
241	0x3d8b0eef	0.06789958
242	0x3eac28ba	0.33624822
243	0x3e8310d1	0.25598767
244	0x3da262c8	0.07928997
245	0x3e07fb13	0.13279371
246	0xbd4dd6cb	-0.05025367
247	0x3d872290	0.06598389
248	0x3ea314bb	0.31851754
249	0xbde16cd1	-0.11007083
250	0x3dcedbe2	0.10100533
251	0xbefe889b	-0.49713597
252	0x3dc2c3bc	0.095099896
253	0xbe277d37	-0.1635636
254	0xbe9a34eb	-0.30118498
255	0xbb3fe9d5	-0.0029283662

fcns.1.bias f4 [20]
0	0xb9daa97d	-0.0004170648
1	0xbdbc115c	-0.091829985
2	0x3cab5337	0.020913703
3	0xbe367155	-0.1781667
4	0x3e38c312	0.18043163
5	0xbe3142bb	-0.17310612
6	0xbec0e098	-0.3767135
7	0xbe801cb5	-0.25021902
8	0x3e5f00e2	0.2177768
9	0x3e17b27d	0.14814182
10	0xbdb9519f	-0.09048771
11	0xbdb80dbf	-0.08986997
12	0x3e1cd744	0.15316492
13	0x3e150f3a	0.1455659
14	0xbd333217	-0.04374894
15	0xbd822741	-0.06355143
16	0x3e00b566	0.12569198
17	0x3d2a8ee5	0.04164018
18	0xbd354016	-0.04425057
19	0x3ba17d14	0.0049282406

fcns.2.weight f4 [20, 20]
0	0x3ea358c3	0.31903657
1	0xbdeb68a2	-0.114945665
2	0xbdea1977	-0.11430638
3	0xbe826637	-0.2546861
4	0xbdc10624	-0.09424999
5	0xbdc0ad58	-0.09408063
6	0xbdcc4738	-0.099745214
7	0x3e8a1364	0.2696792
8	0x3d9bb058	0.07601994
9	0xbe083b91	-0.13303973
10	0x3d90dd1f	0.070734255
11	0xbe16d7a8	-0.14730704
12	0xbe412e6b	-0.18865363
13	0xbe7c51ae	-0.24640533
14	0xbe4be743	-0.19912438
15	0x3dc8379b	0.09776231
16	0x3edc9865	0.43085018
17	0x3eb7bff3	0.35888633
18	0x3e2f5cc9	0.17125238
19	0xbd9cb39d	-0.07651446
20	0xbcffe6ac	-0.031237923
21	0x3d608474	0.054813817
22	0xbd3be488	-0.04587224
23	0xbca1cb8d	-0.01975038
24	0xbd78407b	-0.06060837
25	0xbd405648	-0.046957284
26	0xbe791f3f	-0.24328326
27	0x3dcc86fb	0.09986683
28	0x3ea7d496	0.32779378
29	0x3d403ab8	0.046931
30	0xbdba822d	-0.0910686
31	0x3e91b9e7	0.28462145
32	0x3d39675d	0.04526459
33	0xbea83af4	-0.32857478
34	0xbe76f821	-0.24118091
35	0xbe9383da	-0.28811532
36	0x3c8c37aa	0.017116386
37	0x3ea3690e	0.31916088
38	0x3d9aa0dc	0.07550213
39	0xbcae137b	-0.021249523
40	0xbe00a1cd	-0.12561722
41	0xbed72710	-0.4202199
42	0xbd8837ac	-0.066512436
43	0x3ec3958a	0.38200027
44	0xbe9d28b4	-0.30695117
45	0x3e6d114b	0.23151128
46	0xbe8ce7df	-0.27520654
47	0x3de5d464	0.11222151
48	0x3e9a0e58	0.30089068
49	0xbea1bc2d	-0.3158888
50	0x3df9aecd	0.12191544
51	0xbe3a67bc	-0.18203634
52	0xb8b3f3c0	-8.580787e-05
53	0xbc727221	-0.014797718
54	0xbd3069fd	-0.04306983
55	0x3e3342a6	0.17505893
56	0xbc2819f2	-0.010260092
57	0xbcea8660	-0.028628528
58	0x3e399089	0.18121542
59	0xbf09122a	-0.5354334
60	0xbcc8d7c2	-0.024516944
61	0x3e943c7f	0.28952405
62	0x3ebc3103	0.36756143
63	0xbe4118e2	-0.18857148
64	0x3dcc8dfd	0.099880196
65	0xbe8fbb05	-0.28072372
66	0x3ddd3716	0.108015224
67	0x3e4d0c84	0.20024306
68	0xbe1cbdec	-0.15306824
69	0xbdbde93d	-0.09273002
70	0x3ecbed88	0.3982966
71	0x3e5ed183	0.2175961
72	0xbe0aba91	-0.13547732
73	0xbe7a5c5e	-0.24449298
74	0xbe1ade94	-0.1512397
75	0xb94e8e23	-0.00019698641
76	0x3e541962	0.20712808
77	0xbb032e75	-0.0020016704
78	0xbe004ee1	-0.1253009
79	0x3e556efc	0.20843118
80	0xbe9112c4	-0.2833463
81	0x3cd74f5f	0.026282964
82	0x3d5b7e4a	0.053587236
83	0x3d3a809b	0.045532804
84	0x3eafe87d	0.34357062
85	0xbe26f12f	-0.16302942
86	0xbe9d7cec	-0.3075937
87	0xbe5fed3e	-0.21867844
88	0x3e833366	0.2562515
89	0xbedbf4b2	-0.42960125
90	0x3e2b7d15	0.16746934
91	0xbebb0548	-0.36527467
92	0x3d1e9524	0.03871645
93	0x3e2686b9	0.1626233
94	0x3e3ce4a6	0.18446597
95	0x3ca03757	0.019557638
96	0xbf035019	-0.51294094
97	0xbdf1eeab	-0.118131004
98	0xbc16b237	-0.009197763
99	0xbdbee8e0	-0.09321761
100	0x3dd75b6d	0.10515485
101	0x3daa5584	0.08317092
102	0x3e86b0e5	0.26306835
103	0xbe584240	-0.21119022
104	0x3e08d981	0.13364221
105	0xbdc31095	-0.09524647
106	0xbe88f34f	-0.2674813
107	0x3e8c6e60	0.2742796
108	0xbe2a376a	-0.16622701
109	0x3e7b30c7	0.24530326
110	0x3ed0753b	0.4071444
111	0x3f281edd	0.65672094
112	0x3d3ce521	0.04611695
113	0xbce6b69c	-0.028163247
114	0xbeb1ff94	-0.34765303
115	0x3ddb6543	0.107126735
116	0x3e4c3b0b	0.19944398
117	0x3def9013	0.11697402
118	0xbe6547dd	-0.22390695
119	0xbe3a8799	-0.18215789
120	0xbe48bd7a	-0.1960353
121	0x3dcab935	0.09898607
122	0x3adaf112	0.0016703925
123	0x3edc7a16	0.43061894
124	0xbd94c2cc	-0.07263717
125	0xbdff71ef	-0.12472903
126	0xbe42824d	-0.18995018
127	0xbcbd3cf3	-0.023100352
128	0x3e24fd24	0.1611219
129	0x3db27a62	0.08714749
130	0xbc5c1881	-0.013433577
131	0x3d5071e6	0.050889872
132	0x3e51dfff	0.20495604
133	0xbb602f81	-0.0034208002
134	0xbc84e54f	-0.016222624
135	0xbf31b616	-0.69418466
136	0xbf23f9ec	-0.64053226
137	0xbea1aeb2	-0.31578594
138	0x3d137bcc	0.036006734
139	0xbdc49571	-0.09598816
140	0xbf40b86e	-0.7528142
141	0x3cb9df3f	0.02268946
142	0xbe12d2b7	-0.14338194
143	0x3e5cb5c3	0.21553712
144	0x3d803f1a	0.06262036
145	0x3e6b8ff2	0.2300413
146	0x3a62f79d	0.0008658113
147	0xbe5ed300	-0.21760178
148	0x3d8689ff	0.065692894
149	0x3e9c4c61	0.30527022
150	0x3e052f03	0.13006215
151	0xbe072d24	-0.13200814
152	0xbea49ab9	-0.32149294
153	0x3dd52406	0.104072616
154	0xbd368291	-0.04455811
155	0x3d841ddb	0.06451007
156	0xbdcd3224	-0.10019329
157	0x3dbc444c	0.09192714
158	0xbe1e81a3	-0.1547914
159	0x3e0501dd	0.12988992
160	0xbe82e57b	-0.25565705
161	0x3dcd1c01	0.10015107
162	0xbe7332f4	-0.23749906
163	0x3f08326a	0.53201926
164	0xbebfb527	-0.37442896
165	0xbdd43058	-0.10360783
166	0xbf2a1731	-0.6644164
167	0xbdd9a88f	-0.10627853
168	0xbe113578	-0.14180553
169	0x3db163ec	0.08661637
170	0x3c6f268b	0.014596592
171	0xbeb1d32d	-0.34731427
172	0x3cab12b5	0.020882944
173	0x3d0986eb	0.033575933
174	0xbd8e5190	-0.069491506
175	0x3d6ec2e8	0.058291346
176	0x3cee27d6	0.02907173
177	0xbe871bb8	-0.26388335
178	0x3dd1a117	0.102358036
179	0xbeca1838	-0.39471602
180	0x3eb08627	0.3447735
181	0x3be1affd	0.0068874345
182	0x3d94088d	0.072281934
183	0xbbd2e2f7	-0.0064357477
184	0xbdaefb2f	-0.08544003
185	0xbd5a563b	-0.053304892
186	0xbe41c8ea	-0.18924299
187	0xbe10cf2f	-0.14141534
188	0x3ec4803c	0.38379085
189	0x3d4c2aee	0.04984563
190	0x3d86f849	0.065903254
191	0xbeb27f5e	-0.34862798
192	0x3cbfc935	0.023411373
193	0x3e0b2b53	0.13590746
194	0x3d8cb284	0.06869987
195	0x3e6a7604	0.22896582
196	0x3ebeff1e	0.37304014
197	0xbe83fe35	-0.25779882
198	0xbed3abd2	-0.41342026
199	0x3d93bbec	0.07213578
200	0x3ef191bf	0.47181508
201	0xbea8e583	-0.32987604
202	0xbe842e50	-0.25816584
203	0xbed8066f	-0.42192408
204	0xbe4fb6dd	-0.202846
205	0xbd035ac2	-0.032068975
206	0xbe07e299	-0.13270034
207	0x3dc06b7c	0.09395501
208	0x3d22c0f8	0.03973481
209	0xbe7fce52	-0.24981049
210	0x3da36369	0.07977945
211	0xbe6d12fd	-0.23151775
212	0x3e2a3979	0.16623487
213	0xbcbac9f3	-0.022801375
214	0xbe5b9093	-0.2144187
215	0x3e90e610	0.28300524
216	0x3e87e846	0.26544398
217	0xbd8b0217	-0.06787508
218	0x3db60ae3	0.08888795
219	0xbd868c82	-0.065697685
220	0xbe438749	-0.19094576
221	0x3db6436a	0.08899577
222	0xbe9209b4	-0.28523028
223	0x3dba6a52	0.0910231
224	0x3d885090	0.06655991
225	0x3cd86863	0.026416963
226	0xbf1c4e0b	-0.61056584
227	0x3cda6fcb	0.026664635
228	0xbc10f7e6	-0.008848166
229	0x3ec37fd7	0.38183472
230	0x3d92cb5d	0.07167695
231	0x3f14afee	0.5808095
232	0x3e1ce0b8	0.15320098
233	0xbdeb8079	-0.114991136
234	0xbf0cc096	-0.5498136
235	0x3e59e238	0.21277702
236	0xbd5ca9aa	-0.05387274
237	0x3dd04236	0.10168879
238	0xbe649d76	-0.22325692
239	0xbe37bc41	-0.17942907
240	0x3d867338	0.06564945
241	0xbe7c7898	-0.24655378
242	0xbf01069b	-0.50400704
243	0xbde72165	-0.112856664
244	0x3e0ce634	0.1375969
245	0x3e94ba1f	0.2904825
246	0xbf2b3a65	-0.6688598
247	0xbd01a899	-0.031654928
248	0xbe4ca37d	-0.19984241
249	0x3d727947	0.05919769
250	0x3e03f172	0.12885073
251	0xbdb1364b	-0.08652934
252	0x3e9bbb72	0.30416447
253	0x3dbba8a3	0.09163024
254	0x3ea933b0	0.33047247
255	0x3e66466a	0.22487798

fcns.2.bias f4 [20]
0	0x3db8b94a	0.09019716
1	0x3e144104	0.14477926
2	0xbded042e	-0.11573063
3	0x3d7e17dc	0.062034473
4	0xbd85806f	-0.065186374
5	0x3df3791f	0.118883364
6	0x3e1b2e74	0.15154439
7	0x3da1afd2	0.07894863
8	0x3e2f6df8	0.17131793
9	0x3d9d5eda	0.07684107
10	0xbc8b8d7c	-0.017035238
11	0x3e5af301	0.21381761
12	0xbe217d63	-0.15770487
13	0x3dad8427	0.08472472
14	0x3e55abdc	0.2086634
15	0xbd9be44a	-0.07611902
16	0xbe60d57e	-0.21956441
17	0x3d9f378d	0.07774267
18	0x3bc6f05d	0.006071134
19	0xbb701b67	-0.0036637427

fcns.3.weight f4 [20, 20]
0	0x3e3aed46	0.18254575
1	0xbe5a50bf	-0.21319865
2	0xbee13a3f	-0.4398975
3	0x3d6eedbc	0.05833219
4	0xbf05ccba	-0.5226551
5	0xbd0b4916	-0.034005247
6	0xbd6acda1	-0.05732501
7	0xbe2ddd93	-0.16979055
8	0xbcc2cdc9	-0.023779767
9	0xbe836a92	-0.25667244
10	0xbe92ee05	-0.2869722
11	0x3df300d1	0.1186539
12	0x3dc532d6	0.09628837
13	0x3e917085	0.28406158
14	0x3e4b39d1	0.19846274
15	0xbd8771d2	-0.066135064
16	0xbd0d2612	-0.034460135
17	0xbe9243a6	-0.28567237
18	0xbeaa78e3	-0.33295354
19	0x3e5c3322	0.2150388
20	0x3e86ba31	0.26313928
21	0xbe480ad8	-0.19535387
22	0x3d8c7a8b	0.06859311
23	0x3e7025dd	0.23451944
24	0xbed8d16b	-0.42347273
25	0x3df15fdd	0.117858626
26	0xbdaad0ec	-0.0834063
27	0xbd364ccf	-0.044506844
28	0xbc1b7a12	-0.009489553
29	0xbe9f8d44	-0.31162465
30	0xbd1120f1	-0.035431806
31	0x3d9dd659	0.07706899
32	0x3dfffb91	0.12499154
33	0xbeaa20b7	-0.33228084
34	0xbcc6b50c	-0.024256252
35	0x3e8d2d29	0.27573517
36	0xbe8f6c99	-0.2801254
37	0xbd05dc33	-0.0326807
38	0x3e85508f	0.26038024
39	0x3da094e6	0.078409
40	0xbe104aff	-0.14091109
41	0x3e9d1c35	0.30685583
42	0xbc9de7c9	-0.019275563
43	0x3d5af975	0.053460557
44	0xbeb4fe99	-0.35350493
45	0xbcc090c6	-0.023506533
46	0xbea0b101	-0.31385043
47	0xbee3a754	-0.444636
48	0x3ebfb09b	0.37439427
49	0xbe310c3d	-0.17289825
50	0xbea245c2	-0.31693846
51	0x3e2318be	0.15927407
52	0x3e2cc3b5	0.16871531
53	0x3be03910	0.00684274
54	0x3dae6eec	0.085172504
55	0x3e760ff4	0.24029523
56	0xbe529656	-0.20565161
57	0xbe948ffa	-0.29016095
58	0x3e0ac078	0.13549984
59	0x3ea54fb7	0.3228738
60	0xbed15fe4	-0.4089347
61	0xbf2a79a1	-0.6659184
62	0xbda5b12c	-0.080904335
63	0x3d2ce983	0.04221488
64	0x3c81ac5d	0.01582926
65	0xbde3d4f5	-0.11124603
66	0x3e100888	0.14065754
67	0x3c65e35e	0.014031259
68	0x3e4c7be6	0.19969139
69	0x3a7af9cc	0.0009573966
70	0x3db89497	0.09012716
71	0x3eeace8c	0.45860708
72	0x3dbb5c04	0.0914841
73	0x3dc1abb2	0.094565764
74	0xbcaa24a6	-0.020769428
75	0xbdff9f27	-0.12481528
76	0xbe936840	-0.28790474
77	0x3ef3336b	0.47500166
78	0xbf061869	-0.52380997
79	0x3e2aabc1	0.16667081
80	0x3e6ec30f	0.23316596
81	0xbe94d1b8	-0.29066253
82	0x3e12e92d	0.14346762
83	0xbe1ede5d	-0.15514512
84	0xbcc0afe0	-0.023521364
85	0xbd9605fd	-0.07325361
86	0xbe9e7ee5	-0.30956188
87	0x3e0f1cbf	0.1397581
88	0x3d8598f9	0.06523318
89	0xbe59cd6e	-0.21269771
90	0xbe64086b	-0.22268836
91	0x3ee4c002	0.4467774
92	0x3ea08051	0.31347898
93	0x3e093e44	0.13402659
94	0x3dd02989	0.10164172
95	0x3d89b920	0.06724763
96	0x3d8d89d3	0.069110535
97	0x3e124ab7	0.14286314
98	0xbe454061	-0.1926284
99	0x3d073078	0.033005208
100	0xbedd7e56	-0.4326045
101	0xbdbed5ca	-0.09318121
102	0x3ef3ccad	0.47617093
103	0x3dd88066	0.10571365
104	0xbe01fdf2	-0.12694529
105	0x3e4b4489	0.19850363
106	0x3d975204	0.0738869
107	0xbe7a010b	-0.2441446
108	0xbd367181	-0.04454184
109	0xbaab68fe	-0.0013077555
110	0xbd789593	-0.06068952
111	0xbebc7ea1	-0.3681536
112	0xbe007616	-0.12545046
113	0x3da43f0c	0.08019838
114	0xbc6158ad	-0.013754052
115	0xbe196faf	-0.1498401
116	0x3e81bac1	0.25337794
117	0xbedbde22	-0.4294291
118	0x3de68796	0.1125633
119	0x3cb704d1	0.022341164
120	0xbd977a9d	-0.073964335
121	0x3e177441	0.14790441
122	0xbd6b0ecc	-0.05738716
123	0xbc47ea5e	-0.012201874
124	0x3d0b048e	0.03393989
125	0x3e35075d	0.1767859
126	0xbd8924b7	-0.06696456
127	0xbe1ce951	-0.15323378
128	0xbb0faed5	-0.0021924276
129	0xbe01358f	-0.12618087
130	0x3d07c0d6	0.033142887
131	0xbd89fe50	-0.067379594
132	0xbe84fc6f	-0.25973842
133	0x3e6a399e	0.22873542
134	0x3f07d2a8	0.5305581
135	0x3f00c47f	0.5029983
136	0xbe82959b	-0.25504765
137	0x3e4d1c42	0.20030311
138	0xbe1a0979	-0.15042676
139	0xbe147920	-0.1449933
140	0xbdb06a24	-0.08613995
141	0x3d28628c	0.041109607
142	0x3ace9d80	0.0015763491
143	0x3cdb709c	0.026787095
144	0xbe599da0	-0.21251535
145	0x3e15690b	0.14590852
146	0x3c0bc400	0.008530617
147	0xbdccc0d9	-0.0999772
148	0xbde5ccdb	-0.11220714
149	0xbe4b7f7b	-0.19872849
150	0xbe09d55b	-0.13460295
151	0x3e31968f	0.1734259
152	0xbe77b063	-0.2418838
153	0xbdd64f60	-0.10464358
154	0x3ebb0f71	0.36535218
155	0x3c877148	0.016533509
156	0xbfa1a453	-1.2628273
157	0x3e03808a	0.12842003
158	0xbcdfe13d	-0.027329082
159	0x3e12b1c6	0.14325628
160	0xbd41b2ab	-0.04728953
161	0xbdd951a5	-0.106112756
162	0x3eb3ae62	0.3509398
163	0x3d357ef7	0.044310536
164	0x3edd93c8	0.4327681
165	0xbd22444a	-0.039615907
166	0x3f0fdee6	0.5619949
167	0xbd8d3575	-0.06894962
168	0x3e22ee4d	0.15911217
169	0x3eafced3	0.34337482
170	0x3e399f94	0.1812728
171	0x3e0b1f5a	0.13586178
172	0x3decd926	0.11564855
173	0x3e59e1f7	0.21277605
174	0x3e889af4	0.2668072
175	0xbe269b08	-0.16270077
176	0xbe81132d	-0.25209942
177	0xbdac21b0	-0.08404863
178	0xbe4381e0	-0.19092512
179	0xbeba747c	-0.36416996
180	0x3dc70dcc	0.097194284
181	0x3e3dafa8	0.18524039
182	0xbeb45e27	-0.35228083
183	0xbf2216a8	-0.6331582
184	0x3e5152e2	0.20441774
185	0xbcc6e67a	-0.024279822
186	0x3ea5380b	0.3226932
187	0xbe63ed01	-0.22258379
188	0xbcca9b1d	-0.024732167
189	0xbea0443f	-0.31302068
190	0xbe222a08	-0.15836346
191	0x3e9551d0	0.2916398
192	0x3e35abe6	0.17741355
193	0x3d3176a4	0.043326035
194	0xbf02d160	-0.5110073
195	0xbe8b221a	-0.27174455
196	0xbe3aa126	-0.18225536
197	0x3dda1db3	0.10650196
198	0xbcbf35ba	-0.023341049
199	0x3b57d386	0.0032932474
200	0x3e0de466	0.13856658
201	0xbe1a8d97	-0.15093075
202	0x3d99f8b0	0.075181365
203	0xbe8299ab	-0.25507864
204	0x3e4d841a	0.20069924
205	0xbe5438ee	-0.20724842
206	0xbedc6c2f	-0.43051288
207	0x3dc8a449	0.0979696
208	0xbda96086	-0.082703635
209	0xbe278990	-0.1636107
210	0xbe6c7f2a	-0.23095384
211	0x3e3a9046	0.18219098
212	0x3e530661	0.20607902
213	0xbeab4838	-0.33453536
214	0x3e312cfa	0.17302313
215	0xbe0f927e	-0.14020726
216	0xbde62bb3	-0.11238804
217	0x3e931118	0.2872398
218	0xbd746d96	-0.05967482
219	0xbdfdd2c0	-0.12393713
220	0x3d8643a4	0.0655587
221	0x3b751311	0.0037395398
222	0x3e35ee71	0.1776674
223	0x3e27f335	0.1640137
224	0x3e7e7d50	0.2485249
225	0xbe607ca3	-0.21922545
226	0x3e04c133	0.12964325
227	0xbd5f4d4f	-0.054517087
228	0x3ebfbfd8	0.37451053
229	0x3eb22db5	0.34800497
230	0xbbdbc365	-0.0067066425
231	0x3eb5c8d0	0.3550477
232	0x3e65021d	0.22364087
233	0x3e5e0111	0.21680094
234	0x3d861f83	0.06548979
235	0x3e4aa35b	0.19788878
236	0xbe4d7460	-0.20063925
237	0x3e59f4a8	0.21284735
238	0xbe9fc5fe	-0.31205744
239	0x3e82a698	0.25517726
240	0xbea573b2	-0.3231483
241	0x3e246a13	0.16056089
242	0x3e4c5ef2	0.19958094
243	0xbdecaf1b	-0.11556836
244	0x3d561222	0.052263387
245	0xbe2dbf32	-0.16967466
246	0x3e9b1e7f	0.30296704
247	0x3cca3325	0.02468259
248	0x3d6fbe32	0.058530994
249	0x3eacdf48	0.337641
250	0xbeaf57e1	-0.34246734
251	0xbe227fa3	-0.15869002
252	0xbb1c36c1	-0.0023836347
253	0x3e290f2c	0.16509694
254	0x3c9650b6	0.018349033
255	0x3e48fa90	0.19626832

fcns.3.bias f4 [20]
0	0xbde99862	-0.11406018
1	0xbe5e75ae	-0.21724579
2	0x3ccd2312	0.025041137
3	0xbe2ba2e3	-0.16761355
4	0x3e2e3e1c	0.1701588
5	0x3e685d81	0.22691919
6	0xbe05aeaf	-0.13054918
7	0x3d0c52d1	0.034258667
8	0x3c9a0c5a	0.018804718
9	0x3cb23284	0.021752603
10	0xbe2a1ca2	-0.16612485
11	0x3c6152f1	0.013752685
12	0xbda04d2c	-0.07827219
13	0x3e1063b5	0.14100535
14	0x3e09c19f	0.13452767
15	0x3d128842	0.035774477
16	0xbdf43107	-0.11923414
17	0xbe06dd63	-0.1317039
18	0xbe5eb7e4	-0.21749836
19	0x3cc19ac7	0.023633374
