spatial_model_both_side_finetunes/model_best.pt (torch_old, 37275 bytes, 62 tensors)

fc1.weight f4 [20, 12]
-0.046349682 0.272326 0.09847125 -0.011046444 -0.04625002 0.20797025 -0.021112353 -0.12742577
-0.0059441617 -0.06788548 0.1305743 0.19249377 -0.14044492 -0.05601532 0.087911084 0.11170663
0.089342505 0.24463323 -0.118926145 0.06586934 0.07535315 -0.32984668 -0.040416382 0.11376344
0.23517594 -0.2785646 0.04330072 -0.27501646 0.054542102 -0.010935953 -0.07942661 -0.18432848
0.23680376 -0.07110397 0.024755348 -0.24877533 -0.060068768 -0.11364128 -0.077184714 0.19509825
-0.13442963 -0.15794723 0.19271411 -0.14432068 0.27440107 -0.14821842 0.13379638 -0.025718791
-0.22947113 0.05698557 -0.2448747 0.042718124 0.25991872 -0.04237941 0.14064822 -0.16485554
0.18704839 0.20126912 0.18426535 0.08700659 0.16152388 0.103534386 -0.21173473 -0.12136839
-0.14253342 -0.18067023 -0.089519456 -0.20390135 -0.07647653 0.23056732 0.26635405 0.093669005
-0.10118872 -0.11532038 -0.033384215 0.25578138 0.19227327 0.105807215 -0.13677754 -0.0802802
0.006827958 0.20811397 0.27390024 0.29751188 0.11187223 0.15872692 0.24310765 0.07671806
-0.28034356 0.04583173 0.10841879 -0.13164355 -0.09674513 0.07940946 -0.1537202 -0.2914506
0.120430276 -0.20436354 0.27287745 -0.11063984 0.06948397 0.122372836 -0.059443712 -0.023872418
0.08689152 -0.20338143 -0.052921332 0.24527697 0.24354802 -0.18802714 0.19966805 0.21339202
0.0729464 -0.15686856 -0.2289905 -0.0069322935 -0.018237768 -0.13845505 0.20205434 0.111158825
0.24539913 -0.2123745 -0.2465177 0.0032577508 -0.271078 0.11765073 -0.2449421 -0.038174033
-0.19950944 0.20857657 -0.0066495542 -0.089513116 -0.2776475 -0.1687417 0.039137617 -0.061540943
-0.102996826 0.13903324 -0.215285 -0.032252736 0.27825317 0.15397526 0.27248672 -0.03745187
0.19930194 0.06954386 0.275502 0.160307 0.0841422 -0.08307587 -0.15120739 -0.033090465
-0.29961306 0.07155049 -0.003592145 0.028197095 0.23742329 -0.14284834 -0.21547417 -0.08217731
0.29336452 0.25396183 -0.23299469 0.06680528 -0.19102441 -0.11726163 -0.1442171 0.24466383
-0.13115063 -0.11836655 -0.054323703 -0.15093651 -0.17611907 -0.08623516 0.11842602 0.065288626
-0.22349776 -0.13604885 0.015002755 0.22080572 0.061544638 0.10280862 0.030523581 0.060336016
0.11758064 -0.16916542 -0.0761158 -0.054413896 0.054092433 0.026284143 -0.10185019 -0.060882628
0.1207682 -0.25173348 -0.103380725 -0.09625297 -0.09281151 0.19593053 -0.047357053 -0.21555273
0.021845626 -0.22647657 -0.12321236 0.1658793 -0.010464754 -0.2337249 0.1488745 -0.21633363
0.081911914 -0.35807183 0.10168594 -0.122570686 0.10484214 -0.15452634 0.079780586 0.12589607
0.26736918 0.15432714 0.13795318 -0.06567468 -0.21644413 0.16383496 -0.05994227 0.121591575
0.23299828 -0.35619617 0.054923426 0.22820583 -0.16697782 0.24697083 0.03658492 -0.002706303
-0.30027875 0.14824201 0.16224572 -0.11458309 -0.17440629 0.06867956 0.24437623 -0.22419357
00000000: 2ad9 3dbd 506e 8b3e 4bab c93d 25fc 34bc
00000010: a970 3dbd 27f6 543e d0f3 acbc e77b 02be
00000020: 3ec7 c2bb 8b07 8bbd 45b5 053e 161d 453e
00000030: cbd0 0fbe 5270 65bd ba0a b43d 72c6 e43d
00000040: 34f9 b63d 2281 7a3e 8d8f f3bd 81e6 863d
00000050: c152 9a3d aae1 a8be a68b 25bd cefc e83d
00000060: f6d1 703e 05a0 8ebe 195c 313d f5ce 8cbe
00000070: 8a67 5f3d b62c 33bc 6baa a2bd 9bc0 3cbe
00000080: af7c 723e f59e 91bd bacb ca3c f6be 7ebe
00000090: ab0a 76bd c2bc e8bd 0513 9ebd d6c7 473e
000000a0: eca7 09be ebbc 21be d956 453e cdc8 13be
000000b0: 4c7e 8c3e 92c6 17be eb01 093e 37b0 d2bc
000000c0: 7bfa 6abe b369 693d 6fc0 7abe 33f9 2e3d
000000d0: 1114 853e 0896 2dbd 1606 103e e4cf 28be
000000e0: 9d89 3f3e 7e19 4e3e 0eb0 3c3e 8330 b23d
000000f0: 8466 253e d609 d43d fdd0 58be fe8f f8bd
00000100: 48f4 11be 9e01 39be fa55 b7bd 84cb 50be
00000110: ba9f 9cbd d719 6c3e 8f5f 883e 89d5 bf3d
00000120: 083c cfbd 172d ecbd e3bd 08bd c7f5 823e
00000130: 49e3 443e 74b1 d83d 690f 0cbe f269 a4bd
00000140: 10bd df3b d41b 553e a73c 8c3e 7a53 983e
00000150: 451d e53d 4f89 223e 36f1 783e 5c1e 9d3d
00000160: 3189 8fbe 0dba 3b3d ac0a de3d 91cd 06be
00000170: 5022 c6bd 6da1 a23d d468 1dbe 0339 95be
00000180: 26a4 f63d ad44 51be 98b6 8b3e 2497 e2bd
00000190: 9d4d 8e3d 9c9e fa3d 407b 73bd 1790 c3bc
000001a0: 2ef4 b13d 3943 50be 0ac4 58bd e329 7b3e
000001b0: a764 793e 308a 40be c875 4c3e 7083 5a3e
000001c0: ec64 953d 27a2 20be 7c7c 6abe 4b28 e3bb
000001d0: 5f67 95bc 29c7 0dbe 55e7 4e3e 3da7 e33d
000001e0: e949 7b3e b378 59be 236f 7cbe fd7f 553b
000001f0: bcca 8abe def2 f03d 1ad2 7abe 605c 1cbd
00000200: 344c 4cbe 1995 553e 81e4 d9bb a752 b7bd
00000210: d027 8ebe a0ca 2cbe c44e 203d 5b12 7cbd
00000220: 00f0 d2bd bb5e 0e3e ac73 5cbe 721b 04bd
00000230: 3377 8e3e b1ab 1d3e 6183 8b3e 2267 19bd
00000240: cf15 4c3e 036d 8e3d 990e 8d3e 8527 243e
00000250: bf52 ac3d af23 aabd 1cd6 1abe de89 07bd
00000260: e266 99be 1089 923d 316a 6bbb 98fd e63c
00000270: 171f 733e d646 12be 43a5 5cbe 944c a8bd
00000280: e033 963e 4907 823e 2996 6ebe 35d1 883d
00000290: e79b 43be de26 f0bd a6ad 13be 2889 7a3e
000002a0: 5a4c 06be 296a f2bd 8882 5ebd 1a8f 1abe
000002b0: 8f58 34be 0f9c b0bd 5789 f23d 0bb6 853d
000002c0: 99dc 64be 6450 0bbe 1ece 753c e51a 623e
000002d0: 3b16 7c3d 538d d23d 970c fa3c e622 773d
000002e0: 1ece f03d b339 2dbe 9ae2 9bbd 1be1 5ebd
000002f0: 0790 5d3d d851 d73c d596 d0bd 1060 79bd
00000300: 5155 f73d 36e3 80be 46b9 d3bd 4720 c5bd
00000310: f613 bebd 03a2 483e 78f9 41bd dbb9 5cbe
00000320: 99f5 b23c 79e9 67be c356 fcbd 43dc 293e
00000330: 5c74 2bbc 9555 6fbe 8f72 183e 9086 5dbe
00000340: 6fc1 a73d 3155 b7be b840 d03d 5706 fbbd
00000350: 7ab7 d63d 273c 1ebe 0164 a33d e6ea 003e
00000360: 9de4 883e ef07 1e3e 9943 0d3e 7280 86bd
00000370: 88a3 5dbe 5ac4 273e 0786 75bd 0105 f93d
00000380: 1a97 6e3e 585f b6be 63f7 603d caae 693e
00000390: 3cfc 2abe ece5 7c3e 12da 153d 3b5c 31bb
000003a0: 23be 99be c1cc 173e be23 263e 8aaa eabd
000003b0: 9097 32be dfa7 8c3d c33d 7a3e 0093 65be

fc1.bias f4 [20]
0.013792348 0.19909273 -0.22934097 -0.03643336 -0.068338476 -0.12748113 -0.030669587 -0.11986058
-0.027816024 0.09157921 -0.2728234 0.21073247 0.14069363 0.077019386 -0.12731394 0.18908203
0.25319278 0.15484674 -0.16782984 -0.2881152
00000000: 4df9 613c f7de 4b3e 5cd8 6abe 263b 15bd
00000010: 0bf5 8bbd 6a8a 02be c93e fbbc 7779 f5bd
00000020: 6ede e3bc e18d bb3d 82af 8bbe 41ca 573e
00000030: fe11 103e 57bc 9d3d 965e 02be b89e 413e
00000040: 7ca2 813e 2590 1e3e 96db 2bbe d683 93be

fc2.weight f4 [20, 20]
-0.09396658 -0.0023956657 0.053007916 -0.021942873 -0.20209154 0.044730425 -0.36340272 0.19854468
0.18680407 0.17949905 -0.067843534 0.27820262 0.039225664 0.12843302 0.004532078 0.15645245
-0.09797874 0.18060072 0.1394392 -0.002069887 0.25161934 0.1217872 -0.21199626 -0.038617823
0.11363122 -0.34345245 -0.07248565 -0.067444675 0.08583249 -0.031975683 -0.25887537 0.022405902
-0.0825316 0.06883197 0.070277855 0.24017847 -0.17619002 0.074703015 0.14478971 0.20718154
0.037536975 0.11149105 0.26887253 0.08250357 0.08216376 0.10284174 -0.44941154 0.2866026
-0.08104564 0.19707166 0.33563942 -0.12116007 -0.21439202 0.18638188 -0.040754516 -0.13438068
-0.09822105 -0.05975195 -0.25693586 -0.0693437 0.018609567 0.22930697 -0.14365943 -0.11100462
0.0982262 -0.2823992 0.08607905 0.12469355 -0.16950744 -0.03062888 -0.28642237 0.29333863
-0.12541468 0.21947797 0.26806152 -0.092624426 0.102697104 0.2221902 -0.020653602 -0.06472255
0.14401579 0.07121467 0.19505872 -0.04250922 -0.2126152 0.3218522 0.070710234 0.3139479
-0.11212757 -0.16716117 0.33153522 -0.065519765 -0.02102476 -0.1903147 -0.26794264 -0.12634122
0.13362677 -0.18614846 -0.21760488 -0.16524647 0.30775705 -0.09504752 -0.23480497 -0.071322694
-0.050975006 0.002873576 -0.19496249 -0.0088944165 -0.18071452 0.16473398 -0.0615613 -0.018441405
0.13564695 0.23913643 0.33066455 0.1470698 -0.09337593 0.17639072 0.10491056 0.1813241
-0.27909166 0.03748101 -0.08624697 -0.29210162 0.13019009 -0.036145873 0.116480544 -0.07168413
0.10592962 -0.35625997 -0.039327566 -0.006329275 -0.21834746 -0.2898195 0.007881314 -0.19822043
-0.06959399 -0.30678016 0.23021795 0.08104003 0.06354067 -0.009168019 0.093874775 -0.23845996
-0.23503539 -0.14157905 0.06067319 -0.040304758 0.17176677 -0.22721682 0.11064503 -0.007788515
0.18304965 0.090214655 -0.14100847 0.12995358 -0.3547593 -0.23461312 0.1165238 -0.124251105
0.2982963 0.22569445 0.101210915 0.14634456 0.2743897 -0.18953294 -0.20818157 0.17762765
0.21203402 -0.06973591 -0.0100369835 0.24419615 0.22255038 0.09673617 0.21163665 -0.10947659
0.0010783367 0.081124775 0.2649939 -0.02422441 -0.30779997 -0.042361278 0.15965974 -0.19955699
-0.19324546 0.15709649 0.060340945 0.29581988 -0.43612087 -0.24121338 0.18766569 -0.26048306
-0.015495858 -0.27131835 -0.31671613 0.0027343114 0.035719734 -0.33725974 -0.22731934 0.106132105
-0.06759455 0.017851064 0.22420062 0.3017643 0.29012737 -0.19256966 0.10628554 -0.17094229
-0.25619948 -0.23554444 0.11934878 0.025220614 0.2904643 -0.012640567 0.04997636 0.27916282
0.051557407 0.08475705 0.11317326 0.35797602 0.29694796 -0.05986634 -0.027050223 -0.1387655
0.26113462 0.0050401534 0.32763937 -0.21355003 -0.17172472 0.17277381 -0.31445816 0.28167364
0.20480634 0.27667034 -0.092020914 0.09806698 -0.07199501 0.20743617 0.052147955 0.0679374
-0.07814022 0.15883148 0.3079136 0.20574285 -0.052847244 -0.18956457 0.10148083 -0.022885015
-0.13802621 -0.2501996 0.086670145 -0.25590232 0.22561294 -0.18699749 0.07078391 -0.024997398
00000000: 8d71 c0bd 9a00 1dbb d41e 593d 8ac1 b3bc
00000010: 16f1 4ebe 4037 373d ec0f babe 4c4f 4b3e
00000020: 9149 3f3e 99ce 373e 8df1 8abd 9370 8e3e
00000030: 17ab 203d f283 033e d381 943b 1235 203e
00000040: 14a9 c8bd 65ef 383e 26c9 0e3e f1a6 07bb
00000050: 40d4 803e 916b f93d 8c15 59be b92d 1ebd
00000060: 7cb7 e83d 00d9 afbe 5b73 94bd 6f20 8abd
00000070: f2c8 af3d eff8 02bd 508b 84be 958c b73c
00000080: 5406 a9bd c7f7 8c3d d6ed 8f3d 58f1 753e
00000090: 286b 34be e5fd 983d c143 143e 6627 543e
000000a0: 5fc0 193d 6b55 e43d a9a9 893e a2f7 a83d
000000b0: 7945 a83d b19e d23d 4519 e6be 93bd 923e
000000c0: 42fb a5bd 27cd 493e eed8 ab3e c522 f8bd
000000d0: 9589 5bbe e4da 3e3e 35ee 26bd 179b 09be
000000e0: 1e28 c9bd 76be 74bd 198d 83be 1204 8ebd
000000f0: 1773 983c 72cf 6a3e 751b 13be 6456 e3bd
00000100: d12a c93d a196 90be 374a b03d 555f ff3d
00000110: 5c93 2dbe 6be9 fabc f4a5 92be 7b30 963e
00000120: b56c 00be d5be 603e 5c3f 893e e0b1 bdbd
00000130: dc52 d23d d485 633e be31 a9bc 428d 84bd
00000140: e078 133e ffd8 913d 79bd 473e 261e 2ebd
00000150: cdb7 59be d0c9 a43e 87d0 903d c7bd a03e
00000160: 24a3 e5bd 4c2c 2bbe fcbe a93e 3a2f 86bd
00000170: 1e3c acbc dbe1 42be c72f 89be 985f 01be
00000180: 75d5 083e b49d 3ebe d0d3 5ebe 5f36 29be
00000190: 5592 9d3e 46a8 c2bd b770 70be a211 92bd
000001a0: 2bcb 50bd 9b52 3c3b 3fa4 47be e3b9 11bc
000001b0: 3a0d 39be 06b0 283e b427 7cbd 6e12 97bc
000001c0: 09e7 0a3e 2ee0 743e dd4c a93e 7799 163e
000001d0: e13b bfbd c59f 343e 59db d63d 06ad 393e
000001e0: 1ae5 8ebe b085 193d 40a2 b0bd 588e 95be
000001f0: 8d50 053e b20d 14bd 5a8d ee3d 21cf 92bd
00000200: a1f1 d83d b567 b6be f115 21bd cf65 cfbb
00000210: 7a96 5fbe 3963 94be a020 013c 4cfa 4abe
00000220: 4b87 8ebd 4a12 9dbe 41be 6b3e 51f8 a53d
00000230: 9c21 823d 7535 16bc 6b41 c03d d92e 74be
00000240: 1ead 70be 19fa 10be 7384 783d 9a16 25bd
00000250: a1e3 2f3e 87ab 68be dd99 e23d cd36 ffbb
00000260: 5e71 3b3e 76c2 b83d 8664 10be 8d12 053e
00000270: 03a3 b5be 6c3e 70be 08a4 ee3d 5d77 febd
00000280: 4bba 983e 721c 673e ab47 cf3d 59db 153e
00000290: cf7c 8c3e ec14 42be 8d2d 55be 06e4 353e
000002a0: 721f 593e b3d1 8ebd 2972 24bc 8e0e 7a3e
000002b0: 3fe4 633e 9d1d c63d 47b7 583e 4335 e0bd
000002c0: fa56 8d3a bf24 a63d 48ad 873e 4572 c6bc
000002d0: f597 9dbe 0583 2dbd d87d 233e ab58 4cbe
000002e0: 23e2 45be e7dd 203e 1128 773d b475 973e
000002f0: 3c4b dfbe a400 77be 6f2b 403e 095e 85be
00000300: 57e2 7dbc 3dea 8abe 9e28 a2be 2232 333b
00000310: db4e 123d 4fad acbe 67c6 68be ca5b d93d
00000320: 036f 8abd 653c 923c d994 653e da80 9a3e
00000330: 938b 943e fb30 45be 3cac d93d 7f0b 2fbe
00000340: 942c 83be 9032 71be 226d f43d 769b ce3c
00000350: bdb7 943e 611a 4fbc 03b4 4c3d 6eee 8e3e
00000360: dc2d 533d 1b95 ad3d 62c7 e73d a248 b73e
00000370: 9009 983e 6836 75bd 6e98 ddbc 8b18 0ebe
00000380: 70b3 853e df27 a53b 59c0 a73e dcac 5abe
00000390: 9bd8 2fbe 9eeb 303e a900 a1be 8737 903e
000003a0: c1b8 513e bca7 8d3e 7675 bcbd 57d7 c83d
000003b0: 1f72 93bd 266a 543e 1899 553d c322 8b3d
000003c0: fb07 a0bd b8a4 223e daa6 9d3e 41ae 523e
000003d0: 5a76 58bd 371d 42be 2ed5 cf3d 5b79 bbbc
000003e0: be56 0dbe 291a 80be 1e80 b13d a105 83be
000003f0: 1407 673e 457c 3fbe 28f7 903d 58c7 ccbc

fc2.bias f4 [20]
-0.11821106 -0.030076483 0.04512919 -0.081922434 0.03171029 0.19393688 -0.095645025 0.17867465
0.24256636 0.012670212 0.22253 -0.0649078 0.10411221 0.28666362 -0.026522668 0.18354236
0.28556263 0.102017455 -0.13683905 -0.013623165
00000000: a418 f2bd f562 f6bc 63d9 383d f3c6 a7bd
00000010: a6e2 013d 6497 463e 8ae1 c3bd 7df6 363e
00000020: 5163 783e b996 4f3c e8de 633e 61ee 84bd
00000030: c838 d53d 93c5 923e 1146 d9bc 87f2 3b3e
00000040: 4435 923e 87ee d03d 891f 0cbe b233 5fbc

fc3.weight f4 [5, 20]
-0.14831856 0.08963199 -0.022263626 0.21365003 -0.24307626 0.21965839 -0.25566408 -0.14549704
0.06046506 -0.1872579 -0.0039697587 0.0797788 -0.20345937 -0.12847921 0.17323218 0.11627992
-0.16388506 -0.04844652 0.07553056 -0.12507004 -0.16988322 -0.24524379 0.039126694 -0.23124297
-0.02821508 0.07037646 -0.12710588 -0.14325814 -0.12167409 0.17783387 -0.15045401 -0.22639893
-0.17045377 -0.18419433 0.0877193 0.16777867 0.046963487 0.14863212 0.1892208 0.11304659
-0.18453605 0.048580103 -0.11615919 -0.07487743 -0.08708276 -0.2356438 0.183338 0.03225685
-0.1361426 -0.19519834 -0.17036638 -0.035226114 -0.07018871 0.14121516 0.029872747 -0.05264376
-0.12838763 0.033269666 -0.256243 0.109319806 0.1928871 0.025095034 0.12660398 -0.28081107
-0.046111718 -0.23605299 0.02309334 0.16477719 0.008037097 -0.17564996 -0.06280599 -0.29048178
-0.0006187591 -0.2083419 -0.2618727 0.15944064 0.046152387 -0.2890857 -0.08764584 -0.1686105
-0.2740382 -0.022134123 -0.05196071 -0.24585453 -0.18550146 -0.24271381 -0.15312718 0.10749797
-0.17809826 0.18672802 0.19209686 -0.040082607 0.20645516 -0.033895638 0.1674032 0.012617743
-0.12021098 0.087075904 0.026713062 -0.18722722
00000000: d2e0 17be fa90 b73d 3562 b6bc 13c7 5a3e
00000010: fce8 78be 21ee 603e 67e6 82be 2dfd 14be
00000020: 36aa 773d 89c0 3fbe c014 82bb 1163 a33d
00000030: a757 50be 0e90 03be c763 313e 2b24 ee3d
00000040: 7cd1 27be dc6f 46bd c4af 9a3d 5c12 00be
00000050: def5 2dbe 3021 7bbe 5043 203d f5ca 6cbe
00000060: 5023 e7bc 8921 903d 0b28 02be 43b2 12be
00000070: 4430 f9bd 151a 363e 9e10 1abe 1fd5 67be
00000080: 6f8b 2ebe 709d 3cbe 2da6 b33d 2cce 2b3e
00000090: c95c 403d 0533 183e 19c3 413e f884 e73d
000000a0: 05f7 3cbe eefb 463d dfe4 edbd 5759 99bd
000000b0: 7258 b2bd 9c4c 71be f5bc 3b3e c21f 043d
000000c0: f768 0bbe 13e2 47be 8674 2ebe 4249 10bd
000000d0: 19bf 8fbd b59a 103e b1b7 f43c fca0 57bd
000000e0: 0c78 03be c645 083d 4832 83be 10e3 df3d
000000f0: 3284 453e 1a94 cd3c 79a4 013e 78c6 8fbe
00000100: a4df 3cbd e0b7 71be 3f2e bd3c 5abb 283e
00000110: 07ae 033c 95dd 33be 6da0 80bd 07ba 94be
00000120: 3834 22ba 9457 55be 2e14 86be 6844 233e
00000130: 490a 3d3d 0a03 94be aa7f b3bd 3ba8 2cbe
00000140: bc4e 8cbe 9f52 b5bc c1d4 54bd 4ac1 7bbe
00000150: 18f4 3dbe f889 78be 5fcd 1cbe e527 dc3d
00000160: 645f 36be a135 3f3e 0ab5 443e a92d 24bd
00000170: fb68 533e 27d6 0abd bf6b 2b3e a6ba 4e3c
00000180: 2d31 f6bd da54 b23d 5ad5 da3c 7eb8 3fbe

fc3.bias f4 [5]
-0.101424746 -0.040224966 0.14322595 -0.043586962 -0.18008478
00000000: c7b7 cfbd efc2 24bd d3a9 123e 3e88 32bd
00000010: 2568 38be

fcns.0.weight f4 [20, 20]
0.08334882 -0.0922584 0.16440834 -0.11819071 -0.07428585 -0.12048882 -0.11674589 -0.030288907
-0.1833505 -0.1819817 0.07550552 0.21060112 0.15345566 0.23626968 0.122315735 -0.029317273
0.06794177 -0.12751946 -0.064482294 0.050002 0.0541619 -0.115517884 -0.17869565 -0.15230438
-0.05715297 0.06257302 -0.20736004 0.010033998 0.19601108 -0.01757468 -0.09430576 -0.24857186
0.33361766 -0.20264898 -0.06452393 0.037276722 0.18887092 -0.061669245 0.14184076 0.010133913
0.05768097 -0.20324971 0.10153596 0.27042174 0.06856047 0.050067984 0.15584429 -0.005644679
-0.16374223 0.044227146 0.042924635 0.11877913 -0.042716224 0.051372584 -0.18376043 0.14389654
-0.002855417 -0.11073798 0.0026507694 -0.07624717 -0.064096406 -0.011805243 -0.007932136 -0.068342835
-0.055688735 -0.016921706 0.1912996 -0.15033287 0.2616344 -0.0070434064 0.01712196 -0.19541043
-0.101002835 0.11844967 0.12455687 -0.09845654 -0.082186595 -0.06847326 -0.10185146 -0.11359295
-0.07057281 -0.08076016 -0.11783014 0.11847611 0.008270126 0.08938321 0.08859527 0.036057897
0.0068900604 -0.14558733 -0.19311078 0.01833284 0.26689032 0.093941376 -0.03535376 -0.025178248
0.21330798 0.079602145 -0.06577211 0.016293522 0.22909452 0.07907743 0.050652765 0.058567755
0.068179324 0.14967294 -0.130863 -0.09655881 0.042154837 0.10274656 0.07686865 0.073279135
-0.124835186 0.02048273 0.1668504 -0.1285596 -0.18825357 -0.048965182 0.006392964 -0.08460705
-0.056083567 -0.12492461 -0.008530521 -0.0075798915 0.17375611 -0.24497952 -0.200504 0.10262359
-0.05108034 0.13132636 0.1717417 -0.10620596 -0.011355218 0.08428237 -0.19532971 -0.18170619
-0.11856474 -0.050995182 -0.09723896 -0.077879086 0.08332734 -0.22168432 -0.19850938 0.03433104
-0.06181962 0.025528276 0.102914415 -0.0858288 0.18701015 -0.061698683 0.045823444 -0.18145514
-0.18684812 0.11460643 0.17040561 -0.17200272 -0.048690103 0.10592162 -0.05947843 -0.16296142
-0.041908853 0.15319523 -0.124575846 0.09765894 0.10630147 0.27207282 -0.11725087 -0.15525404
0.24651706 0.044080853 0.16624603 -0.040084172 0.02255384 0.006726443 0.022352496 -0.1699315
-0.18791947 0.099728405 0.0076587284 0.16282263 0.05039489 0.039300933 -0.04476027 0.14493473
0.08277117 0.0016169741 0.1802085 -0.18120557 0.05695823 -0.045779865 0.21527316 0.16920957
0.077531576 -0.14807034 0.058867756 -0.13008101 0.15484533 -0.1031351 -0.06500177 -0.16946994
0.12649222 0.23219709 0.09402785 0.07145041 0.08079681 -0.0838041 -0.18999545 0.07151664
-0.20946312 0.08735986 -0.10598152 0.17003958 -0.07074695 -0.02068009 -0.12146908 0.16471235
0.0868594 -0.21197914 0.11092382 -0.052270208 0.21808434 -0.058552455 0.16480836 -0.043896236
0.07516008 0.06981393 -0.017741771 0.19141775 -0.019350357 0.011689113 0.024925943 -0.1698267
0.2426434 -0.038507733 0.12648977 0.16371515 -0.09153285 0.007612827 0.13594775 0.1377052
0.16945304 -0.12939572 0.030043999 0.01264024 -0.040653292 -0.23980336 0.012330075 -0.18875955
0.070045196 -0.15187009 -0.11532732 0.12935401 -0.13270326 -0.082874864 0.016802175 -0.085288115
00000000: c9b2 aa3d f9f1 bcbd a95a 283e f90d f2bd
00000010: 2e23 98bd d8c2 f6bd 7818 efbd 7120 f8bc
00000020: 3cc0 3bbe 6959 3abe a3a2 9a3d d2a7 573e
00000030: 7b23 1d3e aef0 713e ac80 fa3d c72a f0bc
00000040: 0e25 8b3d 7694 02be 4b0f 84bd e6ce 4c3d
00000050: ded8 5d3d a494 ecbd fefb 36be aef5 1bbe
00000060: 3c19 6abd 4926 803d 3156 54be a365 243c
00000070: 21b7 483e c6f8 8fbc 6123 c1bd 9f89 7ebe
00000080: efcf aa3e 3783 4fbe 1f25 84bd 7aaf 183d
00000090: 6167 413e e498 7cbd b43e 113e b608 263c
000000a0: e142 6c3d b120 50be 16f2 cf3d b874 8a3e
000000b0: 6f69 8c3d 1614 4d3d a595 1f3e 00f7 b8bb
000000c0: 0bac 27be 8627 353d bed1 2f3d 7942 f33d
000000d0: 35f7 2ebd 0f6c 523d b22b 3cbe 9d59 133e
000000e0: f321 3bbb 98ca e2bd 88b8 2d3b 7a27 9cbd
000000f0: fa44 83bd c76a 41bc caf5 01bc 54f7 8bbd
00000100: df19 64bd 649f 8abc 0be4 433e dcf0 19be
00000110: f2f4 853e 60cc e6bb 5a43 8c3c ac19 48be
00000120: 93da cebd be95 f23d ac17 ff3d 95a3 c9bd
00000130: 7251 a8bd b53b 8cbd 8097 d0bd 6ca3 e8bd
00000140: 7a88 90bd 9565 a5bd ee50 f1bd 9aa3 f23d
00000150: 6c7f 073c 8b0e b73d 7071 b53d 72b1 133d
00000160: 04c6 e13b d814 15be d5be 45be c12e 963c
00000170: d9a5 883e 5664 c03d 1bcf 10bd 9d42 cebc
00000180: 686d 5a3e 7306 a33d 87b3 86bd fe79 853c
00000190: c197 6a3e 59f3 a13d 4679 4f3d bee4 6f3d
000001a0: 9aa1 8b3d dd43 193e f300 06be a0c0 c5bd
000001b0: 8daa 2c3d ca6c d23d 506d 9d3d 5f13 963d
000001c0: 97a9 ffbd 66cb a73c d5da 2a3e 21a5 03be
000001d0: 8bc5 40be b78f 48bd 127c d13b 7646 adbd
000001e0: e2b7 65bd 79d8 ffbd 99c3 0bbc bd60 f8bb
000001f0: 1fed 313e e9db 7abe ec50 4dbe 512c d23d
00000200: 9e39 51bd 6b7a 063e 0edd 2f3e 8382 d9bd
00000210: 3c0b 3abc 3c9c ac3d 8304 48be 3011 3abe
00000220: 12d2 f2bd 53e0 50bd 3825 c7bd 127f 9fbd
00000230: 86a7 aa3d 3701 63be 0b46 4bbe b49e 0c3d
00000240: 9236 7dbd ad20 d13c cbc4 d23d 03c7 afbd
00000250: 977f 3f3e c2b7 7cbd 5db1 3b3d 60cf 39be
00000260: 1d55 3fbe c7b6 ea3d cf7e 2e3e 7b21 30be
00000270: 466f 47bd 6fed d83d a79f 73bd 5cdf 26be
00000280: 9ea8 2bbd 36df 1c3e 9f21 ffbd 6901 c83d
00000290: 96b4 d93d 214d 8b3e 3921 f0bd eafa 1ebe
000002a0: f86e 7c3e 208e 343d 663c 2a3e 4d2f 24bd
000002b0: d5c2 b83c 7e69 dc3b 951c b73c 8602 2ebe
000002c0: f66d 40be 683e cc3d 12f6 fa3b faba 263e
000002d0: df6a 4e3d 04fa 203d 8b56 37bd c569 143e
000002e0: ee83 a93d a6f0 d33a 9488 383e f48d 39be
000002f0: 084d 693d ab83 3bbd 9170 5c3e 4645 2d3e
00000300: e0c8 9e3d c09f 17be 511f 713d f533 05be
00000310: c68f 1e3e 7f38 d3bd a61f 85bd 8789 2dbe
00000320: 2d87 013e 13c5 6d3e ac91 c03d 9854 923d
00000330: cc78 a53d 7ca1 abbd 2b8e 42be 5177 923d
00000340: 807d 56be bae9 b23d d70c d9bd db1e 2e3e
00000350: c7e3 90bd 4b69 a9bc c8c4 f8bd 5baa 283e
00000360: 57e3 b13d 0f11 59be 072c e33d 4919 56bd
00000370: 8051 5f3e b3d4 6fbd 86c3 283e 8acc 33bd
00000380: 87ed 993d 9bfa 8e3d 3157 91bc 0403 443e
00000390: a484 9ebc b283 3f3c 7e31 cc3c 0de7 2dbe
000003a0: 8377 783e 49ba 1dbd 8986 013e f2a4 273e
000003b0: 9375 bbbd 0575 f93b e335 0b3e 9802 0d3e
000003c0: 1985 2d3e 5080 04be d51e f63c 0219 4f3c
000003d0: 1184 26bd 038f 75be 1504 4a3c 2f4a 41be
000003e0: db73 8f3d d583 1bbe bb30 ecbd 6175 043e
000003f0: 5de3 07be 4cba a9bd b7a4 893c 89ab aebd

fcns.0.bias f4 [20]
0.017709458 -0.09263344 0.051209748 -0.21722275 0.2188357 -0.026316507 -0.12289523 -0.08109952
0.08196978 -0.16421963 -0.01312307 -0.076015525 -0.07906546 -0.09416023 -0.1712839 -0.10282467
0.19180873 0.221421 -0.0739377 -0.03669441
00000000: 6d13 913c 9ab6 bdbd 50c1 513d a46f 5ebe
00000010: 7716 603e b795 d7bc 7fb0 fbbd 8117 a6bd
00000020: c6df a73d 3129 28be 2502 57bc 07ae 9bbd
00000030: 12ed a1bd 14d7 c0bd 0c65 2fbe be95 d2bd
00000040: 8269 443e 30bc 623e a66c 97bd e14c 16bd

fcns.1.weight f4 [20, 20]
-0.10894218 -0.099466264 0.11903528 -0.009147416 -0.116294615 0.049407892 -0.011142618 -0.23541638
0.09557264 0.048276685 0.15540849 -0.11082692 -0.07337083 -0.20655099 -0.16779973 0.0010352527
-0.021807022 0.11489628 0.073625036 -0.04781345 -0.08328515 0.043359775 -0.07113789 0.2053726
0.13750166 -0.015532086 0.0014804228 0.2564311 0.17334986 -0.18489555 0.14742303 0.008603264
0.08575578 0.032213803 0.10190401 0.109941915 -0.14310238 -0.13854526 -0.0022405423 0.1774483
0.12074794 0.06540744 -0.15168072 0.22818233 -0.06752468 0.1913518 -0.09046251 0.17535278
0.10936104 0.08815296 -0.062297225 -0.115041964 0.09389909 -0.1641628 0.20377159 -0.19226125
-0.036864784 -0.0015365541 0.16548137 0.0802693 -0.028726472 0.18778306 0.0067529636 0.11986285
-0.23980413 -0.13044561 0.13423769 0.14234771 -0.057763826 -0.22439471 0.019372664 -0.1495365
-0.1379104 -0.16695108 0.0011415904 0.12928724 0.035316903 0.10019158 0.049589124 -0.20374392
0.14794345 0.02216571 0.034261394 -0.14979538 -0.21579482 0.23215245 -0.13860853 0.16722459
0.1550173 -0.037005186 0.24429448 0.017574895 0.13718612 0.009779725 0.021574285 -0.034079537
-0.0067832926 0.1288133 0.033951063 -0.025015002 -0.08783867 -0.20592704 -0.23495296 -0.18473867
0.010774988 -0.15081462 0.03372265 0.062003657 -0.033643413 -0.19705138 0.05898926 0.16937092
-0.18878357 0.06489253 0.17662108 0.11626241 0.14128195 0.009245214 0.017169738 -0.10647652
0.03863124 -0.12675427 -0.14794597 -0.050135978 -0.105013505 -0.09423621 -0.1000298 -0.17941578
-0.068558335 0.037376124 0.078014374 -0.0021676465 0.07831559 0.023859976 0.23017094 0.10749617
-0.16933042 -0.15693699 -0.1214471 0.16936778 -0.0064151874 -0.11966421 0.11034192 0.06671045
-0.07419162 0.05811942 0.12278484 -0.12094015 0.13162969 -0.14169803 -0.0008782196 -0.18207467
0.09675912 0.1431512 -0.057569176 0.171759 -0.19604923 -0.013320126 0.02465022 -0.11312402
-0.124753155 -0.05055361 -0.08426454 0.13135196 -0.12547107 -0.09606954 -0.043423157 0.07334096
-0.11040004 -0.13186996 0.23772816 0.037148222 -0.06854562 0.014530546 0.08450414 -0.021658646
0.18199682 0.064178996 -0.17170243 0.018184667 0.2195314 -0.23325652 0.18725877 0.19665384
0.043425582 0.04932313 -0.04743125 -0.029214269 0.18260129 0.080938704 0.13701533 0.13465534
0.07151632 -0.098738484 0.13901123 0.12976035 -0.044412177 0.19634637 -0.20180018 -0.09404133
0.16863881 -0.044025727 -0.22479028 0.12553279 0.095447384 -0.2131606 0.20038326 -0.19271588
-0.21715245 -0.083540626 -0.25126183 -0.10461239 -0.11541316 0.16693398 0.024010498 0.10423312
-0.102880575 0.0495234 -0.039891195 -0.09714881 0.043477044 0.056567565 0.06533904 0.0039186957
-0.119531885 0.012688863 0.20776558 -0.14256795 0.14326482 0.064369634 0.01658248 -0.16032927
-0.043883737 0.17545177 -0.10260028 -0.16735902 -0.17545925 -0.19915196 0.032889415 0.053187255
-0.12266484 -0.0351642 0.00953264 0.100383386 0.28953248 -0.033191603 -0.046482872 0.1316226
0.026918035 0.08205418 -0.22933218 -0.0064112055 0.1026098 -0.23088838 0.12031208 0.036865316
00000000: 141d dfbd f8b4 cbbd c5c8 f33d 0bdf 15bc
00000010: df2b eebd ee5f 4a3d 878f 36bc fe10 71be
00000020: 97bb c33d c6bd 453d 6723 1f3e 39f9 e2bd
00000030: 7243 96bd 1a82 53be b1d3 2bbe 51b1 873a
00000040: a4a4 b2bc be4e eb3d b9c8 963d 09d8 43bd
00000050: 6891 aabd 059a 313d beb0 91bd 324d 523e
00000060: 3ccd 0c3e 4a7a 7ebc bf0a c23a f04a 833e
00000070: a082 313e 4255 3dbe 10f6 163e b4f4 0c3c
00000080: baa0 af3d 9ff2 033d 0db3 d03d 3a29 e13d
00000090: 6e89 12be cfde 0dbe 10d6 12bb 02b5 353e
000000a0: b24a f73d 56f4 853d 3152 1bbe a1a8 693e
000000b0: 614a 8abd baf1 433e 6944 b9bd ae8f 333e
000000c0: aef8 df3d 8a89 b43d 602b 7fbd 1f9b ebbd
000000d0: 2b4e c03d 4b1a 28be 80a9 503e 22e0 44be
000000e0: 87ff 16bd 3366 c9ba f373 293e 3b64 a43d
000000f0: c753 ebbc 344a 403e f747 dd3b a77a f53d
00000100: 378f 75be 8993 05be 9b75 093e 99c3 113e
00000110: c399 6cbd bac7 65be 6cb3 9e3c 1920 19be
00000120: 6238 0dbe 39f5 2abe 6ba1 953a e063 043e
00000130: 75a8 103d 3e31 cd3d f71d 4b3d 3fa2 50be
00000140: 7d7e 173e dd94 b53c ad55 0c3d f663 19be
00000150: 51f9 5cbe 5fb9 6d3e 65ef 0dbe ec3c 2b3e
00000160: dbbc 1e3e c092 17bd 5528 7a3e 3af9 8f3c
00000170: 857a 0c3e 243b 203c 8ebc b03c fc96 0bbd
00000180: 6246 debb a2e7 033e 4510 0b3d 43ec ccbc
00000190: c3e4 b3bd 8ade 52be 8297 70be 222c 3dbe
000001a0: 9389 303c 266f 1abe c320 0a3d 8cf7 7d3d
000001b0: adcd 09bd d6c7 49be b99e 713d 926f 2d3e
000001c0: 7b50 41be 60e6 843d 28dc 343e fd1a ee3d
000001d0: 37ac 103e 3d79 173c 8da7 8c3c 5d10 dabd
000001e0: cb3b 1e3d dfcb 01be 267f 17be 625b 4dbd
000001f0: 5211 d7bd eafe c0bd 6cdc ccbd c5b8 37be
00000200: 5068 8cbd b517 193d 00c6 9f3d 130f 0ebb
00000210: ed63 a03d ff75 c33c eeb1 6b3e f426 dc3d
00000220: f464 2dbe 17b4 20be 42b9 f8bd bf6e 2d3e
00000230: 7e36 d2bb 8212 f5bd f2fa e13d 7d9f 883d
00000240: c7f1 97bd a10e 6e3d 9e76 fb3d 78af f7bd
00000250: efc9 063e 4a19 11be 5238 66ba c871 3abe
00000260: a529 c63d 3a96 123e a8cd 6bbd 97e1 2f3e
00000270: 21c1 48be a83c 5abc 42ef c93c 91ad e7bd
00000280: 957e ffbd 4d11 4fbd e392 acbd 2181 063e
00000290: 7d7b 00be 1bc0 c4bd 7bdc 31bd c933 963d
000002a0: 6b19 e2bd eb08 07be 036f 733e bc28 183d
000002b0: a561 8cbd 8711 6e3c 8210 ad3d 796d b1bc
000002c0: 605d 3a3e 4770 833d c3d2 2fbe 03f8 943c
000002d0: d7cc 603e ccda 6ebe c3c0 3f3e a05f 493e
000002e0: 06df 313d 0d07 4a3d 4547 42bd c352 efbc
000002f0: d5fb 3a3e 31c3 a53d bf4d 0c3e 17e3 093e
00000300: 2677 923d 6737 cabd f658 0e3e e6df 043e
00000310: 8be9 35bd 060f 493e b5a4 4ebe be98 c0bd
00000320: a7af 2c3e 5254 34bd 6c2f 66be ab8b 003e
00000330: eb79 c33d c646 5abe 4531 4d3e 5057 45be
00000340: 365d 5ebe 5917 abbd 64a5 80be 053f d6bd
00000350: bc5d ecbd bef0 2a3e aab1 c43c 2d78 d53d
00000360: 0db3 d2bd 0cd9 4a3d f364 23bd f5f5 c6bd
00000370: fc14 323d 64b3 673d 79d0 853d 6768 803b
00000380: 22cd f4bd f3e4 4f3c 80c0 543e 55fd 11be
00000390: 03b4 123e 3ad4 833d fbd7 873c 5b2d 24be
000003a0: 6fbf 33bd a1a9 333e 1820 d2bd 2a60 2bbe
000003b0: 97ab 33be 7eee 4bbe 0db7 063d e1da 593d
000003c0: b437 fbbd 5608 10bd ca2e 1c3c ce95 cd3d
000003d0: 9a3d 943e ebf3 07bd d364 3ebd 13c8 063e
000003e0: 3683 dc3c 060c a83d 0ed6 6abe 1715 d2bb
000003f0: 1625 d23d 016e 6cbe 2e66 f63d 1600 173d

fcns.1.bias f4 [20]
0.20407514 0.11053365 -0.10505925 -0.18834834 0.2043797 -0.20590791 0.11151338 -0.16989881
-0.12640399 -0.09163159 0.13496786 -0.1865905 0.16703741 0.2104953 -0.19309616 0.13817763
0.052883424 0.095676646 -0.030527256 0.13075463
00000000: 13f9 503e 775f e23d 4e29 d7bd 63de 40be
00000010: e948 513e 86d9 52be 2161 e43d f4f9 2dbe
00000020: 0c70 01be 58a9 bbbd 0435 0a3e 9411 3fbe
00000030: db0b 2b3e 148c 573e 00bb 45be 707e 0d3e
00000040: 4a9c 583d 1ef2 c33d 4c14 fabc 8be4 053e

fcns.2.weight f4 [20, 20]
0.1670381 0.112738535 -0.09537109 -0.045840137 0.10339587 0.08765282 -0.21940038 -0.21603245
-0.12928952 0.0921054 0.1506741 -0.06373465 -0.024654146 0.017906137 0.08395352 0.088289864
-0.19687173 0.14688723 0.26544845 -0.16595231 -0.039876916 -0.116901614 -0.22355145 0.16476564
-0.106034875 0.023415916 -0.09213733 0.022919271 -0.19910432 -0.093226425 -0.08072294 -0.20929573
-0.0070039746 -0.034690615 0.19292134 -0.20528878 -0.070069574 0.029136464 0.14560623 -0.03769068
-0.11364498 0.22298543 0.07447536 0.04098704 -0.14559053 -0.06864273 -0.14136998 0.14532548
-0.082066394 -0.12660821 0.05373965 0.026534725 0.1365404 -0.0048396825 0.03610814 -0.19567403
0.032784294 -0.0153193595 0.05733573 0.06133054 0.070336536 -0.08473848 -0.23907745 -0.12380105
0.10662315 0.12783661 0.16868065 -0.006771711 -0.17476489 -0.1258147 0.25797686 -0.20680459
-0.060287677 0.14798489 -0.09062818 -0.021197919 0.005269701 -0.08684614 -0.21527287 0.190975
0.11111285 -0.11706394 0.14613473 0.18067351 0.0734118 -0.20602994 -0.04786597 0.21900485
-0.16204692 0.14729626 -0.09889507 0.1469552 -0.17729652 -0.12700313 -0.040930804 -0.10053316
0.052343838 0.07745025 -0.17574827 -0.17550105 -0.25568143 0.10784931 0.14558385 -0.093437545
-0.059802786 0.19522491 0.21203983 -0.16419192 0.078674294 -0.22139858 -0.08612692 0.13503325
-0.16406828 -0.03367288 0.062741786 -0.010011205 0.14677137 -0.21416853 -0.11129083 -0.07531282
0.15137242 0.14601804 -0.075543664 -0.05814826 -0.07384354 -0.099130265 0.049741495 0.011377413
0.028781306 -0.009015082 0.04217317 0.19169264 0.049609084 -0.12555084 -0.21415403 0.10195493
0.11027821 -0.039291292 0.114276476 0.17343976 -0.026990555 -0.21793781 0.17757368 0.14336306
0.1765726 -0.012532184 0.058708373 0.019567722 -0.17611794 -0.017357063 -0.14378558 0.03661776
0.1277834 0.15382318 -0.0735499 0.11468265 0.33702758 0.27994722 -0.15692575 -0.23422386
-0.125945 -0.01635083 0.12842551 -0.2151391 0.088970974 -0.14229755 -0.0067440253 0.10191773
-0.23986949 0.22783177 -0.07453413 0.12212049 0.24666554 -0.2409074 0.103452444 -0.2798546
-0.072995774 -0.15997119 0.16935505 0.0040805344 0.04314289 -0.157485 -0.102175236 -0.11910244
0.19226721 0.09141016 0.11388932 -0.1340528 0.066801265 -0.119993694 -0.014117905 -0.024078658
-0.12185328 -0.058102842 -0.028920064 0.0002694767 0.13416657 -0.05063405 0.0754187 0.18908998
0.14663044 -0.033644702 0.13085303 0.18539254 0.04800407 0.041961562 -0.13270906 -0.17163455
-0.18034932 0.11975883 0.11962426 -0.20866978 0.18713331 0.10102824 -0.17873405 0.14889576
-0.06410946 -0.13755172 -0.27485108 -0.14717066 -0.17747794 -0.0016675883 0.21606256 -0.028676398
-0.026168063 0.09009593 -0.09420541 0.18024632 0.03941881 -0.012418688 -0.011242646 -5.1874027e-05
0.12024145 0.051164698 -0.11704605 -0.12934013 -0.07028033 0.13480833 -0.077893525 -0.23684953
-0.054325707 0.10189116 -0.10082222 0.14293998 0.01538267 -0.0976055 0.03716516 0.19308674
0.077288084 0.13178065 0.08933617 -0.2873598 -0.0014012341 -0.01423542 -0.03523929 -0.24073666
00000000: 090c 2b3e 76e3 e63d eb51 c3bd dec2 3bbd
00000010: 37c1 d33d 5283 b33d 7eaa 60be 9c37 5dbe
00000020: 7964 04be c2a1 bc3d 504a 1a3e 5087 82bd
00000030: 7ef7 c9bc e4af 923c d3ef ab3d 51d1 b43d
00000040: be98 49be 9b69 163e dce8 873e 67ef 29be
00000050: fa55 23bd 1d6a efbd acea 64be 53b8 283e
00000060: d028 d9bd bcd2 bf3c 7fb2 bcbd 32c1 bb3c
00000070: 01e2 4bbe 7fed bebd 1252 a5bd 9f51 56be
00000080: 9981 e5bb bf17 0ebd 2c8d 453e 3937 52be
00000090: a380 8fbd 98af ee3c cd19 153e 8b61 1abd
000000a0: b3be e8bd 4b56 643e 8a86 983d 07e2 273d
000000b0: af15 15be 8f94 8cbd 4bc3 10be 34d0 143e
000000c0: 6d12 a8bd 95a5 01be 1b1e 5c3d 5a5f d93c
000000d0: 3fd1 0b3e 3396 9ebb 21e6 133d c65e 48be
000000e0: d348 063d 0dfe 7abc dfd8 6a3d bb35 7b3d
000000f0: 9a0c 903d 5e8b adbd b8d0 74be 688b fdbd
00000100: 3d5d da3d 9ae7 023e 9fba 2c3e 3be5 ddbb
00000110: 91f5 32be 92d5 00be 8b15 843e 95c4 53be
00000120: 36f0 76bd 5a89 173e 449b b9bd 42a7 adbc
00000130: 75ad ac3b 64dc b1bd 7e70 5cbe f38e 433e
00000140: 228f e33d 38bf efbd 58a4 153e 7a02 393e
00000150: ed58 963d 83f9 52be 1b0f 44bd cf42 603e
00000160: a1ef 25be d5d4 163e 8089 cabd 6d7b 163e
00000170: 388d 35be 1c0d 02be 0fa7 27bd 54e4 cdbd
00000180: 7e66 563d 3d9e 9e3d 5bf7 33be 8cb6 33be
00000190: ade8 82be 19e0 dc3d ef13 153e 2f5c bfbd
000001a0: c4f3 74bd 0ae9 473e f820 593e ed21 28be
000001b0: fd1f a13d 4fb6 62be 5063 b0bd 2846 0a3e
000001c0: 8401 28be 93ec 09bd c47e 803d 0a06 24bc
000001d0: 3c4b 163e ff4e 5bbe 72ec e3bd 9c3d 9abd
000001e0: 5f01 1b3e c185 153e a3b6 9abd df2c 6ebd
000001f0: 483b 97bd cf04 cbbd bdbd 4b3d 5468 3a3c
00000200: c6c6 eb3c ffb3 13bc c6bd 2c3d 134b 443e
00000210: e532 4b3d 6690 00be 324b 5bbe bfcd d03d
00000220: 8bd9 e13d e8ef 20bd c909 ea3d 319a 313e
00000230: 4c1b ddbc 172b 5fbe e0d5 353e c4cd 123e
00000240: 73cf 343e ca53 4dbc 3178 703d 7d4c a03c
00000250: 4358 34be 6630 8ebc 873c 13be 81fc 153d
00000260: a7d9 023e d383 1d3e 54a1 96bd bdde ea3d
00000270: e18e ac3e 3e55 8f3e 25b1 20be 61d8 6fbe
00000280: baf7 00be 2df2 85bc fa81 033e 6d4d 5cbe
00000290: 6a36 b63d 73b6 11be fcfc dcbb 3eba d03d
000002a0: 59a0 75be bb4c 693e 5aa5 98bd 4f1a fa3d
000002b0: e495 7c3e 6eb0 76be e0de d33d 1a49 8fbe
000002c0: cf7e 95bd 7dcf 23be 696b 2d3e 01b6 853b
000002d0: 99b6 303d bf43 21be 4041 d1bd fbeb f3bd
000002e0: b2e1 443e 4035 bb3d ce3e e93d 2345 09be
000002f0: 1acf 883d 41bf f5bd c94e 67bc 9b40 c5bc
00000300: 368e f9bd 3ffd 6dbd c5e9 ecbc 8d48 8d39
00000310: f662 093e a665 4fbd 1f75 9a3d cea0 413e
00000320: 4a26 163e 07cf 09bd 56fe 053e 8bd7 3d3e
00000330: ea9f 443d e3df 2b3d e2e4 07be f8c0 2fbe
00000340: 7ead 38be 1e44 f53d 90fd f43d 88ad 55be
00000350: e09f 3f3e e5e7 ce3d 0f06 37be 2178 183e
00000360: d24b 83bd 5cda 0cbe 48b9 8cbe e8b3 16be
00000370: c7bc 35be fa92 daba 813f 5d3e c4ea eabc
00000380: 685e d6bc 3784 b83d c4ee c0bd 7e92 383e
00000390: 9e75 213d c177 4bbc 1333 38bc 5093 59b8
000003a0: 2641 f63d 1392 513d d7b5 efbd bd71 04be
000003b0: 22ef 8fbd 320b 0a3e a486 9fbd af88 72be
000003c0: a284 5ebd 50ac d03d e17b cebd dc5e 123e
000003d0: 9807 7c3c 64e5 c7bd 7f3a 183d 88b8 453e
000003e0: 3749 9e3d 82f1 063e e2f5 b63d d320 93be
000003f0: 9da9 b7ba ae3b 69bc 1357 10bd ac83 76be

fcns.2.bias f4 [20]
-0.062433615 0.06024939 -0.04665429 0.10552538 -0.049678452 0.16306496 -0.1732072 0.07940745
-0.081899144 0.06716176 -0.030161083 0.1842666 0.21194553 -0.03479158 -0.122153945 -0.18970998
-0.054220818 -0.17681555 0.20887583 0.20573097
00000000: 64ba 7fbd 10c8 763d 9218 3fbd b11d d83d
00000010: a27b 4bbd 80fa 263e 3a5d 31be 60a0 a23d
00000020: bdba a7bd 1b8c 893d 6014 f7bc 62b0 3c3e
00000030: 4008 593e 9e81 0ebd d92b fabd 5543 42be
00000040: a616 5ebd 230f 35be 8ce3 553e 24ab 523e

fcns.3.weight f4 [20, 20]
-0.096483506 -0.100008234 0.15496646 0.1648025 -0.10272982 0.09894407 -0.012882323 0.08563498
-0.0896668 0.16577406 -0.04535519 -0.21700607 0.11657584 0.112462 0.12922077 0.095088206
0.23309635 -0.12856014 0.120383576 0.06752695 -0.14298126 0.034414463 -0.1333127 0.037449382
0.033610478 -0.011499512 0.2194014 -0.03667234 0.036844824 0.04142448 0.10071136 -0.05238781
-0.092900485 0.097867414 -0.1484243 -0.12229868 0.1648097 0.081725486 0.13838057 -0.1550386
0.07998835 -0.16184466 -0.08606683 -0.17589848 -0.0020825248 0.09798907 0.16565688 -0.040746287
-0.15111256 0.2346235 0.17292863 -0.101133056 0.13336894 0.13696449 0.054244317 0.042947993
-0.056063373 0.20770508 -0.21187618 0.00511466 0.2207205 0.024344154 0.034912065 -0.06563957
-0.11977467 -0.05765713 0.0887582 -0.14169346 -0.22235925 0.1643865 0.069637455 -0.08509961
-0.18117833 0.13026519 0.15629432 0.1585702 -0.103101246 -0.16274682 -0.01067454 -0.07469029
0.06606231 -0.08317374 0.09499121 -0.081369326 -0.008786181 0.23502894 -0.20201406 0.16955546
0.026912777 -0.07566377 0.051915348 -0.26344028 -0.21911491 -0.08361896 -0.064062856 -0.11342782
-0.13532484 -0.017102065 0.11366744 -0.23420554 -0.042663265 -0.15177579 -0.122459956 0.13551202
-0.0074832 -0.17942423 -0.045363277 0.19915101 -0.027098607 -0.0054395106 0.23669799 -0.12067887
0.011557145 -0.09000777 -0.0358566 -0.109282665 0.1773276 0.0732684 -0.19392428 -0.19690381
-0.21660194 0.068598196 0.06378306 0.026854565 -0.06177873 0.07569436 0.025211764 -0.13366106
0.16225451 0.17430599 -0.15281084 0.2352942 -0.031601552 -0.2981114 -0.18003468 -0.0026717733
-0.20430438 0.133592 -0.13655345 0.013858561 -0.08049152 0.2145061 -0.18210039 0.12876862
0.14836821 -0.100597836 -0.2076132 -0.111065075 -0.044783585 0.079056114 -0.085795976 -0.09071121
-0.0011315794 -0.056567404 -0.22036797 0.05236143 -0.01836219 0.15742175 -0.06916628 -0.2724506
-0.22418316 0.013537617 -0.23838994 -0.17381486 0.06279017 -0.055019002 0.04003587 0.12315946
0.09375653 -0.1392543 -0.22473738 0.20968246 -0.3456199 0.23633084 0.08727648 0.10345854
-0.23972818 0.13722606 0.0026911483 0.17276719 -0.10115162 -0.1583457 -0.15750182 0.098771945
-0.16954224 -0.18919559 0.084848486 0.039124623 0.115301155 0.04333837 0.20720637 0.19823754
0.025455717 -0.121669404 0.10626935 -0.21255994 0.16777839 0.01605567 -0.004571875 0.011306719
0.06404592 -0.10230302 0.02830591 0.17208613 -0.104826495 -0.10999768 -0.1944953 0.14207128
-0.02276682 0.15469085 0.15229201 0.1435763 0.18800023 -0.072657615 -0.121815756 0.1524421
0.10631339 -0.04407757 -0.12499261 -0.13563408 0.0646814 0.120011054 0.17979081 0.1276991
0.17703411 0.21677561 -0.12195745 0.19495715 -0.12573865 -0.20344695 0.02044652 -0.10936222
-0.12774354 0.041086424 0.1937883 -0.0032515465 -0.2810386 -0.2112375 0.14677782 -0.0057640467
-0.12648256 -0.14576092 0.10553085 0.19455805 0.11696638 -0.10050882 -0.209402 0.08572488
0.17249511 0.14989132 -0.08657448 0.025748376 -0.022477292 -0.019828169 0.022812882 0.12793326
00000000: 2599 c5bd 1ed1 ccbd 87af 1e3e fdc1 283e
00000010: 0364 d2bd 30a3 ca3d 6110 53bc 6461 af3d
00000020: 3aa3 b7bd adc0 293e 5dc6 39bd d736 5ebe
00000030: 50bf ee3d 7a52 e63d 7352 043e 9bbd c23d
00000040: cfb0 6e3e 45a5 03be aa8b f63d 924b 8a3d
00000050: ae69 12be 2ef6 0c3d 2083 08be 8664 193d
00000060: 24ab 093d 7368 3cbc c3aa 603e bc35 16bd
00000070: 99ea 163d b7ac 293d c241 ce3d 9a94 56bd
00000080: 9c42 bebd b66e c83d 8afc 17be bb77 fabd
00000090: e0c3 283e b15f a73d a3b3 0d3e 70c2 1ebe
000000a0: efd0 a33d 9bba 25be ce43 b0bd bb1e 34be
000000b0: f87a 08bb 7eae c83d f5a1 293e 94e5 26bd
000000c0: 40bd 1abe 2541 703e 3414 313e d91e cfbd
000000d0: de91 083e 6b40 0c3e 4a2f 5e3d 3cea 2f3d
000000e0: b5a2 65bd a4b0 543e 12f6 58be e198 a73b
000000f0: 8e04 623e 646d c73c f4ff 0e3d 0a6e 86bd
00000100: 6c4c f5bd e229 6cbd dcc6 b53d 1718 11be
00000110: 25b2 63be ef54 283e 159e 8e3d b448 aebd
00000120: d086 39be 3d64 053e 9e0b 203e 3a60 223e
00000130: bf26 d3bd 1aa7 26be 44e4 2ebc 39f7 98bd
00000140: ad4b 873d fe56 aabd c08a c23d f6a4 a6bd
00000150: eaf3 0fbc 6dab 703e c6dc 4ebe f29f 2d3e
00000160: 2f78 dc3c 9bf5 9abd 30a5 543d a5e1 86be
00000170: a95f 60be 6b40 abbd 6333 83bd d84c e8bd
00000180: 9892 0abe a119 8cbc 7aca e83d 94d3 6fbe
00000190: adbf 2ebd 1d6b 1bbe 49cc fabd aac3 0a3e
000001a0: a235 f5bb fcba 37be d8ce 39bd 3eee 4b3e
000001b0: e6fd ddbc ec3d b2bb f560 723e 7c26 f7bd
000001c0: 2e5a 3d3c fe55 b8bd 5fde 12bd 97cf dfbd
000001d0: 5e95 353e be0d 963d 1694 46be 27a1 49be
000001e0: e6cc 5dbe 367d 8c3d b1a0 823d 1bfe db3c
000001f0: b20b 7dbd a505 9b3d e788 ce3c 72de 08be
00000200: 0c26 263e 457d 323e 727a 1cbe f6f0 703e
00000210: a170 01bd 0fa2 98be 035b 38be eb18 2fbb
00000220: 2b35 51be 57cc 083e abd4 0bbe 050f 633c
00000230: bdd8 a4bd 7da7 5b3e 8678 3abe ecdb 033e
00000240: d6ed 173e 3d06 cebd 8e98 54be 1676 e3bd
00000250: fe6e 37bd 2ce8 a13d cdb5 afbd cdc6 b9bd
00000260: 8151 94ba 39b3 67bd 24a8 61be f078 563d
00000270: 4e6c 96bc 2b33 213e 0da7 8dbd a57e 8bbe
00000280: 4590 65be e2cc 5d3c 7e1c 74be 86fc 31be
00000290: 2298 803d 9b5b 61bd a7fc 233d 073b fc3d
000002a0: 6c03 c03d ae98 0ebe 8e21 66be 00b7 563e
000002b0: 17f5 b0be b600 723e 03be b23d 12e2 d33d
000002c0: 4e7b 75be fd84 0c3e fa5d 303b e2e9 303e
000002d0: 9528 cfbd 6025 22be 2848 21be f248 ca3d
000002e0: 7b9c 2dbe 7dbc 41be 0bc5 ad3d 2441 203d
000002f0: 0323 ec3d 9383 313d e82d 543e c8fe 4a3e
00000300: 8288 d03c cf2d f9bd bfa3 d93d 50a9 59be
00000310: 19ce 2b3e 2e87 833c abcf 95bb d13f 393c
00000320: 822a 833d 3f84 d1bd cce1 e73c 5937 303e
00000330: 46af d6bd 7746 e1bd c729 47be 227b 113e
00000340: 7b81 babc 4767 1e3e 70f2 1b3e aa05 133e
00000350: 2283 403e 84cd 94bd 8a7a f9bd c819 1c3e
00000360: d6ba d93d af8a 34bd 20fc ffbd a9e3 0abe
00000370: af77 843d 5bc8 f53d 151b 383e 8ec3 023e
00000380: 6e48 353e 6dfa 5d3e d4c4 f9bd d9a2 473e
00000390: a2c1 00be 6654 50be 767f a73c 4df9 dfbd
000003a0: 34cf 02be 3d4a 283d 7170 463e e617 55bb
000003b0: 4be4 8fbe a54e 58be ed4c 163e 54e0 bcbb
000003c0: a584 01be 5a42 15be 8f20 d83d 3a3a 473e
000003d0: 128c ef3d 91d7 cdbd 7a6d 56be 8790 af3d
000003e0: 8fa2 303e 1c7d 193e f64d b1bd 42ee d23c
000003f0: 4c22 b8bc af6e a2bc 15e2 ba3c f000 033e

fcns.3.bias f4 [20]
0.15654151 -0.10139326 -0.019218303 -0.2230881 -0.1998261 -0.21160084 0.028182877 0.19660075
-0.20618595 -0.046844516 0.07503596 -0.1744365 0.2013226 0.0336711 0.106667735 -0.12614185
-0.20684977 -0.08856744 -0.021589376 -0.17409237
00000000: 6b4c 203e 45a7 cfbd b46f 9dbc 3571 64be
00000010: 379f 4cbe e4ad 58be c7df e63c b551 493e
00000020: 6922 53be 09e0 3fbd 74ac 993d 7b9f 32be
00000030: 8327 4e3e b5ea 093d 9d74 da3d 542b 01be
00000040: 6dd0 53be d962 b5bd 34dc b0bc 4545 32be

fcns.4.weight f4 [20, 20]
0.27307674 -0.14857598 -0.13668804 -0.07424295 -0.15748702 -0.17040418 -0.12807031 0.0054233884
-0.2136029 -0.011046808 -0.036907904 -0.010393542 -0.010112392 0.16472368 0.14362356 0.24357578
-0.13097414 -0.023370843 -0.037809376 0.19227074 -0.11683585 -0.02146695 -0.058568843 0.08780508
-0.09286828 -0.2566848 -0.12671274 0.092861466 -0.044870347 0.0057908148 -0.28728056 0.3131866
0.00020919928 0.0048642596 -0.018661106 0.06459923 -0.04829167 -0.08527355 -0.05485365 -0.050567865
0.029287666 0.16696988 0.15532811 0.037436247 -0.08795304 0.083170354 -0.049815003 0.06864915
-0.085295424 -0.0780568 -0.1589565 0.04275689 0.2104059 0.22642209 -0.119660094 -0.1868357
-0.11730596 0.0871578 0.016904578 0.03720808 0.1295206 -0.106897965 -0.009679868 -0.22944118
0.04765936 0.11479509 0.10915247 -0.0047423732 -0.14859791 -0.14345871 -0.19160625 0.06534734
0.19835779 0.21353413 0.0266622 -0.017409667 0.19261684 -0.01486223 -0.19425686 0.20192309
0.25557342 -0.04915216 -0.20996214 -0.10635151 -0.07453369 -0.121333666 0.022138108 -0.0054724417
0.047189843 0.16037606 0.11888678 0.1307628 0.1988503 -0.11097785 0.10991053 -0.057768967
-0.1816329 -0.052335884 0.022711571 0.10456599 0.064318515 0.043916136 0.047886305 -0.18277448
-0.0726202 0.07024478 -0.054027487 -0.14580159 -0.07410569 0.2582703 0.2841638 -0.034354478
-0.05241645 0.09882607 -0.1497932 -0.036773186 0.18314241 0.012282575 0.19855326 0.008721518
0.10645662 0.1658006 -0.24048057 0.108148575 -0.07792889 -0.12191939 0.10833771 0.24888033
0.12937902 -0.06476902 -0.02846974 -0.12304626 -0.25541407 0.080441914 0.03575593 0.07737008
-0.07088752 0.057191785 0.25153974 0.281613 -0.18929723 -0.07721641 0.072291985 -0.0074427165
-0.10680464 0.10077075 0.072658844 -0.096654035 -0.112807564 0.15508153 -0.020668749 0.16645916
0.14510173 -0.04811994 0.002115128 -0.13189417 -0.15163323 0.074894175 -0.09386568 0.112110585
-0.20434141 -0.21694003 0.050979927 -0.057477776 -0.21103254 -0.14531307 0.1559976 -0.017388012
-0.17034365 0.03778635 -0.03867534 0.17328891 0.15292759 -0.13466404 0.18720631 0.11774212
0.024075482 -0.15629064 0.14178862 -0.1830785 0.047535874 -0.0651824 0.02161031 0.18591632
-0.12302272 0.09913563 0.018480208 -0.053175654 0.1826135 -0.09998261 0.048569083 -0.033059984
0.091497324 -0.05272415 0.15044926 0.088004865 0.02949234 -0.09904347 -0.290021 -0.08897664
-0.24374586 -0.17041329 0.21677363 0.059073515 0.09657955 0.32259753 0.025273005 0.028931586
0.17642415 0.14404607 0.016644243 0.14007215 0.15510002 -0.18191627 -0.16642514 -0.22790374
-0.16081248 -0.10839753 -0.07665503 -0.09260009 0.20936482 -0.17773543 0.09549388 0.13665402
0.1266628 -0.11569358 -0.112677425 0.08192853 -0.1716156 -0.02829135 -0.010755156 0.15145367
0.077036224 -0.112394996 -0.16128512 -0.15874472 -0.040274035 0.0064723827 -0.24935631 -0.0054283533
-0.12090567 0.09274203 0.14324425 0.0018971123 0.18804608 0.09710097 -0.15263811 0.08192307
-0.041778143 -0.25602692 0.0552357 -0.03732811 0.009449586 -0.07209779 -0.07274617 0.08963694
00000000: b7d0 8b3e 4d24 18be f3f7 0bbe b00c 98bd
00000010: 4744 21be 6f7e 2ebe dd24 03be aeb6 b13b
00000020: b8ba 5abe acfd 34bc be2c 17bd ad49 2abc
00000030: 72ae 25bc 53ad 283e 0e12 133e ee6b 793e
00000040: 161e 06be 3674 bfbc 01de 1abd 9fe2 443e
00000050: a247 efbd 75db afbc e2e5 6fbd 26d3 b33d
00000060: ba31 bebd 316c 83be fcc0 01be 272e be3d
00000070: f8c9 37bd e0c0 bd3b 7016 93be fe59 a03e
00000080: 815c 5b39 5e64 9f3b 2ddf 98bc 9a4c 843d
00000090: 7ccd 45bd e6a3 aebd 39ae 60bd 4020 4fbd
000000a0: b0ec ef3c 27fa 2a3e 550e 1f3e c056 193d
000000b0: b920 b4bd 3855 aa3d d10a 4cbd ed97 8c3d
000000c0: 5eaf aebd 3edc 9fbd 7ec5 22be d921 2f3d
000000d0: a574 573e 31db 673e 5a10 f5bd dc51 3fbe
000000e0: 1b3e f0bd ca7f b23d 787b 8a3c 8067 183d
000000f0: 0ca1 043e 52ed dabd 4f98 1ebc a1f2 6abe
00000100: 7636 433d b019 eb3d 558b df3d e965 9bbb
00000110: 0d2a 18be d7e6 12be 6e34 44be d4d4 853d
00000120: 4e1e 4b3e b1a8 5a3e b06a da3c b89e 8ebc
00000130: 593d 453e b680 73bc 45eb 46be edc4 4e3e
00000140: 85da 823e c653 49bd 5100 57be d2ce d9bd
00000150: 1fa5 98bd c97d f8bd fa5a b53c 2b52 b3bb
00000160: 234a 413d 9f39 243e ea7a f33d afe6 053e
00000170: 6a9f 4b3e 5b48 e3bd c618 e13d 279f 6cbd
00000180: fafd 39be 275e 56bd 9e0d ba3c b226 d63d
00000190: 6db9 833d 68e1 333d 6e24 443d 3c29 3bbe
000001a0: e6b9 94bd 7fdc 8f3d ed4b 5dbd 034d 15be
000001b0: b9c4 97bd 013c 843e eb7d 913e 48b7 0cbd
000001c0: a2b2 56bd 5365 ca3d 6363 19be 7b9f 16bd
000001d0: af89 3b3e da3c 493c 8c51 4b3e b3e4 0e3c
000001e0: ee05 da3d a2c7 293e 8a40 76be 007d dd3d
000001f0: 2f99 9fbd e0b0 f9bd 29e0 dd3d 7cda 7e3e
00000200: ef7b 043e 9fa5 84bd 5f39 e9bc adff fbbd
00000210: a2c5 82be bbbe a43d cf74 123d 3474 9e3d
00000220: 7a2d 91bd ef41 6a3d d1c9 803e 942f 903e
00000230: 22d7 41be a323 9ebd d20d 943d 08e2 f3bb
00000240: 64bc dabd e560 ce3d 29ce 943d 8df2 c5bd
00000250: a707 e7bd b1cd 1e3e 8251 a9bc 4574 2a3e
00000260: 8c95 143e 6a19 45bd f69d 0a3b 440f 07be
00000270: be45 1bbe 1e62 993d a63c c0bd 3c9a e53d
00000280: e03e 51be 8725 5ebe 54d0 503d d16d 6bbd
00000290: ea18 58be f3cc 14be d6bd 1f3e 4e71 8ebc
000002a0: 916e 2ebe dcc5 1a3d 096a 1ebd a672 313e
000002b0: 0d99 1c3e 5fe5 09be 03b3 3f3e c822 f13d
000002c0: f239 c53c a70a 20be 0931 113e ee78 3bbe
000002d0: fab4 423d 5a7e 85bd 1b08 b13c d960 3e3e
000002e0: 56f3 fbbd 9f07 cb3d ce63 973c b7ce 59bd
000002f0: 09ff 3a3e afc3 ccbd 60f0 463d e869 07bd
00000300: f362 bb3d 47f5 57bd 5f0f 1a3e e53b b43d
00000310: eb99 f13c 4ed7 cabd a27d 94be 6239 b6bd
00000320: 8498 79be d280 2ebe e8f9 5d3e 12f7 713d
00000330: 80cb c53d 812b a53e 5509 cf3c ef01 ed3c
00000340: 88a8 343e d080 133e 8259 883c 136f 0f3e
00000350: 8ad2 1e3e 4248 3abe 5a6b 2abe 995f 69be
00000360: 07ac 24be 86ff ddbd 50fd 9cbd 1ea5 bdbd
00000370: bb63 563e 4700 36be 4c92 c33d 08ef 0b3e
00000380: e5b3 013e c1f0 ecbd 6cc3 e6bd 25ca a73d
00000390: 00bc 2fbe 43c3 e7bc 6536 30bc ac16 1b3e
000003a0: 2bc5 9d3d 592f e6bd ed27 25be fa8d 22be
000003b0: 63f6 24bd 4816 d43b 4357 7fbe 54e0 b1bb
000003c0: 649d f7bd 89ef bd3d 9fae 123e 87a8 f83a
000003d0: 278f 403e e0dc c63d 2a4d 1cbe 48c7 a73d
000003e0: 8f1f 2bbd f615 83be d43e 623d 5ce5 18bd
000003f0: 70d2 1a3c 02a8 93bd f2fb 94bd 9293 b73d

fcns.4.bias f4 [20]
0.13617857 -0.13221261 0.20307422 -0.035421465 0.002135019 0.004894636 0.09593998 0.057647992
0.022894964 0.008938645 -0.032307312 -0.17804036 -0.13823456 0.18006633 -0.17743441 -0.07262247
-0.058283146 0.041706283 0.03524469 0.18246166
00000000: 6572 0b3e be62 07be b0f2 4f3e 1916 11bd
00000010: adeb 0b3b 2f63 a03b 2e7c c43d 4d20 6c3d
00000020: 388e bb3c 6573 123c ac54 04bd 3650 36be
00000030: 5c8d 0dbe 4f63 383e 5eb1 35be 17bb 94bd
00000040: 4fba 6ebd 35d4 2a3d bc5c 103d 3bd7 3a3e

bns.0.weight f4 [20]
0.093540095 0.30821913 0.7189993 0.2863561 0.64721507 0.961726 0.88566685 0.17767195
0.7174573 0.6910451 0.115765795 0.18265675 0.8110212 0.21230163 0.37768534 0.4591488
0.66135275 0.9167461 0.8398086 0.3811806
00000000: f391 bf3d e6ce 9d3e 5710 383f 449d 923e
00000010: e3af 253f ad33 763f 10bb 623f a3ef 353e
00000020: 48ab 373f 55e8 303f 9e16 ed3d 5f0a 3b3e
00000030: 169f 4f3f 9965 593e f95f c13e 8d15 eb3e
00000040: 6a4e 293f dfaf 6a3f b2fd 563f 1b2a c33e

bns.0.bias f4 [20]
0.0010125145 -0.023679879 0.03602825 0.077131905 -0.031124413 0.015517274 -0.024130873 -0.004535734
0.02675146 0.01654629 0.03630871 0.0005609817 0.016872812 0.026001593 0.004355366 -0.033474952
0.018274982 0.0023113093 -0.025181815 0.031559378
00000000: 59b6 843a 4efc c1bc 5c92 133d 55f7 9d3d
00000010: a0f8 febc 2a3c 7e3c 1cae c5bc 7fa0 94bb
00000020: e125 db3c 168c 873c 71b8 143d d80e 133a
00000030: da38 8a3c 4b01 d53c 75b7 8e3b 081d 09bd
00000040: 6ab5 953c 5679 173b 184a cebc 6844 013d
