spatial_model_both_side_finetunes/model_best.pt (torch_old, 36595 bytes, 62 tensors)

fc1.weight f4 [20, 12]
0	0xbd1f5010	-0.038894713
1	0x3e8f9999	0.28046873
2	0x3dea998f	0.1145507
3	0x3c5217f8	0.012823097
4	0xbd37c05c	-0.044861183
5	0x3e3ef48b	0.18647973
6	0xbc4acaec	-0.012377482
7	0xbe1b976f	-0.15194486
8	0xbcb922af	-0.022599546
9	0xbda28f0d	-0.07937441
10	0x3e0e70da	0.13910237
11	0x3e624a03	0.22098546
12	0xbe116e33	-0.14202194
13	0xbd847bfa	-0.06468959
14	0x3dc0ac0e	0.09407817
15	0x3deb6341	0.114935406
16	0x3db3ef9c	0.08785936
17	0x3e837c13	0.256806
18	0xbdeea88d	-0.11653242
19	0x3d6f81cf	0.058473404
20	0x3d91ac4a	0.0711294
21	0xbea436ac	-0.3207296
22	0xbd3011b5	-0.042985637
23	0x3dfa43cb	0.12219962
24	0x3e82b9f4	0.25532496
25	0xbe844e72	-0.258411
26	0x3d6e9910	0.05825144
27	0xbe80f0b8	-0.25183654
28	0x3d796d6e	0.060895376
29	0xbd34f1e5	-0.044176
30	0xbd93e207	-0.07220846
31	0xbe3b445d	-0.18287797
32	0x3e74f4ce	0.2392151
33	0xbdc3893b	-0.09547659
34	0x3d279863	0.04091681
35	0xbe629f05	-0.22130974
36	0xbd7b4ba6	-0.06135144
37	0xbdebc9cc	-0.11513099
38	0xbd88cd22	-0.06679751
39	0x3e4d1453	0.20027284
40	0xbdf68184	-0.12036422
41	0xbe0d9506	-0.13826379
42	0x3e50c0bd	0.20386024
43	0xbe3ec68c	-0.18630427
44	0x3e82e795	0.25567308
45	0xbe1a3ad2	-0.150615
46	0x3e08329a	0.13300553
47	0xbd56549d	-0.052326787
48	0xbe6608c9	-0.22464289
49	0x3d9ceb5a	0.07662077
50	0xbe73a73b	-0.23794262
51	0x3da5db3b	0.080984555
52	0x3e83ff20	0.25780582
53	0xbd80e12b	-0.062929474
54	0x3e16c15b	0.14722197
55	0xbe288a69	-0.1645905
56	0x3e286263	0.16443782
57	0x3e3dbbc3	0.18528657
58	0x3e506ba0	0.20353556
59	0x3deffd6f	0.117182605
60	0x3e22931b	0.15876429
61	0x3dd63f67	0.10461312
62	0xbe5760b8	-0.21032989
63	0xbdf76841	-0.12080432
64	0xbe0efe08	-0.13964093
65	0xbe11644b	-0.14198415
66	0xbdb428b1	-0.08796824
67	0xbe49a1de	-0.19690654
68	0xbd8dd2cf	-0.06924974
69	0x3e784b0f	0.24247383
70	0x3e8167b5	0.25274435
71	0x3da20f2a	0.079130486
72	0xbdda197a	-0.106493905
73	0xbded172c	-0.11576685
74	0xbd2f3681	-0.04277659
75	0x3e724ebd	0.23662849
76	0x3e4aee30	0.19817424
77	0x3e18df98	0.14929044
78	0xbe1152e6	-0.1419178
79	0xbd63918f	-0.055558737
80	0x3d16706b	0.036728304
81	0x3e7579d3	0.23972254
82	0x3e7dd8c1	0.24789716
83	0x3e8b1c40	0.2716999
84	0x3df82403	0.12116244
85	0x3e3a42ce	0.18189546
86	0x3e785607	0.24251567
87	0x3dcad9be	0.09904812
88	0xbe8ea127	-0.27857324
89	0x3c7a8703	0.015290978
90	0x3de603b9	0.11231179
91	0xbdf07409	-0.11740882
92	0xbdc43434	-0.095802695
93	0x3da0717c	0.078341454
94	0xbe0fc716	-0.14040789
95	0xbe840836	-0.25787514
96	0x3e018c6d	0.12651224
97	0xbe5b5ac4	-0.21421343
98	0x3e8ab56f	0.27091548
99	0xbdea5e67	-0.11443787
100	0x3d9bf269	0.076145954
101	0x3e275c7a	0.16343871
102	0xbd7a76ba	-0.061148383
103	0xbb3e3e11	-0.0029028694
104	0x3de711f9	0.11282725
105	0xbe668be3	-0.225143
106	0xbd45d516	-0.048298918
107	0x3e533dc0	0.20629025
108	0x3e7fb095	0.24969704
109	0xbe3cad73	-0.1842554
110	0x3e4f12b8	0.20221984
111	0x3e71351f	0.2355542
112	0x3d8fa79d	0.070143916
113	0xbe32838d	-0.17432995
114	0xbe6739c9	-0.22580637
115	0x3bd9a623	0.0066421195
116	0xbce37f8d	-0.027770782
117	0xbe1d61c6	-0.15369329
118	0x3e5b260b	0.21401231
119	0x3e0f3795	0.13986047
120	0x3e8041d2	0.25050217
121	0xbe5b1ed7	-0.21398483
122	0xbe77f621	-0.24214984
123	0x3c89362f	0.01674947
124	0xbe8b40a9	-0.2719777
125	0x3de8c9d2	0.11366619
126	0xbe789335	-0.24274905
127	0xbd3e2bf2	-0.04642863
128	0xbe61606b	-0.22009437
129	0x3e3b7c80	0.18309212
130	0x3be2ba31	0.0069191684
131	0xbdb4968b	-0.08817776
132	0xbe8d37db	-0.27581677
133	0xbe2a460f	-0.16628288
134	0x3d60a84a	0.054847993
135	0xbd66b07e	-0.05632066
136	0xbdc56a37	-0.096393995
137	0x3e1383ec	0.14405793
138	0xbe53cb2e	-0.20682976
139	0xbd9575a0	-0.07297826
140	0x3e889400	0.26675415
141	0x3e34c509	0.17653288
142	0x3e8b8d30	0.27256155
143	0xbd015aa9	-0.0315806
144	0x3e4f1019	0.20220985
145	0x3dc6446a	0.09681018
146	0x3e90b21c	0.28260887
147	0x3e34f8f6	0.17673096
148	0x3dc62cd7	0.09676521
149	0xbd6966cb	-0.056982797
150	0xbe149e5b	-0.14513533
151	0xbd59e08d	-0.053192664
152	0xbe976827	-0.2957165
153	0x3d9bc6d8	0.07606286
154	0x3aba587a	0.0014217042
155	0x3ad48d76	0.0016216475
156	0x3e7194bb	0.23591892
157	0xbe05b783	-0.13058285
158	0xbe6848b0	-0.22683978
159	0xbda29e30	-0.07940328
160	0x3e95cf19	0.29259565
161	0x3e7ca133	0.24670868
162	0xbe72990f	-0.236912
163	0x3da73f66	0.08166389
164	0xbe42b34e	-0.19013712
165	0xbe25cad3	-0.16190653
166	0xbe0f50f6	-0.13995728
167	0x3e5b0f83	0.21392636
168	0xbe0fa220	-0.1402669
169	0xbe085cc8	-0.13316643
170	0xbd70c1ab	-0.058778446
171	0xbe2a4abc	-0.16630071
172	0xbe38e39e	-0.18055579
173	0xbd74a0ac	-0.05972354
174	0x3de59d3c	0.11211631
175	0x3d9b1e35	0.07574121
176	0xbe593685	-0.21212204
177	0xbdfb4bcb	-0.12270316
178	0xbb99008c	-0.0046692546
179	0x3e533cb5	0.20628627
180	0x3d78d674	0.060751393
181	0x3de612e1	0.112340696
182	0x3cda0382	0.026613
183	0x3d753a88	0.059870273
184	0x3decc18b	0.11560353
185	0xbe29aa54	-0.16568881
186	0xbda1ac8d	-0.078942396
187	0xbcb6e3fa	-0.022325505
188	0x3d9c2c45	0.07625631
189	0x3d7170f5	0.058945615
190	0xbde5c61a	-0.112194255
191	0xbced8c68	-0.028997615
192	0x3df0756a	0.11741145
193	0xbe813c7c	-0.25241458
194	0xbdd09baf	-0.10185944
195	0xbddb8362	-0.10718419
196	0xbdbf403d	-0.09338424
197	0x3e442072	0.19153002
198	0xbd4b70fc	-0.049668297
199	0xbe682d73	-0.22673588
200	0x3ce85c7e	0.028364416
201	0xbe504fa0	-0.20342875
202	0xbe083152	-0.13300064
203	0x3e293254	0.16523105
204	0xbceb0076	-0.028686743
205	0xbe873a91	-0.2641187
206	0x3e0c1c40	0.13682652
207	0xbe86e485	-0.26346222
208	0x3da40caf	0.08010232
209	0xbea5e361	-0.3240004
210	0x3dc70a0c	0.09718713
211	0xbe0eef95	-0.13958581
212	0x3dd8e11d	0.10589812
213	0xbdea4979	-0.11439795
214	0x3d6482ab	0.055788677
215	0x3dc9a064	0.09845045
216	0x3e88fbbc	0.26754558
217	0x3e1d79ef	0.15378545
218	0x3e1a4388	0.15064824
219	0xbd89d581	-0.06730176
220	0xbe59bb23	-0.21262793
221	0x3e33228c	0.17493647
222	0xbd5cbc5b	-0.053890567
223	0x3db73bf3	0.08946981
224	0x3e621937	0.22079931
225	0xbea463e2	-0.32107455
226	0x3d4aa663	0.049475085
227	0x3e73c151	0.23804213
228	0xbe2ac18a	-0.16675392
229	0x3e7cc483	0.24684338
230	0x3d3f08b2	0.046639152
231	0xbbb012f0	-0.0053733513
232	0xbe94aba2	-0.29037195
233	0x3e3d3cf8	0.18480289
234	0x3e305343	0.17219262
235	0xbe094415	-0.13404877
236	0xbe397c01	-0.1811371
237	0x3dc54d5c	0.09633896
238	0x3e775157	0.24152122
239	0xbe6c19b4	-0.2305668

fc1.bias f4 [20]
0	0x3c61d888	0.013784535
1	0x3e4bdcdd	0.19908471
2	0xbe6ada0d	-0.22934742
3	0xbd1534b8	-0.03642723
4	0xbd8bfa72	-0.06834878
5	0xbe028af9	-0.12748326
6	0xbcfb3e30	-0.030669302
7	0xbdf57b0a	-0.119863585
8	0xbce3e2bc	-0.027818076
9	0x3dbb89b3	0.091571234
10	0xbe8bb1cb	-0.27284083
11	0x3e57cd52	0.21074417
12	0x3e101468	0.14070284
13	0x3d9dbaf7	0.07701676
14	0xbe025ccb	-0.1273071
15	0x3e419ffd	0.18908687
16	0x3e81a337	0.25319836
17	0x3e1e8fce	0.15484545
18	0xbe2bdb48	-0.16782868
19	0xbe9384c7	-0.2881224

fc2.weight f4 [20, 20]
0	0xbd94eca3	-0.07271697
1	0xbc71fe06	-0.014770037
2	0x3d3420f5	0.043976743
3	0xbd63342e	-0.055469684
4	0xbe1f9a95	-0.15586312
5	0x3da6d300	0.08145714
6	0xbe474bcd	-0.1946251
7	0x3e16be65	0.14721067
8	0x3e42f81e	0.19039962
9	0x3e54c387	0.20777713
10	0xbdd3c678	-0.10340589
11	0x3e8a3c43	0.269991
12	0x3d4f6487	0.05063298
13	0x3e496d13	0.19670515
14	0x3cb14865	0.021640966
15	0x3e25daf3	0.16196804
16	0xbdd215a5	-0.102580346
17	0x3e1afc42	0.15135291
18	0x3e102f5b	0.14080565
19	0x3c5c2d4c	0.013438534
20	0x3e9348aa	0.28766376
21	0x3e33e2a7	0.1756693
22	0xbe7b4cfe	-0.24541089
23	0x3c903adb	0.01760619
24	0x3e001ad4	0.12510234
25	0xbea94d14	-0.33066618
26	0xbe00348a	-0.12520042
27	0xbd75d0b0	-0.060013473
28	0x3dd36a9c	0.103230685
29	0x3d870a43	0.06593754
30	0xbe632771	-0.22183014
31	0x3d841eda	0.06451197
32	0xbddcee60	-0.10787654
33	0x3df8c617	0.12147158
34	0x3dc955fd	0.09830854
35	0x3e73203c	0.23742765
36	0xbe0590ed	-0.13043566
37	0x3d3e4168	0.046449095
38	0x3df1bd78	0.118037164
39	0x3e4fa44f	0.20277523
40	0x3d60049f	0.054691907
41	0x3d8f9f6c	0.07012829
42	0x3e89b874	0.2689854
43	0x3d59f7ad	0.053214718
44	0x3e218d65	0.15776594
45	0x3da69c71	0.081353076
46	0xbeaadfdd	-0.3337392
47	0x3e602b38	0.21891487
48	0xbe025dfb	-0.12731163
49	0x3e5158ba	0.20444003
50	0x3e8aaf87	0.27087042
51	0xbe156be2	-0.14591935
52	0xbe417df3	-0.18895702
53	0x3e61d0cc	0.22052306
54	0xbd09aa92	-0.033609934
55	0xbdca0bca	-0.0986553
56	0xbe1797ca	-0.14803997
57	0xbda6ac1a	-0.081382945
58	0xbe7478f3	-0.23874263
59	0xbd6d56c6	-0.05794408
60	0x3beadc84	0.007167401
61	0x3e75cac1	0.24003126
62	0xbdb46eef	-0.088102214
63	0xbdc09299	-0.09402961
64	0x3dd4295c	0.10359451
65	0xbe727a5b	-0.23679487
66	0x3df1f684	0.11814597
67	0x3e13e7ab	0.14443843
68	0xbe29575b	-0.1653723
69	0xbc854682	-0.016268972
70	0xbe499d78	-0.19688976
71	0x3e93395d	0.28754702
72	0xbdc9a9d4	-0.09846845
73	0x3e717f1e	0.23583648
74	0x3e822eb8	0.2542627
75	0xbda9f08d	-0.082978345
76	0x3e47a7ca	0.194976
77	0x3e3feaed	0.18741961
78	0xbc7501db	-0.014954056
79	0xbd565a51	-0.052332226
80	0x3e3403ca	0.1757957
81	0x3db6b531	0.08921278
82	0x3e74ab31	0.2389343
83	0xbdec3747	-0.11533981
84	0xbdf7c0e1	-0.120973356
85	0x3ea0611b	0.31324086
86	0x3e69137c	0.22761339
87	0x3e96034d	0.29299393
88	0xbda9203d	-0.08258102
89	0xbe517f59	-0.20458736
90	0x3ea73cd5	0.326636
91	0xbd9861ba	-0.07440515
92	0x3d9ce532	0.07660903
93	0xbd24ac31	-0.040203277
94	0xbe62e9ea	-0.22159544
95	0xbd9e1aa5	-0.07719926
96	0x3dee2983	0.116290115
97	0xbe35f73c	-0.17770094
98	0xbe0c49ef	-0.13700078
99	0xbe0f922f	-0.14020608
100	0x3e90902b	0.2823499
101	0xbdbbb26e	-0.09164892
102	0xbe26eadb	-0.16300528
103	0xbd97c9e0	-0.074115515
104	0xbc42e7a7	-0.011896051
105	0x3d08e0ba	0.03341744
106	0xbda56fad	-0.08077941
107	0xbc233035	-0.009960224
108	0xbe1c80c3	-0.15283494
109	0x3e1a1c8e	0.15049955
110	0xbccef1ab	-0.02526172
111	0xbd1ec270	-0.03875965
112	0x3e4d1d55	0.2003072
113	0x3e6fc4bf	0.23414896
114	0x3e9a92bc	0.30190074
115	0x3e2b6100	0.16736221
116	0xbd80f9ad	-0.06297622
117	0x3e0aea41	0.13565923
118	0x3dfe0313	0.1240293
119	0x3e4431b3	0.19159584
120	0xbe6a3be5	-0.2287441
121	0x3d7c144c	0.061542794
122	0xbd1a317a	-0.03764484
123	0xbe8eee27	-0.2791607
124	0x3e008085	0.12549026
125	0xbd9b8c9a	-0.07595177
126	0x3dcd0610	0.10010922
127	0xbda5884c	-0.08082637
128	0x3d855b9a	0.06511612
129	0xbeb0e553	-0.3454996
130	0xbcc0b8d6	-0.023525637
131	0x3c9304ed	0.017946685
132	0xbe4ad27c	-0.19806856
133	0xbe7e0b71	-0.24809052
134	0x3d592830	0.05301684
135	0xbe6572da	-0.22407094
136	0xbd9dcd4b	-0.07705172
137	0xbe91d21e	-0.2848062
138	0x3e510569	0.2041222
139	0x3d8cf623	0.06882884
140	0x3de162b8	0.11005157
141	0xbce58a21	-0.028019967
142	0x3c2cca5f	0.010546296
143	0xbe914b0e	-0.28377575
144	0xbe7031ea	-0.2345654
145	0xbd2bbe5d	-0.04192959
146	0x3dd6af84	0.10482696
147	0xbc7a5c5d	-0.01528081
148	0x3e7bd601	0.24593355
149	0xbe47c9cf	-0.19510578
150	0x3de13d30	0.10997999
151	0xbb455447	-0.0030110048
152	0x3dc73b6d	0.097281314
153	0x3e0070ab	0.1254298
154	0xbdadc278	-0.084843576
155	0x3d81360d	0.063091375
156	0xbe8b32dc	-0.2718724
157	0xbe3146a2	-0.173121
158	0x3da0f323	0.07858875
159	0xbe3cc196	-0.18433222
160	0x3e98ab26	0.29818076
161	0x3e6d846b	0.23195045
162	0x3e06d1e0	0.13165998
163	0x3e1b5367	0.15168534
164	0x3ea0c468	0.31399846
165	0xbe12a93f	-0.14322375
166	0xbd88459b	-0.06653901
167	0x3e11f898	0.14254987
168	0x3e5ae29d	0.21375509
169	0xbd353769	-0.044242296
170	0x3b849ebd	0.0040472434
171	0x3e7a73a0	0.2445817
172	0x3e8fc44f	0.2807946
173	0x3df1a1cc	0.117984384
174	0x3e4b8780	0.19875908
175	0xbdbfda0a	-0.093677595
176	0x3d3d3115	0.046189386
177	0x3d183c9d	0.03716718
178	0x3e8d61e1	0.27613738
179	0xbc3c4c93	-0.011492866
180	0xbe949a2c	-0.29023874
181	0xbb926a9d	-0.0044682757
182	0x3da87362	0.082251325
183	0xbe8b6d95	-0.27232042
184	0xbdffcb82	-0.12489988
185	0x3e38da6b	0.1805207
186	0x3d263b26	0.040583752
187	0x3ea1bef6	0.31591004
188	0xbe96ad3a	-0.29429036
189	0xbe7d4d81	-0.24736597
190	0x3e2b4ce4	0.1672855
191	0xbe62ae3c	-0.22136778
192	0xbd93fa90	-0.072255254
193	0xbe75a60c	-0.23989123
194	0xbe8ab2cc	-0.27089536
195	0xbc287421	-0.010281594
196	0x3cfb9f5f	0.030715642
197	0xbe72feda	-0.2373003
198	0xbe808f28	-0.2510922
199	0x3d4a9be9	0.049465094
200	0xbd820002	-0.06347658
201	0x3d008e10	0.03138548
202	0x3dc11d56	0.094294235
203	0x3e842309	0.2580798
204	0x3e6a7e46	0.22899732
205	0xbdbb7da6	-0.09154825
206	0x3d8b2ba2	0.06795432
207	0xbdc35d2b	-0.09539255
208	0xbd9e97f8	-0.077438295
209	0xbdd67e7a	-0.10473342
210	0x3e137e65	0.14403684
211	0x3d859307	0.06522184
212	0x3e1e4e69	0.15459599
213	0x3daaae9b	0.083340846
214	0x3e1de2e1	0.15418579
215	0x3e686455	0.22694524
216	0x3e0847d7	0.13308655
217	0x3e87148c	0.26382864
218	0x3d9492b6	0.072545454
219	0x3e960fc8	0.29308915
220	0x3e97c004	0.29638684
221	0xbd65c5c5	-0.05609681
222	0xbd7a00d9	-0.061035965
223	0xbde3457d	-0.11097238
224	0x3e7d27dc	0.24722236
225	0x3d672047	0.056427266
226	0x3e98edef	0.2986903
227	0xbe2d431c	-0.16920131
228	0xbde72b7b	-0.1128759
229	0x3e5e2a41	0.21695806
230	0xbe7a2855	-0.24429448
231	0x3e910259	0.28322104
232	0x3e3f2c0a	0.18669143
233	0x3ea3d2b0	0.3199668
234	0xbda7401b	-0.08166524
235	0x3dcbc76b	0.09950145
236	0x3c9e6229	0.019333916
237	0x3e58b9be	0.21164605
238	0x3d905930	0.07048261
239	0x3d9b45fb	0.07581707
240	0xbd13f831	-0.036125366
241	0x3e2e551f	0.17024659
242	0x3e458ee1	0.19292785
243	0x3e0bfee5	0.13671453
244	0xbdc02f4c	-0.09384021
245	0xbd9a4426	-0.075325295
246	0x3d9f860c	0.07789239
247	0x3d70cac7	0.058787134
248	0x3d12f117	0.035874452
249	0xbe5b4519	-0.21413077
250	0x3de873ae	0.11350189
251	0xbe67a30f	-0.22620796
252	0x3dd6efe7	0.104949765
253	0xbe10c058	-0.14135873
254	0x3e0f769b	0.14010088
255	0xbdd43927	-0.103624634

fc2.bias f4 [20]
0	0xbe07a9a6	-0.1324831
1	0xbd1d8611	-0.038457934
2	0x3ceaf776	0.028682452
3	0xbdb7be1a	-0.08971806
4	0x3cc64b39	0.02420579
5	0x3e3f5f63	0.18688731
6	0xbdd963e8	-0.10614759
7	0x3e30a844	0.17251688
8	0x3e767011	0.24066187
9	0xbcf0ca3d	-0.02939331
10	0x3e446a1a	0.191811
11	0xbda240db	-0.079225264
12	0x3d9e0dc6	0.07717471
13	0x3e82f3b3	0.25576553
14	0xbd15a860	-0.036537528
15	0x3e408a08	0.18802655
16	0x3e86d8fb	0.26337418
17	0x3dae1d9a	0.0850174
18	0xbe1b1434	-0.15144426
19	0xbd15436f	-0.036441263

fc3.weight f4 [5, 20]
0	0xbe1a0af7	-0.15043245
1	0x3daae545	0.08344511
2	0xbc2a30b0	-0.010387585
3	0x3e545e1d	0.20739026
4	0xbe6e1aae	-0.23252365
5	0x3e5cd2b7	0.21564756
6	0xbe83cdee	-0.2574305
7	0xbe1756f4	-0.14779264
8	0x3d756c84	0.05991794
9	0xbe1f182d	-0.15536566
10	0x3b476c4a	0.0030429536
11	0x3d9903f0	0.07471454
12	0xbe478904	-0.19485861
13	0xbe08e6b5	-0.13369258
14	0x3e343643	0.17598824
15	0x3e0022d1	0.12513281
16	0xbe1d2162	-0.15344766
17	0xbce80e49	-0.028327124
18	0x3dae259d	0.08503268
19	0xbe142b72	-0.14469698
20	0xbe36482d	-0.1780097
21	0xbe7a373f	-0.24435137
22	0x3d191648	0.037374765
23	0xbe70244a	-0.23451343
24	0xbd0a5082	-0.033768184
25	0x3d8da68b	0.06916531
26	0xbdfa18a0	-0.12211728
27	0xbe038082	-0.1284199
28	0xbdfd2073	-0.12359705
29	0x3e39b957	0.18137108
30	0xbdfe1167	-0.12405663
31	0xbe5bd15e	-0.21466586
32	0xbe10609b	-0.14099352
33	0xbe2f3302	-0.17109302
34	0x3de848ef	0.11342036
35	0x3e259516	0.16170153
36	0x3cfe0919	0.031010197
37	0x3e0d6aa0	0.13810205
38	0x3e441e68	0.19152224
39	0x3db5d7f6	0.08879082
40	0xbe428f7e	-0.1900005
41	0x3d3b21d5	0.04568656
42	0xbd97a785	-0.07404999
43	0xbd8c35b8	-0.068461835
44	0xbda75f04	-0.0817242
45	0xbe67caa2	-0.22635892
46	0x3e207388	0.15669072
47	0x3afeb660	0.0019433014
48	0xbe0fa9ca	-0.14029613
49	0xbe17837e	-0.14796254
50	0xbe249889	-0.16073813
51	0xbd5d90d6	-0.054093204
52	0xbd7e9ea8	-0.062163025
53	0x3dc52135	0.09625474
54	0x3d8d1229	0.068882294
55	0xbd18c2c4	-0.037295118
56	0xbde8acd5	-0.1136109
57	0x3d80416c	0.06262478
58	0xbe64268d	-0.22280331
59	0x3d5fd908	0.054650337
60	0x3e3a528e	0.18195555
61	0x3d07c82f	0.033149894
62	0x3e01da9b	0.12681048
63	0xbe8911c4	-0.26771367
64	0xbd2a1695	-0.041525442
65	0xbe68b54a	-0.22725406
66	0x3d27b3af	0.040942844
67	0x3e27e888	0.16397297
68	0xbabc2cb5	-0.0014356585
69	0xbe0e9260	-0.13923025
70	0xbd64209f	-0.055695172
71	0xbe8b6af0	-0.27230024
72	0x3b21d215	0.002469187
73	0xbe3e6070	-0.18591475
74	0xbe6b323a	-0.22968379
75	0x3e1c9e11	0.15294673
76	0x3cf3faee	0.029782739
77	0xbe891eee	-0.2678141
78	0xbd8b7f9b	-0.06811448
79	0xbe2a1e12	-0.16613033
80	0xbe736ab5	-0.23771174
81	0x3b950e71	0.0045488407
82	0xbd4fec2e	-0.050762348
83	0xbe6e4933	-0.23270111
84	0xbe4e31d1	-0.20136191
85	0xbe680a1a	-0.22660103
86	0xbe0896b1	-0.13338734
87	0x3dc9c18f	0.098513715
88	0xbe35123a	-0.17682734
89	0x3e136518	0.14394033
90	0x3e14a1fc	0.14514917
91	0xbd85b007	-0.06527715
92	0x3e1d0a5b	0.15335982
93	0xbcb64b93	-0.022252833
94	0x3e1be72c	0.15224904
95	0x3cd7d67a	0.026347388
96	0xbdad0cdd	-0.08449719
97	0x3dc885fe	0.09791182
98	0x3c6d0075	0.014465441
99	0xbe036e62	-0.12835076

fc3.bias f4 [5]
0	0xbdc7c56f	-0.09754454
1	0xbd0cb5b7	-0.034352984
2	0x3e132566	0.14369735
3	0xbd0d6813	-0.03452308
4	0xbe35f320	-0.17768526

fcns.0.weight f4 [20, 20]
0	0x3d9ca0f7	0.07647889
1	0xbddd618b	-0.108096205
2	0x3e22a64c	0.1588375
3	0xbdc849f8	-0.097797334
4	0xbd7c53cd	-0.061603356
5	0xbde4f1b8	-0.11178917
6	0xbde80375	-0.113287844
7	0xbd2b15a2	-0.041768678
8	0xbe4acc51	-0.19804503
9	0xbe415068	-0.18878329
10	0x3d7e2b58	0.062053055
11	0x3e55f2c6	0.20893392
12	0x3e1498b7	0.14511381
13	0x3e5e1728	0.21688521
14	0x3e2d4447	0.16920577
15	0xbd6466c3	-0.055762064
16	0x3d8d88ad	0.069108345
17	0xbdb6db68	-0.08928567
18	0xbdaee420	-0.08539605
19	0x3dccfe27	0.10009413
20	0x3d6f01fe	0.05835151
21	0xbd9ea3ef	-0.077461116
22	0xbe417202	-0.18891147
23	0xbe1d7cc0	-0.1537962
24	0xbd875c8e	-0.0660945
25	0x3d93b108	0.072115004
26	0xbe4aa7e6	-0.1979061
27	0xbceb1a3a	-0.02869903
28	0x3e4a25df	0.19741009
29	0xbc46850e	-0.012116684
30	0xbdabb331	-0.083837874
31	0xbe7348fb	-0.23758309
32	0x3e87bcd8	0.26511264
33	0xbe4109b2	-0.18851355
34	0xbd8c2d89	-0.06844623
35	0x3cc26f99	0.023734855
36	0x3e3dc2eb	0.18531387
37	0xbdb08712	-0.086195126
38	0x3e2e4445	0.1701823
39	0xbd14ffed	-0.036376882
40	0x3d8bb48c	0.06821546
41	0xbe68a611	-0.227196
42	0x3da823d7	0.08209961
43	0x3e5dc13c	0.21655744
44	0x3d9e4f75	0.07729999
45	0x3d0dbdbd	0.034604777
46	0x3e42e1b3	0.1903141
47	0xbbd83a48	-0.0065987445
48	0xbe2c13bd	-0.16804405
49	0x3d148eb7	0.036268916
50	0x3cfc8cfb	0.030828943
51	0x3daff82c	0.08592257
52	0xbcf92ade	-0.030415948
53	0x3db3c60c	0.08778009
54	0xbe473af9	-0.1945609
55	0x3e2f2c6a	0.17106786
56	0xbd0da366	-0.034579657
57	0xbe12cbac	-0.14335507
58	0xbbbc66d1	-0.0057495614
59	0xbdc66fcb	-0.096892916
60	0xbdcae5ec	-0.09907135
61	0x3d5b1afc	0.05349253
62	0xbb050408	-0.0020296592
63	0xbd93cc87	-0.07216745
64	0xbd77d963	-0.06051005
65	0xbd596546	-0.053075098
66	0x3e38446c	0.17994851
67	0xbe1b7044	-0.15179545
68	0x3e812f9f	0.25231645
69	0xbcc257a9	-0.02372344
70	0x3ce77f73	0.028259015
71	0xbe2c8f19	-0.16851462
72	0xbde9d687	-0.11417871
73	0x3e041523	0.12898688
74	0x3dcdb818	0.10044879
75	0xbddebf24	-0.10876301
76	0xbda369ef	-0.079791896
77	0xbdcb3201	-0.09921647
78	0xbdb79945	-0.08964781
79	0xbe0d5fab	-0.13806026
80	0xbdb7705f	-0.0895698
81	0xbd4d170a	-0.0500708
82	0xbde851f3	-0.113437556
83	0x3dfaa691	0.12238801
84	0x3cadbf90	0.021209508
85	0x3d6f5cfa	0.05843828
86	0x3d9fd279	0.07803816
87	0x3ced4ec3	0.02896822
88	0xbcde0443	-0.027101642
89	0xbe3df683	-0.18551068
90	0xbe4c9ab8	-0.19980896
91	0x3ca8e738	0.020618066
92	0x3e7cb369	0.24677815
93	0x3dcd4b04	0.10024074
94	0xbd87e0ab	-0.06634649
95	0x39fd14cf	0.00048271424
96	0x3e4e7d8e	0.20165083
97	0x3d80e28b	0.0629321
98	0xbdc3be51	-0.09557784
99	0x3cb7adf7	0.02242182
100	0x3e761122	0.24029973
101	0x3dac8739	0.08424229
102	0x3d3e2dac	0.046430275
103	0x3d7ebd05	0.06219198
104	0x3d80b527	0.06284552
105	0x3e193f96	0.14965662
106	0xbe118db7	-0.14214216
107	0xbdb48aad	-0.08815513
108	0x3d30c8ed	0.043160368
109	0x3ddde8f1	0.10835446
110	0x3d9ee203	0.07757952
111	0x3d2ca00c	0.04214482
112	0xbdedf784	-0.116194755
113	0x3c07cdfd	0.0082888575
114	0x3e37e1d8	0.17957246
115	0xbe09d299	-0.13459243
116	0xbe3fd92b	-0.18735187
117	0xbd438db5	-0.047742564
118	0x3c1cb7e4	0.009565327
119	0xbd1935c1	-0.03740478
120	0xbd58247b	-0.052769165
121	0xbe12fdb7	-0.14354597
122	0xbc2de308	-0.0106132105
123	0xbb5ebfe1	-0.003398888
124	0x3e31626a	0.17322698
125	0xbe6a26b9	-0.22866334
126	0xbe4e946b	-0.20173804
127	0x3dd0ac0a	0.10189064
128	0xbd613e68	-0.054991156
129	0x3e0bc14c	0.13647956
130	0x3e3233e2	0.17402604
131	0xbe0744b3	-0.132098
132	0xbc240eff	-0.010013341
133	0x3dab824c	0.083744615
134	0xbe36fb56	-0.17869315
135	0xbe423bce	-0.18968126
136	0xbdf21e1b	-0.118221484
137	0xbd3e81ef	-0.046510633
138	0xbdc5548b	-0.09635266
139	0xbd573793	-0.052543234
140	0x3d3e158b	0.046407264
141	0xbe54f6a9	-0.20797218
142	0xbe2cbc7d	-0.16868778
143	0x3d22789c	0.039665803
144	0xbd2dfaa1	-0.042475346
145	0xbcf72028	-0.0301667
146	0x3dd30d17	0.10305231
147	0xbdcdae75	-0.10043041
148	0x3e3e8c0d	0.18608113
149	0xbdce9a60	-0.100880384
150	0x3cbab8fa	0.022793282
151	0xbe3b2740	-0.18276691
152	0xbe4d0d55	-0.20024617
153	0x3dff0ad3	0.124532364
154	0x3dfa7e7e	0.12231158
155	0xbe0969ab	-0.13419215
156	0xbd764c88	-0.06013158
157	0x3df030c5	0.11728052
158	0xbe04f92d	-0.12985678
159	0xbe56c6eb	-0.20974319
160	0xbd2ede27	-0.04269233
161	0x3e43fa7e	0.19138524
162	0xbdf7c091	-0.12097276
163	0x3dcc9065	0.099884786
164	0x3ddeae15	0.10873047
165	0x3e820c2b	0.25399908
166	0xbdf27ded	-0.11840425
167	0xbe20ab7c	-0.15690416
168	0x3e7c6dd9	0.24651279
169	0x3d22b5e9	0.039724264
170	0x3e281745	0.16415127
171	0xbca552c8	-0.020181075
172	0x3c9964b2	0.018724773
173	0x3c62205a	0.0138016585
174	0x3c8cd295	0.017190257
175	0xbe4ff26b	-0.20307319
176	0xbe3e4ab4	-0.18583184
177	0x3dc57f14	0.09643379
178	0x3b9469ea	0.0045292275
179	0x3e3ff1db	0.18744604
180	0x3d86d4ce	0.06583558
181	0x3dcf66e1	0.101270445
182	0xbcf570c5	-0.029961
183	0x3e113633	0.14180832
184	0x3d959e8b	0.0730563
185	0xbcb4abb4	-0.02205453
186	0x3e414615	0.1887439
187	0xbe29b43c	-0.1657266
188	0x3db0314a	0.08603151
189	0xbcca6af6	-0.024709206
190	0x3e5b621a	0.21424142
191	0x3e354284	0.17701155
192	0x3dd42a70	0.10359657
193	0xbe150ddb	-0.14556067
194	0x3d1c2d10	0.038128912
195	0xbe06e89f	-0.13174675
196	0x3e27d2cb	0.16389005
197	0xbdc91692	-0.09818758
198	0xbd7515d9	-0.05983529
199	0xbe255b09	-0.16148008
200	0x3e0fef2f	0.14056085
201	0x3e67fd68	0.2265526
202	0x3dafd971	0.085863955
203	0x3db9f5d6	0.090800926
204	0x3dac5b67	0.08415871
205	0xbdb09038	-0.086212575
206	0xbe34ba8e	-0.1764929
207	0x3d8e4c2f	0.069481246
208	0xbe528a6f	-0.2056062
209	0x3dc0ffd1	0.09423793
210	0xbdf30c19	-0.11867542
211	0x3e2e498e	0.17020246
212	0xbd8e54aa	-0.06949742
213	0xbe2c3a68	-0.16819155
214	0xbdd92f59	-0.10604734
215	0x3e2355b5	0.15950663
216	0x3d915ab6	0.0709738
217	0xbe29b989	-0.16574682
218	0x3de6a66c	0.11262211
219	0xbd2cc0eb	-0.04217617
220	0x3e6b8716	0.2300075
221	0xbc433e7a	-0.011916751
222	0x3de25ecc	0.11053237
223	0xbda4cbaf	-0.08046662
224	0x3daf97e8	0.08573896
225	0x3cc29313	0.023751771
226	0x3b988203	0.0046541705
227	0x3e4f0381	0.2021618
228	0xbd3ffa51	-0.04686958
229	0xbcdfb0e0	-0.02730602
230	0x3c8d6a9f	0.017262755
231	0xbe3b6d2f	-0.18303369
232	0x3e7bafd6	0.24578795
233	0xbcb2aee5	-0.021811912
234	0x3df95bfc	0.12175748
235	0x3e2df3a4	0.16987473
236	0xbe0bd9e6	-0.1365734
237	0xbd7704fa	-0.06030748
238	0x3dfc8b67	0.123312764
239	0x3e0da9cb	0.13834302
240	0x3e209cef	0.15684865
241	0xbe26e7c1	-0.16299345
242	0x3d1be97f	0.038064476
243	0x3cd6b3f2	0.026208851
244	0xbd433f07	-0.04766753
245	0xbe611623	-0.219811
246	0x3c2e3724	0.010633264
247	0xbe59fbff	-0.21287535
248	0x3d9b7ef7	0.07592576
249	0xbe0fc584	-0.1404019
250	0xbddbd877	-0.10734647
251	0x3e131667	0.14364015
252	0xbe2f7876	-0.17135796
253	0xbdcd9fc4	-0.100402385
254	0x3cf763e0	0.030198991
255	0xbdd7ebfc	-0.10543057

fcns.0.bias f4 [20]
0	0x3c911a0e	0.01771262
1	0xbdbdb5f3	-0.0926322
2	0x3d51c7fd	0.051216114
3	0xbe5e6e3c	-0.21721739
4	0x3e601f42	0.21886924
5	0xbcd7aa17	-0.026326222
6	0xbdfbc77d	-0.12293909
7	0xbda616bd	-0.08109806
8	0x3da7cc79	0.08193297
9	0xbe2827c7	-0.16421424
10	0xbc57002d	-0.0131226005
11	0xbd9badbe	-0.07601498
12	0xbda1ee3d	-0.079067685
13	0xbdc0d914	-0.09416404
14	0xbe2f6580	-0.17128563
15	0xbdd2933f	-0.10281991
16	0x3e4468cf	0.19180606
17	0x3e62bcb6	0.221423
18	0xbd976b3d	-0.07393501
19	0xbd164b13	-0.03669269

fcns.1.weight f4 [20, 20]
0	0xbd1f8700	-0.038947105
1	0xbd8c786f	-0.068589084
2	0x3dfd2f1c	0.12362501
3	0xbbe143dd	-0.006874545
4	0xbdb39e68	-0.08770448
5	0x3d4c6322	0.049899228
6	0xbccedff6	-0.025253277
7	0xbe6573dc	-0.22407478
8	0x3dfe5127	0.12417822
9	0x3d1c919e	0.03822481
10	0x3e223810	0.15841699
11	0xbda6468f	-0.08118927
12	0xbd9932e1	-0.074804075
13	0xbe2f3afa	-0.17112342
14	0xbe025be8	-0.12730372
15	0xbcb0563b	-0.021525493
16	0xbca13615	-0.019679109
17	0x3e16add1	0.14714743
18	0x3dc507ef	0.09620654
19	0x38ca0323	9.632695e-05
20	0xbe42c72c	-0.1902129
21	0x3d7930bc	0.060837492
22	0xbd4d6b48	-0.05015114
23	0x3e4d385c	0.2004103
24	0x3dad6bc0	0.08467817
25	0xbc2fc652	-0.010728436
26	0x3bd66915	0.0065432885
27	0x3e4bb723	0.1989408
28	0x3e2b61dd	0.1673655
29	0xbe2de9b6	-0.16983685
30	0x3e428d74	0.18999273
31	0x3ce22647	0.027606143
32	0x3da379d1	0.07982219
33	0x3d9c4486	0.07630257
34	0x3e06830b	0.13135926
35	0x3da8097e	0.082049355
36	0xbe44967a	-0.19198027
37	0xbe053deb	-0.13011901
38	0x3cb0bfb1	0.02157578
39	0x3e63fc1c	0.22264141
40	0x3de326ca	0.11091383
41	0x3da26ac4	0.0793052
42	0xbe06ffad	-0.1318347
43	0x3e2726d1	0.16323401
44	0xbdb29357	-0.08719509
45	0x3e5121bc	0.20423025
46	0xbdf83d6f	-0.121210925
47	0x3e1edbd8	0.15513551
48	0x3db6a987	0.089190535
49	0x3da1e4a5	0.079049386
50	0xbd2e7ec2	-0.042601354
51	0xbdd6c2fb	-0.10486408
52	0x3dd2f1c4	0.103000194
53	0xbe2fd6fa	-0.17171851
54	0x3e5063fe	0.20350644
55	0xbe379add	-0.1793017
56	0xbd367aac	-0.044550583
57	0x3c5e2bcd	0.013560248
58	0x3e438745	0.1909457
59	0x3d8ae498	0.06781882
60	0x3d68e696	0.05686053
61	0x3e661215	0.22467835
62	0x3c6ed0db	0.014576162
63	0x3e156f5a	0.14593259
64	0xbe76774a	-0.24068943
65	0xbde9911b	-0.1140463
66	0x3e01b611	0.12667109
67	0x3e2257a0	0.15853739
68	0xbd1e36ac	-0.038626358
69	0xbe4d8820	-0.20071459
70	0x3b288813	0.0025715872
71	0xbe0985c9	-0.13429941
72	0xbe06b81f	-0.13156174
73	0xbe2e89bd	-0.1704473
74	0x3bfdc3aa	0.0077442722
75	0x3e19fa9c	0.15037006
76	0x3d80bf3b	0.06286474
77	0x3df96d5b	0.12179061
78	0x3d14df86	0.03634598
79	0xbe45f33f	-0.19331072
80	0x3e22c831	0.1589668
81	0x3d34566f	0.044027742
82	0x3ce61dd6	0.028090399
83	0xbe15df6f	-0.14636014
84	0xbe377cbe	-0.17918679
85	0x3e5e5e14	0.21715575
86	0xbe073348	-0.13203156
87	0x3e410a00	0.18851471
88	0x3e2c48bc	0.16824621
89	0xbd2d03ce	-0.042239957
90	0x3e6e060e	0.23244497
91	0x3d2244c7	0.039616372
92	0x3e1a5f3b	0.1507539
93	0x3cf0b1a4	0.02938158
94	0x3d348dbc	0.04408048
95	0xbd270355	-0.040774662
96	0x3c04b938	0.0081008
97	0x3e1c279e	0.15249488
98	0x3d61ca1c	0.055124387
99	0xbc1ce856	-0.009576878
100	0xbd3479e8	-0.04406157
101	0xbe463a50	-0.19358182
102	0xbe4ffaed	-0.20310564
103	0xbe0f591e	-0.1399884
104	0x3d0ac1e2	0.033876307
105	0xbe0f1ac8	-0.1397506
106	0x3d568775	0.052375276
107	0x3d854544	0.06507352
108	0xbd25b42e	-0.040455036
109	0xbe4d8d32	-0.20073393
110	0x3dd0360a	0.10166557
111	0x3e333359	0.17500056
112	0xbe1bb465	-0.15205534
113	0x3d3747ee	0.044746332
114	0x3e0dce2a	0.13848177
115	0x3df836ec	0.121198505
116	0x3e24cc3b	0.16093533
117	0x3cfc8bf1	0.030828448
118	0x3d813a1b	0.06309911
119	0xbe0b6842	-0.1361399
120	0x3d586d82	0.05283881
121	0xbe0b8cc0	-0.1362791
122	0xbe25c73c	-0.16189283
123	0xbdaa838b	-0.08325871
124	0xbe08b9ae	-0.13352081
125	0xbdabf93c	-0.08397147
126	0xbdd87a53	-0.105702065
127	0xbe4d1c86	-0.20030412
128	0xbd7697b9	-0.060203288
129	0x3d0c6272	0.034273572
130	0x3d8008b1	0.06251658
131	0xbc5e4cfb	-0.013568158
132	0x3d7ef446	0.062244676
133	0x3d3fe5ba	0.046849944
134	0x3e660920	0.22464418
135	0x3db41fd3	0.087951325
136	0xbe2f196c	-0.17099541
137	0xbe1f1fd4	-0.15539485
138	0xbdde4c3d	-0.10854385
139	0x3e1ba8be	0.15201089
140	0x3cb3dc25	0.021955559
141	0xbe02bfd0	-0.12768483
142	0x3da32317	0.07965677
143	0x3d8d44ac	0.06897864
144	0xbda99933	-0.082811736
145	0x3d899230	0.06717336
146	0x3db6ad20	0.0891974
147	0xbdd98d16	-0.10622613
148	0x3e114106	0.1418496
149	0xbe1d5e18	-0.15367925
150	0xbc85f27c	-0.016350977
151	0xbe43c693	-0.19118719
152	0x3dd63d33	0.104608916
153	0x3e0e9c83	0.13926892
154	0xbd85bd94	-0.065303
155	0x3e4605c6	0.1933814
156	0xbe2a9ddd	-0.16661783
157	0xbcbb697a	-0.022877444
158	0x3bbdb254	0.0057890806
159	0xbdef040c	-0.11670694
160	0xbe00df51	-0.12585188
161	0xbd8bd370	-0.06827438
162	0xbd0e9847	-0.03481319
163	0x3df6f498	0.12058371
164	0xbddbf951	-0.10740913
165	0xbd9be582	-0.076121345
166	0xbd56be33	-0.05242748
167	0x3da5212e	0.08062969
168	0xbdce675d	-0.10078309
169	0xbe1b26d4	-0.1515153
170	0x3e65f37b	0.22456162
171	0x3c495094	0.012287278
172	0xbd691c4c	-0.05691175
173	0x3d628fb7	0.05531284
174	0x3dc0169a	0.09379311
175	0xbd188310	-0.037234366
176	0x3e3d4797	0.1848434
177	0x3d75c633	0.06000347
178	0xbe37a12d	-0.17932577
179	0x3cf2b8ec	0.029629193
180	0x3e3b5ed3	0.18297891
181	0xbe844a47	-0.2583792
182	0x3e6482b2	0.22315481
183	0x3e29a991	0.1656859
184	0x3bf15c67	0.0073657515
185	0x3d473169	0.048631106
186	0x3c888367	0.01666422
187	0xbd85ff49	-0.065428324
188	0x3e27e463	0.16395716
189	0x3da809d6	0.08205001
190	0x3e3ca142	0.1842089
191	0x3dd5ddaf	0.104426734
192	0x3d64014f	0.05566531
193	0xbdfc47f7	-0.12318414
194	0x3de13bf0	0.1099776
195	0x3e085bbf	0.13316248
196	0xbd900dbc	-0.070338696
197	0x3e2f21b1	0.17102696
198	0xbe69367e	-0.22774693
199	0xbe010502	-0.12599567
200	0x3daccfaf	0.0843805
201	0xbdadf089	-0.08493144
202	0xbe4df029	-0.20111145
203	0x3def68e0	0.11689925
204	0x3dc284e3	0.094980024
205	0xbe3e70c1	-0.185977
206	0x3e4d0dce	0.20024797
207	0xbe475685	-0.19466598
208	0xbe559b1f	-0.20859955
209	0xbd46c423	-0.048526894
210	0xbe04cd5a	-0.1296896
211	0xbe0f5031	-0.13995434
212	0xbdca84bb	-0.098885976
213	0x3e15e17e	0.146368
214	0xbc0d9b2b	-0.008642952
215	0x3df9d1d4	0.12198225
216	0xbe2368e5	-0.15957983
217	0x3c1973de	0.009366004
218	0xbd93d530	-0.07218397
219	0xbe090936	-0.1338242
220	0x3d735488	0.059406787
221	0x3d5b169f	0.05348837
222	0x3d8f6c54	0.07003084
223	0x3d035f6e	0.03207343
224	0xbe0de91e	-0.13858458
225	0x3c2a9f11	0.010413901
226	0x3e5f49dd	0.2180552
227	0xbe1ff885	-0.15622146
228	0x3deb0c65	0.114769734
229	0x3d8feb10	0.070272565
230	0x3cc728de	0.02431148
231	0xbe2a19b6	-0.1661137
232	0xbd3d10e7	-0.046158697
233	0x3e2bfdc9	0.1679603
234	0xbdcd197f	-0.100146286
235	0xbe28c4cc	-0.16481322
236	0xbe1ca19f	-0.15296029
237	0xbe4fb0b1	-0.20282246
238	0x3cb7a21c	0.022416167
239	0x3d643ab6	0.055720054
240	0xbe23e833	-0.16006546
241	0xbd6272bc	-0.0552852
242	0x3d676fae	0.05650299
243	0x3dc16953	0.09443917
244	0x3e6b921b	0.23004954
245	0xbc3bfa16	-0.011473199
246	0xbd3fe207	-0.046846416
247	0x3dcabe20	0.09899545
248	0x3c85a1a9	0.016312437
249	0x3e0d8aab	0.13822429
250	0xbe1df951	-0.15427138
251	0xbd0aa153	-0.033845257
252	0x3e46e3ea	0.1942288
253	0xbe69f790	-0.22848344
254	0x3dd71451	0.10501922
255	0x3de4a131	0.11163557

fcns.1.bias f4 [20]
0	0x3e50928d	0.20368405
1	0x3de93c50	0.11388457
2	0xbdd742b3	-0.10510769
3	0xbe40d4a2	-0.18831113
4	0x3e4fc3c7	0.20289527
5	0xbe5327b1	-0.2062061
6	0x3de850d4	0.11343542
7	0xbe2cbe8a	-0.1686956
8	0xbe01df47	-0.1268283
9	0xbdb91fb2	-0.090392485
10	0x3e0bd588	0.13655674
11	0xbe3e3401	-0.18574525
12	0x3e2a26d3	0.16616373
13	0x3e59d337	0.21271978
14	0xbe46e0fd	-0.19421764
15	0x3e0d3c41	0.13792516
16	0x3d53089d	0.051521886
17	0x3dc35507	0.09537702
18	0xbd0456d2	-0.03230936
19	0x3e055d98	0.13023984

fcns.2.weight f4 [20, 20]
0	0x3e385014	0.17999297
1	0x3dbd6c65	0.0924919
2	0xbd660fad	-0.056167293
3	0xbd574096	-0.05255183
4	0x3df2a3fd	0.118476845
5	0x3dc65656	0.09684436
6	0xbe2babc0	-0.16764736
7	0xbe5dc334	-0.21656495
8	0xbe24d858	-0.16098154
9	0x3d999e30	0.07500875
10	0x3e2ce176	0.16882882
11	0xbd1c185e	-0.038109176
12	0xbd7dbce8	-0.061947733
13	0xba81e572	-0.0009910299
14	0x3df5b740	0.11997843
15	0x3e0218b1	0.12704732
16	0xbe4d123e	-0.2002649
17	0x3e3cb7a9	0.18429436
18	0x3e5345b4	0.20632058
19	0xbe26956f	-0.16267942
20	0xbd059b7b	-0.03261898
21	0xbdcee5cb	-0.10102423
22	0xbe5be894	-0.2147544
23	0x3e2d3b8b	0.16917245
24	0xbdbcda02	-0.09221269
25	0x3ca1e619	0.01976304
26	0xbdd8a76c	-0.10578808
27	0x3d378c70	0.044811666
28	0xbe5cdd68	-0.21568835
29	0xbd70c8c4	-0.058785215
30	0xbdd95be8	-0.10613233
31	0xbe654859	-0.2239088
32	0x39c0633b	0.00036695026
33	0xbd1883df	-0.037235137
34	0x3e2d7a9a	0.169413
35	0xbe5794f6	-0.21052918
36	0xbd8652c4	-0.06558755
37	0x3d00c2e0	0.031435847
38	0x3de4596d	0.11149869
39	0xbd187a88	-0.03722623
40	0xbe0ef6e3	-0.13961367
41	0x3e58cc29	0.21171631
42	0x3ddc8e0d	0.107692815
43	0x3d2e3d5d	0.04253899
44	0xbe238421	-0.15968372
45	0xbd7e0042	-0.062011965
46	0xbde670d5	-0.1125199
47	0x3e117086	0.1420308
48	0xbd95c721	-0.073133714
49	0xbe14a6d5	-0.14516766
50	0x3d496388	0.049167186
51	0x3d0ff91e	0.035149686
52	0x3dd75ae1	0.10515381
53	0xbcc5975e	-0.024120029
54	0x3d1bcc6a	0.03803674
55	0xbe23696b	-0.15958183
56	0x3cdb7351	0.026788386
57	0xb9a2319d	-0.00030936013
58	0xbbdb910f	-0.006700642
59	0x3d6f3333	0.058398437
60	0x3da26ab9	0.07930512
61	0xbd9c951f	-0.0764563
62	0xbe698586	-0.22804841
63	0xbdfb7625	-0.12278394
64	0x3df1fe17	0.11816042
65	0x3dfe3e17	0.124141864
66	0x3e2b1e85	0.16710861
67	0xbc58425c	-0.013199415
68	0xbe133e5e	-0.1437926
69	0xbe078218	-0.1323322
70	0x3e78c9dd	0.24295755
71	0xbe6e8b9b	-0.23295443
72	0xbd3b1407	-0.045673396
73	0x3e14cdc3	0.14531617
74	0xbdbe5518	-0.09293574
75	0xbd1a1f7f	-0.037627693
76	0x3c7ace51	0.015307979
77	0xbddc29bd	-0.107501484
78	0xbe64ebd5	-0.22355588
79	0x3e05152c	0.12996358
80	0x3e0cab79	0.13737287
81	0xbd447703	-0.04796506
82	0x3e4a40a6	0.19751224
83	0x3e1ca4ae	0.15297195
84	0x3dd6fd6f	0.10497557
85	0xbe653171	-0.22382142
86	0xbda499a8	-0.0803712
87	0x3e48128f	0.1953833
88	0xbe36825d	-0.17823167
89	0x3ddb53e4	0.1070936
90	0xbdfb66c5	-0.12275461
91	0x3de625cd	0.11237679
92	0xbe122985	-0.14273651
93	0xbe1430bc	-0.14471716
94	0xbc5b7830	-0.013395354
95	0xbdd7d966	-0.10539512
96	0x3d4a19be	0.049340956
97	0x3e13a284	0.14417464
98	0xbdde7f79	-0.10864157
99	0xbe41bb66	-0.18919143
100	0xbe7d75ab	-0.24751918
101	0x3e025c67	0.12730561
102	0x3e204203	0.15650181
103	0xbdb476a5	-0.08811692
104	0xbd50126f	-0.05079883
105	0x3e45ffb6	0.19335827
106	0x3e604925	0.21902902
107	0xbe1930d2	-0.1496003
108	0x3d914b24	0.0709441
109	0xbe5b7a1e	-0.21433303
110	0xbdb86da8	-0.0900529
111	0x3e287519	0.16450919
112	0xbe1f9010	-0.15582299
113	0xbc9bbec1	-0.019011857
114	0x3d8b4913	0.06801047
115	0xbcdb2714	-0.026752032
116	0x3e1c4904	0.15262228
117	0xbe44d1bd	-0.19220634
118	0xbdc63310	-0.09677708
119	0xbd89e999	-0.06734008
120	0x3e1f1327	0.1553465
121	0x3e22b2a9	0.15888466
122	0xbdbf4548	-0.09339386
123	0xbd309a4b	-0.043115895
124	0xbd292333	-0.041293334
125	0xbdce2829	-0.10066254
126	0x3d8cf4cf	0.06882631
127	0x3c7f1d81	0.015570999
128	0x3c8981d6	0.016785543
129	0x3d6a0aa1	0.057139043
130	0x3cf1be21	0.029509606
131	0x3e379b5c	0.17930359
132	0x3db9b556	0.0906779
133	0xbe0d62f0	-0.13807273
134	0xbe3dbec6	-0.18529806
135	0x3dd3c88c	0.10340986
136	0x3e1c8254	0.15284091
137	0xbddfeb7c	-0.10933587
138	0x3ded61d2	0.11590923
139	0x3e261f5e	0.16222903
140	0xb8bbd005	-8.9556015e-05
141	0xbe66ff10	-0.22558236
142	0x3dcfdbfb	0.1014938
143	0x3e1aaad9	0.15104236
144	0x3e866812	0.26251274
145	0xbc54a1c3	-0.01297802
146	0x3ccb9b8d	0.024854446
147	0x3da338cc	0.079698175
148	0xbe36e5c8	-0.17861092
149	0x3c294b1f	0.010332852
150	0xbe11bdb2	-0.1423252
151	0xbd284969	-0.041085634
152	0x3e08ce56	0.13359961
153	0x3e2f34e4	0.1711002
154	0xbda5096e	-0.08058439
155	0x3dd524ec	0.10407433
156	0x3e60e0fc	0.21960825
157	0x3e5f24d0	0.21791387
158	0xbe09c1a4	-0.13452774
159	0xbe695b60	-0.22788763
160	0xbe0fb210	-0.14032769
161	0xbdd72f2a	-0.10507043
162	0x3dc75610	0.09733212
163	0xbe3161f3	-0.17322521
164	0x3d75ff17	0.060057726
165	0xbde1c07a	-0.1102304
166	0x3c7b945e	0.015355198
167	0x3db4da83	0.0883074
168	0xbe515e90	-0.20446229
169	0x3e5e9561	0.21736671
170	0xbdcf0413	-0.10108199
171	0x3e323067	0.17401277
172	0x3e331873	0.17489795
173	0xbe6f8ae9	-0.23392834
174	0x3dc5abfb	0.09651943
175	0xbe80f104	-0.2518388
176	0xbdad377d	-0.08457849
177	0xbe3def1f	-0.18548249
178	0x3d9ab020	0.075531244
179	0xbb539e7c	-0.003229051
180	0x3cf8219d	0.030289466
181	0xbe1193ed	-0.14216585
182	0xbdceeb09	-0.10103423
183	0xbe032faa	-0.12811151
184	0x3e402b80	0.18766594
185	0x3da64d23	0.081201814
186	0x3dc9572a	0.09831078
187	0xbe12584e	-0.14291498
188	0x3d213a82	0.039362438
189	0xbdf705b8	-0.12061638
190	0xbc9fa42c	-0.019487463
191	0xbd045c34	-0.032314494
192	0xbde43330	-0.11142576
193	0xbdb5bce7	-0.08873921
194	0xbce563f4	-0.028001763
195	0xbc3864c8	-0.011254497
196	0x3e0fb138	0.14032447
197	0xbd57de9f	-0.052702542
198	0x3db217e2	0.086959615
199	0x3e494c66	0.1965805
200	0x3e0133b3	0.12617378
201	0xbd439c43	-0.047756445
202	0x3db3ce37	0.08779567
203	0x3e4302fc	0.19044107
204	0x3b8c73f7	0.004286285
205	0x3d1df0f6	0.038559876
206	0xbe11491c	-0.14188045
207	0xbe259945	-0.16171749
208	0xbe2f2186	-0.17102632
209	0x3de6049c	0.11231348
210	0x3e0a37a3	0.13497786
211	0xbe51f02d	-0.20501776
212	0x3e4b0a37	0.19828115
213	0x3dedaab7	0.11604827
214	0xbe3aebb0	-0.1825397
215	0x3dfa54ff	0.12223243
216	0xbdc28e1a	-0.0949976
217	0xbdfef55e	-0.12449144
218	0xbe526dcb	-0.20549695
219	0xbe1563ad	-0.14588805
220	0xbe374efb	-0.17901222
221	0xbccba757	-0.024860067
222	0x3e098abc	0.13431829
223	0xbd795ef4	-0.06088157
224	0xbcf763f6	-0.030199032
225	0x3d73da21	0.059534196
226	0xbd920df5	-0.07131568
227	0x3e39f3f2	0.18159464
228	0x3c5fb140	0.0136531
229	0xbb21122f	-0.0024577489
230	0xbcfb7738	-0.030696496
231	0x3c9e328f	0.019311218
232	0x3e0bacde	0.13640162
233	0x3d1460af	0.036225017
234	0xbe0ccb66	-0.13749465
235	0xbe0b785c	-0.13620132
236	0xbdb1b8d8	-0.08677834
237	0x3de674f1	0.112527736
238	0xbd8de17f	-0.069277756
239	0xbe6b4ea4	-0.22979218
240	0xbdcf9dc1	-0.10137511
241	0x3dd55e81	0.10418416
242	0xbdd8ee14	-0.10592285
243	0x3e0c713f	0.13715075
244	0xbd09505b	-0.0335239
245	0xbddd1025	-0.10794095
246	0x3cfc065f	0.030764757
247	0x3e480022	0.195313
248	0x3d890bbe	0.06691693
249	0x3df37682	0.11887838
250	0x3dc69f6d	0.09698377
251	0xbe7454cf	-0.23860477
252	0xbc4322bf	-0.01191014
253	0xbb6757e2	-0.0035300185
254	0xbd31de8d	-0.04342513
255	0xbe866708	-0.26250482

fcns.2.bias f4 [20]
0	0xbd71477d	-0.058906067
1	0x3d65a92c	0.056069538
2	0xbd4070a6	-0.04698243
3	0x3dd8781e	0.105697855
4	0xbd509e4e	-0.05093222
5	0x3e26e69f	0.16298912
6	0xbe2fa59e	-0.17153022
7	0x3da27daf	0.079341285
8	0xbda8563a	-0.082195714
9	0x3d8c6b81	0.06856442
10	0xbd03e943	-0.032204878
11	0x3e3e1738	0.18563545
12	0x3e586143	0.21130852
13	0xbd103434	-0.035206035
14	0xbdfb5e7c	-0.12273881
15	0xbe418d44	-0.18901545
16	0xbd5b4eab	-0.05354182
17	0xbe35648d	-0.17714138
18	0x3e56ed0f	0.20988868
19	0x3e512c9a	0.2042717

fcns.3.weight f4 [20, 20]
0	0xbe04fb00	-0.12986374
1	0xbdc659f0	-0.09685123
2	0x3e253ab4	0.16135675
3	0x3e026aa4	0.12735993
4	0xbdf4ab38	-0.1194672
5	0x3e037e13	0.12841062
6	0xbca588eb	-0.02020689
7	0x3d9427ce	0.07234155
8	0xbdc5f931	-0.0966667
9	0x3e34059a	0.17580262
10	0xbdbe5f01	-0.09295464
11	0xbe4b68b6	-0.19864163
12	0x3e101ea7	0.14074193
13	0x3d9a6afd	0.07539938
14	0x3e125be4	0.14292866
15	0x3da0c3da	0.07849856
16	0x3e3b7487	0.1830617
17	0xbe040ef0	-0.12896323
18	0x3dab6dc2	0.08370544
19	0x3d330ad8	0.043711513
20	0xbe3a697b	-0.182043
21	0x3d105293	0.035235
22	0xbdf8b599	-0.12144012
23	0x3d4443a9	0.04791609
24	0x3c04ed72	0.008113252
25	0x3c2e6f32	0.010646628
26	0x3e59e4b3	0.21278648
27	0xbd1cc219	-0.038271043
28	0x3c929bcd	0.017896557
29	0x3cb476ae	0.022029247
30	0x3dcab3e7	0.09897595
31	0xbd283ebb	-0.04107545
32	0xbdbb73f6	-0.09152977
33	0x3daef0cd	0.08542023
34	0xbde155f7	-0.110027246
35	0xbdc01b54	-0.093802124
36	0x3e342a12	0.17594174
37	0x3db1d193	0.08682551
38	0x3e0a537f	0.13508414
39	0xbdb240c2	-0.08703758
40	0x3dca1592	0.098673955
41	0xbe36338d	-0.17793103
42	0xbdbc16da	-0.09184046
43	0xbe3e1a75	-0.1856478
44	0x3c76a82a	0.015054742
45	0x3da0d245	0.07852606
46	0x3e42bffb	0.19018547
47	0xbccfe444	-0.0253774
48	0xbe0326b0	-0.12807727
49	0x3e111029	0.14166321
50	0x3e252802	0.16128543
51	0xbdc46ed9	-0.09591455
52	0x3dc4bc4a	0.09606226
53	0x3e0ac028	0.13549864
54	0x3d42d4b3	0.047566127
55	0x3dedd0aa	0.11612065
56	0xbd5e0612	-0.054205008
57	0x3e3c517c	0.18390459
58	0xbe788a70	-0.2427156
59	0x3d4a0741	0.049323324
60	0x3e437152	0.19086197
61	0x3ba9df31	0.005184077
62	0x3c5977ad	0.013273162
63	0xbd83a1d5	-0.064273514
64	0xbe0212f4	-0.12702543
65	0xbd7c1c24	-0.061550274
66	0x3dcb727a	0.09933944
67	0xbe15c814	-0.14627105
68	0xbe6d9bdd	-0.23203988
69	0x3e3c36dd	0.18380304
70	0x3d9a62a4	0.075383455
71	0xbd8c25ae	-0.06843124
72	0xbe6831d2	-0.22675255
73	0x3dd3fba6	0.103507325
74	0x3e2502c1	0.16114332
75	0x3e0959d0	0.13413167
76	0xbe0ad252	-0.13556793
77	0xbe3309d9	-0.17484225
78	0xbc791e6e	-0.015205009
79	0xbd81f4bc	-0.063455075
80	0x3d558449	0.05212811
81	0xbe2be841	-0.16787817
82	0x3ddce11c	0.10785124
83	0xbd7f3b60	-0.062312484
84	0x3c7783b2	0.015107082
85	0x3e80f1fd	0.25184622
86	0xbe32dbf9	-0.17466725
87	0x3e3b9c7e	0.18321416
88	0x3d5213fd	0.051288594
89	0xbd4fea09	-0.050760303
90	0x3d3601f6	0.044435464
91	0xbe6a54ad	-0.22883864
92	0xbe365676	-0.1780642
93	0xbdde47db	-0.10853549
94	0xbd6c351a	-0.05766783
95	0xbde78f5b	-0.1130664
96	0xbe044b8c	-0.12919444
97	0x3c552d59	0.0130113
98	0x3e037844	0.12838846
99	0xbe2b9b0e	-0.16758367
100	0xbd4df97b	-0.05028675
101	0xbde5be38	-0.11217922
102	0xbe19078b	-0.14944284
103	0x3e22002d	0.1582038
104	0xbce2ab4e	-0.027669575
105	0xbe23e2b4	-0.16004449
106	0xbd6e670f	-0.058203753
107	0x3e4a7b0b	0.197735
108	0xbd4a678f	-0.049415167
109	0xbced10e1	-0.028938713
110	0x3e8b1bc4	0.2716962
111	0xbe0c34e9	-0.13692059
112	0xbce63667	-0.028102113
113	0xbd7f735d	-0.06236588
114	0x3c8a8b54	0.01691214
115	0xbdbaab8e	-0.09114753
116	0x3e2d313c	0.16913313
117	0x3d9844af	0.07434975
118	0xbe3642ef	-0.1779897
119	0xbe4155e0	-0.18880415
120	0xbe1838e4	-0.14865452
121	0x3d890643	0.066906475
122	0x3d3b989b	0.045799833
123	0x3c03c114	0.008041639
124	0xbd6635f1	-0.056203786
125	0x3d9bf172	0.076144114
126	0x3cbdb5aa	0.023157913
127	0xbe1be34f	-0.1522343
128	0x3e36d752	0.17855576
129	0x3e327279	0.1742648
130	0xbe209270	-0.15680861
131	0x3e6e852d	0.2329299
132	0xbd83acc1	-0.064294346
133	0xbe9373bd	-0.2879924
134	0xbe40ca8c	-0.18827266
135	0x3b80a0e7	0.003925431
136	0xbe2528c1	-0.16128828
137	0x3e05f633	0.13082199
138	0xbe07d9e5	-0.13266714
139	0xbc1da29f	-0.009621291
140	0xbddac0e2	-0.10681321
141	0x3e4aefd5	0.19818051
142	0xbd9eedc5	-0.07760195
143	0x3dd6663e	0.1046872
144	0x3e0bf66b	0.1366822
145	0xbe0fa64d	-0.14028282
146	0xbe5852e4	-0.2112537
147	0xbdfc08e7	-0.123063855
148	0xbd7d922c	-0.06190698
149	0x3d8dc4e2	0.06922318
150	0xbda587ee	-0.08082567
151	0xbc960e21	-0.018317284
152	0xbc779798	-0.015111826
153	0xbdb4b1e9	-0.08822996
154	0xbe6a401a	-0.22876015
155	0x3cbbdf0c	0.022933505
156	0xbc6c7638	-0.014432482
157	0x3dc9318f	0.09823906
158	0xbdd2c940	-0.10292292
159	0xbe7d94ba	-0.24763766
160	0xbe817678	-0.25285697
161	0x3d6d48d2	0.057930775
162	0xbe67e21c	-0.22644848
163	0xbe79b77b	-0.24386398
164	0x3dc956fc	0.09831044
165	0xbdba815f	-0.09106707
166	0x3d1bbc92	0.03802163
167	0x3e0af297	0.13569103
168	0x3e33a327	0.17542706
169	0xbde9b1c8	-0.11410862
170	0xbe7dc790	-0.24783158
171	0x3e5af343	0.2138186
172	0xbe880d7d	-0.2657279
173	0x3e2dca51	0.16971709
174	0x3d36fc10	0.04467398
175	0x3e054a1a	0.13016549
176	0xbe743d96	-0.23851618
177	0x3dcc0131	0.09961165
178	0xbd33b914	-0.043877676
179	0x3e265e26	0.16246852
180	0xbdc30793	-0.09522929
181	0xbe2e5e56	-0.17028174
182	0xbe1d1a6c	-0.1534211
183	0x3dce492f	0.100725524
184	0xbe2de65b	-0.16982405
185	0xbe419aa1	-0.18906642
186	0x3da844f5	0.082162775
187	0x3cb673c5	0.022272
188	0x3de8f271	0.11374367
189	0x3ce0b37b	0.027429333
190	0x3e5189eb	0.20462768
191	0x3e4147a5	0.18874986
192	0x3d13ade6	0.036054514
193	0xbdef0c35	-0.1167225
194	0x3deabd30	0.11461866
195	0xbe337a52	-0.1752713
196	0x3e3e2d37	0.18571936
197	0x3cc97aea	0.024594743
198	0x3ad2f9a5	0.0016096128
199	0x3c448ab7	0.011995963
200	0x3d86abf9	0.0657577
201	0xbe02681e	-0.1273503
202	0x3d0abc6e	0.033871107
203	0x3def96cd	0.11698685
204	0xbd8eae6f	-0.06966864
205	0xbe012f7b	-0.12615769
206	0xbe19c520	-0.15016603
207	0x3e373a21	0.17893268
208	0xbcb82be8	-0.022481874
209	0x3e3436f9	0.17599095
210	0x3e01dd26	0.12682018
211	0x3e0b7322	0.13618138
212	0x3e3db7fb	0.18527214
213	0xbdc4f8c3	-0.0961776
214	0xbdf05c6c	-0.11736378
215	0x3e380f77	0.1797465
216	0x3dc62bd3	0.096763276
217	0xbd8d9c4b	-0.06914576
218	0xbe1b4cdd	-0.1516604
219	0xbdfc734c	-0.12326679
220	0x3d7d7dd0	0.061887562
221	0x3e0b4dfa	0.13603964
222	0x3e2b66f3	0.16738491
223	0x3e15c416	0.14625582
224	0x3e356ef7	0.17718111
225	0x3e569ba2	0.20957807
226	0xbe0c6408	-0.13710034
227	0x3e4b405f	0.19848774
228	0xbe002045	-0.1251231
229	0xbe64f423	-0.22358756
230	0x3cd05850	0.025432736
231	0xbde36b81	-0.11104489
232	0xbdaf1816	-0.08549516
233	0x3d632184	0.055451885
234	0x3e3dbb4d	0.18528481
235	0xbbb1d3b1	-0.005426847
236	0xbe60aab4	-0.21940118
237	0xbe675e0b	-0.22594468
238	0x3e1c5760	0.15267706
239	0xbc3309c5	-0.010927622
240	0xbde1c530	-0.11023939
241	0xbdcfd114	-0.101473
242	0x3d6476d4	0.055777386
243	0x3e354315	0.17701371
244	0x3e0a3f5f	0.13500737
245	0xbdc612a0	-0.09671521
246	0xbe34f77a	-0.1767253
247	0x3e155d57	0.14586388
248	0x3e1c3a97	0.15256725
249	0x3e19f260	0.15033865
250	0xbdbe1514	-0.09281364
251	0xbc0faf93	-0.0087698875
252	0xbd93eb3a	-0.072226
253	0xbbc5afb6	-0.0060329093
254	0x3d85082c	0.06495699
255	0x3e12684c	0.14297599

fcns.3.bias f4 [20]
0	0x3e205d4e	0.15660593
1	0xbdcf9043	-0.101349376
2	0xbc9508d7	-0.018192692
3	0xbe64a47f	-0.22328375
4	0xbe4cd182	-0.20001796
5	0xbe59fd5e	-0.21288058
6	0x3ce4b450	0.027918011
7	0x3e4aa3d3	0.19789056
8	0xbe52aed1	-0.205745
9	0xbd3075f1	-0.043081228
10	0x3d99159f	0.07474827
11	0xbe30ff91	-0.17284991
12	0x3e4e286a	0.20132604
13	0x3d09a1a6	0.033601426
14	0x3dd90fdc	0.10598728
15	0xbe00ea3b	-0.12589352
16	0xbe5366dd	-0.20644708
17	0xbdb4cb28	-0.088278115
18	0xbca52838	-0.02016078
19	0xbe31cf3f	-0.17364214
